temp/idx-260-strainMatSVD-AugShift-LR1.00E-04-CV3-Ch8-net.pth (torch_old, 242280 bytes, 21 tensors)

layers.0.weight f4 [8, 1, 3, 3]
0	0x3f116b0d	0.5680397
1	0x3f32bfbf	0.6982383
2	0x3f1692b0	0.5881758
3	0x3f121996	0.5707029
4	0x3ee4e68d	0.44707146
5	0x3eb63226	0.35585135
6	0x3e677cac	0.22606152
7	0xbc14f85e	-0.0090924185
8	0x3e84e64d	0.25956956
9	0xbfe72646	-1.8058555
10	0xbf0301fd	-0.5117491
11	0x3f6bd701	0.92124945
12	0xbfe144d0	-1.7599125
13	0xbf84a7fb	-1.0363764
14	0x3eb9e3ae	0.36306518
15	0xbe18f5ff	-0.1493759
16	0xbeb15dff	-0.34642026
17	0x3edc39bd	0.430128
18	0xbed50be0	-0.41610622
19	0xbf421802	-0.75817883
20	0xbeda022d	-0.42579785
21	0xbf13812a	-0.57618964
22	0xbfd48583	-1.6603245
23	0xbfdf7803	-1.74585
24	0xbda14846	-0.07875113
25	0xbf00beda	-0.50291216
26	0xbe3b1f6e	-0.18273708
27	0xbff519ca	-1.9148495
28	0xbfb23a8f	-1.3924121
29	0xbe2f8b98	-0.17143095
30	0xbf81455b	-1.0099291
31	0xbe67372e	-0.22579643
32	0x3f6e4f9c	0.93090224
33	0xbf0f73f2	-0.56036294
34	0xbe48e433	-0.19618301
35	0x3f38fb5a	0.7225853
36	0x3ec41a52	0.3830133
37	0xbe261e02	-0.16222385
38	0xbf1f5d02	-0.62251294
39	0x3ec6f697	0.38860008
40	0xbe193685	-0.14962204
41	0xbf0a8861	-0.5411435
42	0x3ebdb588	0.3705256
43	0xbeea2bb2	-0.45736462
44	0xbe9d0ad6	-0.3067233
45	0x3e1afea5	0.15136202
46	0x3f111fd6	0.566892
47	0x3f508db2	0.8146621
48	0x3f3111ca	0.6916777
49	0x3f13bde8	0.5771165
50	0x3f4cf3fa	0.8005978
51	0xbeb74383	-0.35793695
52	0xbe72dacf	-0.23716281
53	0xbd7cdfd6	-0.061736904
54	0x3e2f18f0	0.17099357
55	0x3e528638	0.20559013
56	0x3c848eb1	0.016181322
57	0x3ed307df	0.41216943
58	0x3f1e0d4b	0.61739033
59	0x3ecc60aa	0.399175
60	0x3ea1046d	0.3144869
61	0x3e94ab34	0.29036868
62	0x3d749298	0.059710115
63	0x3d436de5	0.047712225
64	0xbf12b523	-0.5730764
65	0xbf628b36	-0.8849367
66	0x3e4e00e0	0.20117521
67	0xbe725209	-0.23664106
68	0xbf04de8f	-0.519021
69	0x3e645ae1	0.22300293
70	0xbea3f11b	-0.32019886
71	0x3d63dc8a	0.055630244

layers.0.bias f4 [8]
0	0x397c9b80	0.00024090521
1	0x3d3e0f50	0.046401322
2	0x3d967e5e	0.073483214
3	0x3acb4b84	0.0015510176
4	0x3e34e0af	0.17663835
5	0x3e2d12ab	0.16901653
6	0x3ec2d57a	0.38053495
7	0x3d0882be	0.03332781

layers.2.weight f4 [8, 8, 3, 3]
0	0xb806cf46	-3.2141128e-05
1	0xb7ae492e	-2.0776493e-05
2	0xb78eca0f	-1.702181e-05
3	0xb7e6e338	-2.7523944e-05
4	0xb79a7dc9	-1.8416804e-05
5	0xb785c577	-1.5946787e-05
6	0xb7a20d49	-1.9318091e-05
7	0xb70646cc	-8.003506e-06
8	0xb75e1d28	-1.323902e-05
9	0xb8754cd4	-5.8484104e-05
10	0xb98e05d0	-0.0002708868
11	0xb9ae7c6b	-0.00033280565
12	0xb9821d4e	-0.00024817366
13	0xb9f0b69e	-0.00045912428
14	0xba0aa2dd	-0.0005288551
15	0xb9d60b97	-0.00040825896
16	0xba11465c	-0.00055417954
17	0xba1c72cb	-0.0005968033
18	0xba167721	-0.00057397975
19	0xba4fd2ee	-0.00079278543
20	0xba4d8f99	-0.0007841527
21	0xba5d5f33	-0.0008444667
22	0xba8df8a2	-0.0010831545
23	0xba9adc63	-0.0011814948
24	0xba835ef6	-0.0010022807
25	0xba97b675	-0.0011574762
26	0xbaa8efdd	-0.0012888868
27	0x38007f6f	3.063626e-05
28	0xb8a011b9	-7.6326956e-05
29	0xb8a0c09b	-7.66527e-05
30	0xb8cab59a	-9.6659365e-05
31	0xb954176a	-0.00020226618
32	0xb944d66a	-0.00018771892
33	0xb94d6adc	-0.00019590132
34	0xb9906b7f	-0.0002754591
35	0xb9879506	-0.00025860238
36	0xb99cbe4f	-0.0002989643
37	0xb96571ee	-0.00021881584
38	0xb9333b96	-0.00017092968
39	0xb9a951bc	-0.0003229509
40	0xb982a65f	-0.00024919488
41	0xb984afae	-0.00025307894
42	0xb9a4ba55	-0.00031419346
43	0xb98474f8	-0.0002526415
44	0xb9643962	-0.00021765151
45	0xb9829e33	-0.000249134
46	0xb90c5561	-0.00013383247
47	0xb8e4a0e9	-0.00010901859
48	0xb965b2ec	-0.00021905795
49	0xb8ea5774	-0.00011174279
50	0xb8767211	-5.8757203e-05
51	0xb8e6a82f	-0.00010998581
52	0xb841d5c4	-4.621387e-05
53	0xb8267a5e	-3.9691447e-05
54	0xba37e18e	-0.0007014506
55	0xba0ac8e5	-0.0005294218
56	0xb9f07405	-0.00045862808
57	0xba15b46e	-0.0005710785
58	0xb9d9c848	-0.00041538686
59	0xb9b22bb5	-0.0003398337
60	0xb9e61579	-0.00043885017
61	0xb9b12715	-0.0003378919
62	0xb999feeb	-0.00029372363
63	0xb81b8e3c	-3.7087346e-05
64	0xb7fedd1e	-3.0382125e-05
65	0xb7bae0ae	-2.2277552e-05
66	0xb8ab089c	-8.155519e-05
67	0xb8947785	-7.079452e-05
68	0xb859a917	-5.189431e-05
69	0xb8dab8bd	-0.0001042946
70	0xb8cb3160	-9.688991e-05
71	0xb8a9fe31	-8.105895e-05
72	0xbeec91f8	-0.46205115
73	0xbe22c176	-0.15894112
74	0x3d430fe1	0.047622565
75	0xbf14686b	-0.5797183
76	0xbd7a0c09	-0.061046634
77	0x3e652671	0.22377945
78	0xbef40f77	-0.4766805
79	0xbe4ef75d	-0.20211549
80	0xbda39b97	-0.07988661
81	0xc0085b08	-2.130556
82	0xbf03f92c	-0.5155208
83	0xbf971bcc	-1.1805358
84	0xc0364c5d	-2.8484108
85	0xbd680fda	-0.056655742
86	0xbf1a1a77	-0.6019663
87	0xbfd392dc	-1.6529193
88	0xbf1b61d3	-0.6069614
89	0xbfaa7737	-1.3317631
90	0xc082d14f	-4.0880504
91	0xbf49b433	-0.7879059
92	0xc00fc2c7	-2.2462633
93	0xc081637a	-4.043393
94	0xbeff1747	-0.49822447
95	0xbf973f57	-1.1816205
96	0xbf78a464	-0.9712584
97	0xbec9d063	-0.394168
98	0xbe3b0f4d	-0.18267556
99	0xbf510785	-0.816521
100	0xbe988523	-0.29789075
101	0xbebc8728	-0.36821866
102	0xc01dc880	-2.4653625
103	0xbf40a46d	-0.75250894
104	0xc008df17	-2.1386163
105	0xc06543d4	-3.582265
106	0x3e8c1fb4	0.27367938
107	0xbfdd5185	-1.7290503
108	0xbf3a1d27	-0.7270073
109	0xbed78f75	-0.42101637
110	0xbef03ae5	-0.46919933
111	0xbf4cfbd0	-0.80071735
112	0xbee02893	-0.43780956
113	0xbec6a6de	-0.38799185
114	0xbf0539d4	-0.52041364
115	0xbe9913ce	-0.29897922
116	0xbee6e1ca	-0.45094138
117	0xba961e61	-0.0011453145
118	0x3f171e94	0.59031034
119	0x3ed95dcb	0.4245437
120	0x3cd69439	0.026193725
121	0x3e8f7f6b	0.280269
122	0x3ef39c25	0.47580066
123	0x3dae7ab6	0.08519499
124	0x3f1a5967	0.6029267
125	0x3f22ea2b	0.6363856
126	0xbe891eeb	-0.267814
127	0x3eb5d29b	0.35512242
128	0x3ef596ea	0.479667
129	0xbe9e3dba	-0.3090647
130	0x3e6c3a26	0.23069057
131	0x3ea586c8	0.32329392
132	0xbe99295d	-0.2991437
133	0x3e44f2c1	0.19233228
134	0x3e390d2a	0.18071428
135	0xbf552b29	-0.8326898
136	0xbe81ec12	-0.2537542
137	0xbf4083fd	-0.752014
138	0xbfdd0d1c	-1.7269626
139	0xbe1bae07	-0.15203105
140	0xc021ef35	-2.530225
141	0xbfc51ba9	-1.5399066
142	0xbe317a9f	-0.17331932
143	0xbf55e9d3	-0.8355991
144	0xbe9df507	-0.30851004
145	0x3dd0be7d	0.10192583
146	0x3eb8b324	0.36074173
147	0xbe1810e5	-0.14850195
148	0xbebd5c81	-0.36984637
149	0x3dbb7dbc	0.09154841
150	0x3f54b2e2	0.83085454
151	0x3ea53aa0	0.3227129
152	0x3e25dbef	0.1619718
153	0x3dda1d8e	0.10650168
154	0xbe4489c0	-0.19193172
155	0xbe55fe56	-0.20897803
156	0x3e48c52f	0.1960647
157	0xbcabaa07	-0.020955099
158	0xbd94f378	-0.072730005
159	0x3e925239	0.28578356
160	0x3e4987cd	0.1968071
161	0x3e1b6b25	0.15177591
162	0xbe0c0faf	-0.13677858
163	0xbe3a7377	-0.18208109
164	0x3d18ad04	0.037274376
165	0x3ded3881	0.11583043
166	0xbd4bc1d6	-0.049745403
167	0xbda8deb8	-0.08245605
168	0x3e802174	0.25025523
169	0x3eae8fa8	0.34093976
170	0x3e0a778f	0.1352217
171	0xbd74a31b	-0.059725862
172	0xbe8d25f2	-0.27568012
173	0xbe16c9f1	-0.14725472
174	0x3d612326	0.05496516
175	0xbe02ecb4	-0.12785608
176	0xbd877fd1	-0.06616176
177	0x3e9bf4f1	0.30460313
178	0x3e3a2ea7	0.18181859
179	0x3e212497	0.15736614
180	0x3e302afa	0.17203894
181	0x3e891221	0.26771644
182	0x3e3cd626	0.18441066
183	0x3e856214	0.2605139
184	0x3e7a23a6	0.24427661
185	0x3ed8597e	0.42255777
186	0x3e2428d4	0.160312
187	0xbc118657	-0.008882127
188	0x3cf0b5ea	0.029383618
189	0xbde6675d	-0.11250184
190	0x3e4dd0d4	0.20099193
191	0x3e992683	0.29912195
192	0xbecb2c9a	-0.39682466
193	0xbf03d484	-0.5149615
194	0xbf10b5ba	-0.5652729
195	0x3e070694	0.13186103
196	0x3c86ed89	0.016470687
197	0xbebe5dcf	-0.37180945
198	0x3eb24160	0.34815502
199	0x3e72fca4	0.23729187
200	0x3e622da1	0.22087719
201	0x3e9bbe28	0.30418515
202	0x3e2a9280	0.16657448
203	0x3d156cb7	0.03648063
204	0xbbba71fd	-0.005689858
205	0xbe263119	-0.16229667
206	0xbc596d08	-0.013270624
207	0x3d5d4011	0.054016177
208	0xbe79c6ab	-0.24392192
209	0x3cb38aad	0.021916712
210	0x3e1b6980	0.15176964
211	0x3e1d9a33	0.15390854
212	0x3e992e71	0.29918244
213	0x3e39e6b6	0.18154415
214	0x3e90f257	0.2830989
215	0xbe015b9b	-0.12632601
216	0x3c440bc4	0.011965696
217	0x3e183676	0.14864525
218	0x3f53fb00	0.8280487
219	0x3e8196d1	0.25310376
220	0x3e620581	0.22072412
221	0x3f2078de	0.6268443
222	0x3f18e585	0.5972522
223	0x3ea40694	0.3203627
224	0x3f0a0da1	0.53927046
225	0xbe1cd4ae	-0.15315506
226	0xbdb40aef	-0.08791148
227	0xbc7b451d	-0.015336302
228	0xbd8ca381	-0.068671234
229	0x3d088006	0.033325218
230	0xbd117337	-0.035510268
231	0x3be038f2	0.006842726
232	0x3e31f34b	0.17377965
233	0xbc6bbbe9	-0.014388063
234	0xbe146207	-0.1449052
235	0x3ddc365e	0.10752557
236	0xbdfda666	-0.123852536
237	0x3e58c504	0.21168905
238	0xbd35da30	-0.044397533
239	0xbe39a0b3	-0.18127708
240	0x3e68cf03	0.22735219
241	0x3e6ab397	0.2292007
242	0xbe93d3b3	-0.2887245
243	0xbe78a9f5	-0.24283583
244	0xbd0802d1	-0.03320581
245	0x3e273b0b	0.16331117
246	0xbe04c784	-0.12966734
247	0x3d6a6ba8	0.057231575
248	0x3d8830dc	0.06649944
249	0xbd491e2c	-0.04910104
250	0x3e05cf69	0.13067402
251	0xbd257e85	-0.04040386
252	0xbc11b5da	-0.008893454
253	0x3e742c1a	0.23844948
254	0xbe19a8ab	-0.15005748
255	0x3eab4a05	0.3345491

layers.2.bias f4 [8]
0	0xbabc8cba	-0.0014385202
1	0x3e65fa28	0.22458708
2	0x3e83bc5c	0.25729644
3	0x3e03a875	0.1285723
4	0x3dbc8270	0.092045665
5	0x3de2e393	0.110785626
6	0x3e342a6a	0.17594305
7	0x3e62f432	0.22163466

layers.4.weight f4 [1, 8, 3, 3]
0	0xbab97385	-0.0014148807
1	0xbadd8a8f	-0.0016902256
2	0xbae9bd4f	-0.0017832908
3	0xba977cdb	-0.0011557596
4	0xbabfa046	-0.0014619909
5	0xbacd3b41	-0.0015657918
6	0xba940e03	-0.001129568
7	0xbad081d7	-0.0015907836
8	0xbaf28e23	-0.0018505495
9	0xbf89f450	-1.0777683
10	0xbff4c7ac	-1.9123435
11	0xbf3a958a	-0.7288443
12	0xbfc859e8	-1.5652437
13	0xc02932e9	-2.6437323
14	0xbef760be	-0.48315996
15	0xbf461d18	-0.77388144
16	0xbfb54437	-1.4161443
17	0xbe9fe88b	-0.31232104
18	0x3d7b3ba6	0.061336182
19	0x3d52161a	0.05129061
20	0xbe945714	-0.28972685
21	0x3f1fb31f	0.6238269
22	0x3f1ba149	0.60792977
23	0x3e776b89	0.24162115
24	0xbb766f4c	-0.003760296
25	0x3e5d989e	0.2164025
26	0x3dc52ee4	0.09628084
27	0xbe81b468	-0.25332952
28	0x3e76e1bd	0.2410955
29	0x3efdb364	0.49550927
30	0xbe35088d	-0.17679043
31	0x3eed8226	0.46388358
32	0x3f4915a0	0.7854862
33	0x3e588b19	0.21146812
34	0x3f5d7d7b	0.86519593
35	0x3f0cba51	0.54971796
36	0xbdc74097	-0.097291164
37	0x3e4cf277	0.20014368
38	0x3e894c36	0.26815957
39	0xbe0693ea	-0.13142362
40	0x3f312bdc	0.6920755
41	0x3f493751	0.7860003
42	0x3c841aae	0.016126003
43	0x3ede43e1	0.43411162
44	0x3e60873f	0.21926592
45	0xbf568e8c	-0.8381126
46	0xbf9f5f03	-1.245087
47	0xbf1431f0	-0.578887
48	0xbfc16b3a	-1.5110848
49	0xc008df79	-2.1386397
50	0xbf9393a8	-1.1529436
51	0xbf1d4c67	-0.61444706
52	0xbf7650d0	-0.9621706
53	0xbf13e6ce	-0.57774055
54	0xbe52e6b2	-0.20595816
55	0x3ec42b3c	0.38314235
56	0x3f36ca5b	0.7140252
57	0x3e35b729	0.17745651
58	0xbc99749b	-0.01873236
59	0x3e912b5f	0.28353402
60	0x3e7c3556	0.24629721
61	0x3e9edda8	0.31028485
62	0xbf1a9231	-0.6037932
63	0x3e03006c	0.1279313
64	0x3ee87219	0.4539955
65	0x3ec9be1a	0.39402848
66	0x3f10a6aa	0.5650431
67	0x3e9b890d	0.30378
68	0xbc511249	-0.012760707
69	0x3e810180	0.25196457
70	0x3d27c4f8	0.04095933
71	0xbebce896	-0.368962

layers.7.weight f4 [18, 1062]
0	0xbf5aab4d	-0.85417634
1	0xbf2c1f3a	-0.6723515
2	0xbf43f079	-0.7653881
3	0xbf1a28a6	-0.60218275
4	0xbec3aad1	-0.3821626
5	0xbdf3cbd1	-0.11904109
6	0x3db69cab	0.08916601
7	0x3d8763dc	0.066108435
8	0xbcb3fd19	-0.021971272
9	0xbc9e5c7e	-0.019331213
10	0xbdee4e2b	-0.11636003
11	0xbe1b39e3	-0.15158801
12	0xbdb06615	-0.086132206
13	0xbdd309eb	-0.10304626
14	0xbd7044e8	-0.058659464
15	0xbd825931	-0.06364668
16	0xbc4d14f1	-0.0125172
17	0xbd892396	-0.066962406
18	0xbd3e65b4	-0.04648371
19	0xbc357e13	-0.011077422
20	0xbd0674dc	-0.03282629
21	0x3d48a77a	0.048987843
22	0x3df30229	0.118656464
23	0x3dd780a0	0.1052258
24	0x3e036a7d	0.12833591
25	0x3d18430b	0.037173312
26	0x3d353ede	0.044249408
27	0x3dcb2b0d	0.09920321
28	0x3d9392e2	0.0720575
29	0x3bdd9ffd	0.006763457
30	0x3d495f77	0.049163308
31	0x3e1d40d4	0.15356761
32	0x3e45067c	0.19240755
33	0x3e3b7e84	0.1830998
34	0x3d88ed5f	0.066859
35	0xbcca20e3	-0.024673885
36	0xbc0b78ab	-0.008512656
37	0x3d345c02	0.044033058
38	0x3c3a97c5	0.011388724
39	0xbe04132d	-0.1289794
40	0xbe907289	-0.28212383
41	0xbe51f6f3	-0.2050436
42	0xbcd381cb	-0.025818726
43	0xbcdaf220	-0.026726782
44	0xbd393e28	-0.045225292
45	0xbcdfd416	-0.02732281
46	0x3de60ae4	0.11232546
47	0x3de9a292	0.11407961
48	0x3da0e0cf	0.07855379
49	0x3d29f00d	0.041488696
50	0x3c311e2f	0.010810419
51	0x3d30d76f	0.043174203
52	0x3d9d14a2	0.07669951
53	0x3ddf8f86	0.10916047
54	0x3e04b325	0.12958963
55	0x3df87a90	0.12132752
56	0x3e04625c	0.12928146
57	0x3e257b96	0.16160426
58	0x3e22b7a3	0.15890364
59	0xbe435992	-0.19077137
60	0xbe6e5191	-0.23273303
61	0xbed9a50e	-0.4250874
62	0xbeb54953	-0.35407504
63	0xbe85e367	-0.26150057
64	0xbd4ddc97	-0.0502592
65	0x3e14fe87	0.1455022
66	0x3e1311fc	0.14362329
67	0x3da59b78	0.08086294
68	0x3c49c2d4	0.012314517
69	0xbd188301	-0.03723431
70	0xbd2d3bb9	-0.042293284
71	0xbc0c6995	-0.008570095
72	0xbd32cecb	-0.043654244
73	0xbd28473f	-0.04108357
74	0xbcd03ec4	-0.025420554
75	0xbd481f35	-0.048857886
76	0x3ca9ce4e	0.020728257
77	0x3c7be7ef	0.0153751215
78	0x3d4beabd	0.04978441
79	0x3d140ca9	0.036144886
80	0x3d51ac7e	0.051189892
81	0x3d834e9b	0.06411477
82	0x3c859b82	0.016309503
83	0xbc95f5c9	-0.018305676
84	0xbd141e9c	-0.036162004
85	0xbc88fc43	-0.01672185
86	0x3cf7b7b0	0.030238956
87	0xbd51aa31	-0.051187698
88	0xbdb0c898	-0.0863201
89	0xbc1f7bd3	-0.009734112
90	0x3cd30bee	0.025762524
91	0x3d7fdd35	0.06246682
92	0xbbd57681	-0.006514371
93	0xbdd8cf56	-0.10586421
94	0xbbdcf734	-0.006743336
95	0x3d2aeb58	0.041728348
96	0x3e1a20c7	0.15051566
97	0x3dc1348d	0.094338514
98	0xbd908a24	-0.07057598
99	0xbe375eb2	-0.17907217
100	0xbdc4146c	-0.09574208
101	0xbd23b34d	-0.039965916
102	0xbd61955c	-0.05507408
103	0xbda4f3de	-0.080543265
104	0x3cbe303f	0.023216365
105	0x3ddc1291	0.10745729
106	0x3dae6e23	0.08517101
107	0x3da0b855	0.078476585
108	0x3ce5dc8f	0.028059272
109	0x3d45103a	0.048111178
110	0x3d9fe1f3	0.07806768
111	0x3d6bb82d	0.05754869
112	0x3db615e7	0.08890896
113	0x3dc19cb6	0.09453718
114	0x3db9da7d	0.090748765
115	0x3dbec97f	0.09315776
116	0x3e1a7c5d	0.15086503
117	0x3db189f8	0.086688936
118	0x3e8052ec	0.25063264
119	0x3cca2d16	0.024679702
120	0xbe71612a	-0.23572221
121	0xbe436566	-0.19081649
122	0xbe03bde9	-0.12865414
123	0xbda6ec55	-0.081505455
124	0x3d92e3e7	0.07172375
125	0x3dd4d902	0.103929535
126	0x3d90f3e0	0.070777655
127	0x3c8c2cad	0.017111147
128	0x3c1468f8	0.00905823
129	0xbdbad354	-0.09122339
130	0xbd96eb79	-0.073691316
131	0x39c5258b	0.0003760274
132	0xbd82fa7e	-0.06395434
133	0xbd46ce15	-0.04853638
134	0x3d0cae61	0.03434599
135	0xbab65794	-0.0013911598
136	0xbcac39f6	-0.021023732
137	0x3d307a13	0.04308517
138	0x3d351f3e	0.044219248
139	0x3d0811f2	0.03322024
140	0x3d17b616	0.037038885
141	0x3cab7e52	0.020934258
142	0xbd8e6f05	-0.06954769
143	0xbd70b59a	-0.05876694
144	0x3d7d7bed	0.061885763
145	0x3cc852a5	0.02445347
146	0x3bb3dae3	0.00548874
147	0xbcb71a92	-0.022351537
148	0x3d04b99a	0.032403566
149	0x3da9a6e3	0.08283784
150	0x3a91e270	0.0011130106
151	0xbd8723da	-0.06598635
152	0xbe18c6aa	-0.14919534
153	0xbe06d336	-0.13166508
154	0xbca94481	-0.020662548
155	0x3e1254c1	0.14290144
156	0x3d37fee5	0.04492082
157	0xbd0e19b6	-0.03469249
158	0xbd788fb0	-0.060683906
159	0xbd4bbdc7	-0.049741533
160	0x3cd35f4e	0.02580228
161	0xbd796c17	-0.060894098
162	0xbd62bfa7	-0.055358555
163	0x3d48abcb	0.04899196
164	0x3d6cdf14	0.05782993
165	0x3d6a78df	0.057244178
166	0xbcb6b3b7	-0.022302492
167	0x3d2d7a4c	0.04235296
168	0x3df2e440	0.118599415
169	0x3d9852eb	0.0743769
170	0x3caee929	0.021351414
171	0x3da4e9f5	0.08052436
172	0x3d94f164	0.07272604
173	0x3d942589	0.07233722
174	0x3dd7668f	0.105176084
175	0x3de3f24a	0.11130197
176	0x3de760d8	0.11297768
177	0x3e9b462c	0.30326974
178	0x3d356b02	0.044291504
179	0xbdf08345	-0.11743788
180	0xbda18b32	-0.078878775
181	0xbd074fd6	-0.03303512
182	0xbd6d4c5e	-0.057934158
183	0x3cb4c5d5	0.02206699
184	0x3d081865	0.03322639
185	0x3cb46692	0.022021566
186	0x3d862e97	0.06551855
187	0x3ba6b5ad	0.0050875754
188	0x3d5c2682	0.05374766
189	0xbccd2e04	-0.025046356
190	0xbd44be32	-0.048032947
191	0xbc9624ca	-0.01832809
192	0xbc34dbc7	-0.011038727
193	0x3abf7d1b	0.0014609428
194	0x3d6d5bdb	0.05794893
195	0x3d1c1c22	0.038112767
196	0x3c097130	0.008388802
197	0x3c7ad6b1	0.0153099755
198	0x3a15e990	0.00057187025
199	0xbd57ea0a	-0.05271343
200	0xbe29fc3b	-0.16600125
201	0xbe4257b4	-0.18978769
202	0xbd94b519	-0.07261104
203	0x3d56051c	0.052250966
204	0x3ddce2e6	0.10785465
205	0x3d124f55	0.03572019
206	0x3dcfe673	0.101513766
207	0x3de42219	0.11139316
208	0x3dc3dd4d	0.09563694
209	0xbdc1c2e9	-0.09461004
210	0xbe1924ad	-0.14955397
211	0xbe2d031e	-0.1689572
212	0xbe219463	-0.15779261
213	0xbc309c4a	-0.01077945
214	0x3dae8ea6	0.08523302
215	0x3d531099	0.0515295
216	0xbd92f0f7	-0.07174867
217	0xbd0419c7	-0.032251146
218	0x3dbbbcd9	0.09166879
219	0x3c6b1e04	0.014350418
220	0xb9254a70	-0.00015763356
221	0x3cbb0ebf	0.02283418
222	0x3d8ff570	0.07029235
223	0x3dae31c3	0.08505585
224	0x3d4469e1	0.047952536
225	0xbcafc6e1	-0.021457138
226	0x3b881fee	0.004154197
227	0x3d80de68	0.062924206
228	0x3c927b40	0.017881036
229	0x3dce49e5	0.10072688
230	0x3d2d7115	0.04234417
231	0x3d1a7859	0.03771243
232	0x3d9bcc18	0.07607287
233	0x3d501f14	0.05081089
234	0x3d923968	0.071398556
235	0x3d1b116c	0.03785841
236	0x3e036adb	0.12833731
237	0xbdf13336	-0.11777346
238	0xbe1ee632	-0.155175
239	0xbcdfdd47	-0.027327193
240	0x3c5114fb	0.01276135
241	0x3d5420b7	0.05178901
242	0x3da63037	0.08114665
243	0x3ddf479d	0.10902331
244	0x3e273843	0.16330056
245	0x3d8f999b	0.0701172
246	0x3bbd14ad	0.005770287
247	0xbcd0c241	-0.025483252
248	0xbc87d4db	-0.01658099
249	0xbd0b088d	-0.0339437
250	0xbda7e14e	-0.0819727
251	0xbcca6b92	-0.024709497
252	0xbd43988b	-0.0477529
253	0xbd6d3640	-0.057913065
254	0xbd3dfa29	-0.04638115
255	0x3ce15bb7	0.027509553

layers.7.bias f4 [18]
0	0x3decfada	0.11571284
1	0x3d9882ab	0.07446798
2	0x3db4518e	0.08804618
3	0x3dd1bb64	0.1024082
4	0x3d824ed4	0.063626915
5	0x3db56970	0.08858001
6	0x3e0bc4bb	0.13649265
7	0x3df89fbb	0.12139841
8	0x3d9b07ec	0.0756987
9	0x3d9a5829	0.075363465
10	0x3dbe7300	0.09299278
11	0x3dc8e1b8	0.098086774
12	0x3debbf02	0.11511041
13	0x3daba664	0.08381346
14	0x3de236ce	0.110456094
15	0x3de53452	0.1119162
16	0x3dad0c20	0.08449578
17	0x3df83677	0.12119763

exp_avg f4 [8, 1, 3, 3]
0	0x41a056e3	20.042425
1	0x41d29a3d	26.325312
2	0x4201acda	32.4188
3	0x42043e0b	33.06059
4	0x42149843	37.148693
5	0x421af9de	38.74401
6	0x423b6515	46.848713
7	0x4242bf8d	48.68706
8	0x422e4260	43.56482
9	0x40897ae5	4.296252
10	0x411c10d5	9.754109
11	0x411573e7	9.340796
12	0x3ff748c4	1.9319081
13	0x4095b51f	4.6783595
14	0x402e58b2	2.7241635
15	0x409cc0df	4.898544
16	0x411a89ac	9.658611
17	0x40fe42f9	7.9456754
18	0x40ea9b46	7.3314543
19	0x4111453a	9.079401
20	0x410baeca	8.730173
21	0x410efe67	8.93711
22	0x414929ef	12.572738
23	0x417c7629	15.778848
24	0x41383b1b	11.51443
25	0x4144a0d8	12.2892685
26	0x415253bb	13.145442
27	0x40843ab0	4.132164
28	0x401b535f	2.4269636
29	0xc0392ae9	-2.893244
30	0x4008cf93	2.1376693
31	0xbfaf6dd1	-1.3705388
32	0xc119ca3c	-9.611874
33	0x40a0c482	5.023988
34	0x40db0d4c	6.845373
35	0x3f46cbc7	0.7765469
36	0x42490771	50.257267
37	0x427fd355	63.95638
38	0x4297d66d	75.9188
39	0x427f1c53	63.77766
40	0x42959a34	74.80118
41	0x42a3e431	81.94569
42	0x42974e1f	75.65258
43	0x42a88688	84.26276
44	0x42ab894e	85.76817
45	0xc1bdfeee	-23.749477
46	0xc1d7e30a	-26.985859
47	0xc1ee2fe0	-29.773376
48	0xc1de2913	-27.770056
49	0xc1d8869f	-27.065733
50	0xc1cec54f	-25.846342
51	0xc1bf54a2	-23.916325
52	0xc1a8a500	-21.080566
53	0xc18b7877	-17.43382
54	0x411df232	9.87163
55	0x41085d67	8.522803
56	0x41044fd1	8.269486
57	0x4137513d	11.457334
58	0x414ebe34	12.921436
59	0x416cfd97	14.811912
60	0x415c6bd3	13.776324
61	0x4190ff4b	18.124655
62	0x41b32cee	22.396938
63	0x41382a09	11.5102625
64	0x4165588c	14.334118
65	0x4188510a	17.03957
66	0x415b8abc	13.721371
67	0x418bfb61	17.497744
68	0x419d9780	19.698975
69	0x415c2b78	13.7606125
70	0x4191879e	18.19122
71	0x419f7021	19.92975

exp_avg_sq f4 [8, 1, 3, 3]
0	0x46eace9e	30055.309
1	0x46e3e90c	29172.523
2	0x46e740e3	29600.443
3	0x46f15a1e	30893.059
4	0x46f74903	31652.506
5	0x47059240	34194.25
6	0x46bcd4a8	24170.328
7	0x46ca0ca3	25862.318
8	0x46e19aab	28877.334
9	0x4430527a	705.2887
10	0x45697e15	3735.8801
11	0x461fe375	10232.864
12	0x445256c3	841.35565
13	0x4559dbdc	3485.7412
14	0x461a7235	9884.552
15	0x450ed2b5	2285.1692
16	0x45907eea	4623.8643
17	0x46132141	9416.313
18	0x44aa3357	1361.6044
19	0x44b99e59	1484.9484
20	0x44c3f953	1567.7914
21	0x44b4a385	1445.11
22	0x44af4fe8	1402.4971
23	0x44a310d4	1304.5259
24	0x44ef20d2	1913.0256
25	0x44efa2d0	1917.0879
26	0x44e0c780	1798.2344
27	0x437a0f7a	250.06046
28	0x444b7e99	813.9781
29	0x45240bbf	2624.7341
30	0x4430671f	705.61127
31	0x45291514	2705.3174
32	0x45d6d11b	6874.138
33	0x44d0f037	1671.5067
34	0x4560723f	3591.1404
35	0x45cee3a4	6620.455
36	0x4784757f	67818.99
37	0x4782998c	66867.09
38	0x4770b2d8	61618.844
39	0x4789becd	70525.6
40	0x4787948f	69417.12
41	0x477998ac	63896.67
42	0x4766b247	59058.277
43	0x476559c4	58713.766
44	0x4753b6c5	54198.77
45	0x4661366a	14413.604
46	0x4665f47c	14717.121
47	0x466be709	15097.759
48	0x4655e442	13689.064
49	0x4653f0f8	13564.242
50	0x4657567a	13781.619
51	0x46149a39	9510.556
52	0x4613631d	9432.778
53	0x4615fb2b	9598.792
54	0x458987b2	4400.962
55	0x45844295	4232.3228
56	0x4575ddfd	3933.8743
57	0x452b14eb	2737.3074
58	0x4531bd55	2843.8333
59	0x45316d35	2838.8254
60	0x450c18ea	2241.5571
61	0x45189f04	2441.9385
62	0x451c86f9	2504.4358
63	0x45d3f51b	6782.638
64	0x45bd75c8	6062.7227
65	0x459c4ced	5001.6157
66	0x45f56c10	7853.508
67	0x45cc0c94	6529.5723
68	0x4599baf2	4919.368
69	0x4604e3ef	8504.983
70	0x45f24488	7752.5664
71	0x45cbc8b9	6521.0903

exp_avg f4 [8]
0	0x448c6f50	1123.4785
1	0x43877f7d	270.996
2	0xc29d01bd	-78.503395
3	0xc3a62b48	-332.33813
4	0x43db06c6	438.05292
5	0xc391c34a	-291.5257
6	0xc311030d	-145.01192
7	0xc3847e52	-264.98688

exp_avg_sq f4 [8]
0	0x4b6da459	1.5574105e+07
1	0x4b0f038e	9.372558e+06
2	0x494a5861	828806.06
3	0x4a5564c4	3.496241e+06
4	0x4b03ae8e	8.629902e+06
5	0x4ac50c38	6.45686e+06
6	0x49ecb8e7	1.9392289e+06
7	0x4a04caab	2.1756588e+06

exp_avg f4 [8, 8, 3, 3]
0	0xafb4bcf6	-3.2876074e-10
1	0xaf69b3c9	-2.1255099e-10
2	0xaf3f9bb3	-1.7426664e-10
3	0xaf9af678	-2.8187563e-10
4	0xaf4f6653	-1.8862893e-10
5	0xaf339f74	-1.6336604e-10
6	0xaf5956e0	-1.9766899e-10
7	0xaeb3fcd8	-8.184892e-11
8	0xaf14d1c8	-1.3535051e-10
9	0xb0227915	-5.9107325e-10
10	0xb13c47a6	-2.7398328e-09
11	0xb16799bc	-3.3702312e-09
12	0xb12c22ad	-2.5049005e-09
13	0xb19f4b10	-4.6360427e-09
14	0xb1b7a402	-5.3446465e-09
15	0xb18d7fea	-4.1181822e-09
16	0xb1c02828	-5.5925007e-09
17	0xb1cf1833	-6.027244e-09
18	0xb1c6aab3	-5.7819647e-09
19	0xb2094e30	-7.992227e-09
20	0xb207e850	-7.910856e-09
21	0xb211fc54	-8.497484e-09
22	0xb23b5947	-1.0905132e-08
23	0xb24c783f	-1.1901704e-08
24	0xb22d3583	-1.00820925e-08
25	0xb2481fbe	-1.16487495e-08
26	0xb25ef0d2	-1.2976857e-08
27	0x2faacc77	3.10681e-10
28	0xb054ff7f	-7.748823e-10
29	0xb0564803	-7.795508e-10
30	0xb0869a1a	-9.793582e-10
31	0xb10cf2b4	-2.0510642e-09
32	0xb10305b1	-1.9066244e-09
33	0xb10849f4	-1.9832642e-09
34	0xb13fca68	-2.7909213e-09
35	0xb1344d07	-2.6237232e-09
36	0xb14f7332	-3.0187945e-09
37	0xb11826de	-2.2141005e-09
38	0xb0ee12fd	-1.7322176e-09
39	0xb15fe1e5	-3.2579177e-09
40	0xb12d0c87	-2.5181934e-09
41	0xb1300071	-2.5611622e-09
42	0xb159cd68	-3.1694416e-09
43	0xb12f646b	-2.5522933e-09
44	0xb1174da5	-2.2017528e-09
45	0xb12cf3f0	-2.5167957e-09
46	0xb0ba1013	-1.353785e-09
47	0xb097d0eb	-1.1046074e-09
48	0xb1186413	-2.2175797e-09
49	0xb09bdee3	-1.1341083e-09
50	0xb024646d	-5.9805566e-10
51	0xb0996db9	-1.11634e-09
52	0xb0016d21	-4.708501e-10
53	0xafdf0d1c	-4.0572778e-10
54	0xb1f28aff	-7.058929e-09
55	0xb1b74780	-5.3341296e-09
56	0xb19eec77	-4.625288e-09
57	0xb1c594fb	-5.7503917e-09
58	0xb18ff63d	-4.189842e-09
59	0xb16be309	-3.4326055e-09
60	0xb197f823	-4.4228883e-09
61	0xb16a82ca	-3.4125827e-09
62	0xb14c30e8	-2.9713707e-09
63	0xafd05323	-3.7894052e-10
64	0xafab2408	-3.113032e-10
65	0xaf7b77e0	-2.2870905e-10
66	0xb0646636	-8.309117e-10
67	0xb046b61a	-7.229076e-10
68	0xb011f611	-5.3100374e-10
69	0xb091e003	-1.0613807e-09
70	0xb087c431	-9.878304e-10
71	0xb0638300	-8.276828e-10
72	0xc1a7ff4f	-20.999662
73	0xc1cfa54a	-25.955708
74	0xc1efc62b	-29.971762
75	0xc1a9e27b	-21.235586
76	0xc1ba084d	-23.254053
77	0xc1c8b2a8	-25.087234
78	0xc1bb918f	-23.446074
79	0xc1c03e03	-24.03028
80	0xc1c02cc0	-24.02185
81	0xbfb6cfc3	-1.4282154
82	0xbf90dfc3	-1.1318287
83	0xbeb60c4e	-0.35556263
84	0x3ebaea0b	0.36506686
85	0xbeddf452	-0.43350464
86	0xbf875c69	-1.0575076
87	0xbccddb09	-0.025128858
88	0x3fca51dc	1.5806231
89	0x40211e42	2.5174718
90	0x3d348039	0.044067595
91	0xbea56f0f	-0.32311293
92	0x3f3dec54	0.74188733
93	0x3f313614	0.6922314
94	0xbe9f262a	-0.31083804
95	0x3dfb3368	0.12265664
96	0x406b69d8	3.6783352
97	0x408de6db	4.4344306
98	0x401cf5f0	2.4525108
99	0xbe3bb471	-0.18330552
100	0x3f09cd6b	0.5382907
101	0x3be83e85	0.007087531
102	0x3fcac92d	1.5842644
103	0x3f8d5b72	1.1043532
104	0x3f93c680	1.1544952
105	0x3f386ccd	0.72041017
106	0xbf3b522a	-0.7317225
107	0x3ebc38e5	0.36762157
108	0xc0865d1e	-4.198867
109	0xc09685d6	-4.7038374
110	0xc04b3d7b	-3.1756275
111	0xc01588b6	-2.3364692
112	0xc0584836	-3.3794074
113	0xc00ecc56	-2.2312217
114	0xc0e06c82	-7.0132456
115	0xc10a3c34	-8.639698
116	0xc10e1725	-8.8806505
117	0xc1f9f62d	-31.245203
118	0xc2145ea0	-37.092407
119	0xc222f957	-40.743496
120	0xc1d0d0f1	-26.102022
121	0xc1e2f1cf	-28.36807
122	0xc1f45d50	-30.545563
123	0xc2085e55	-34.09212
124	0xc20bf5d9	-34.990086
125	0xc20b0644	-34.75612
126	0xc232142e	-44.519707
127	0xc248c266	-50.189842
128	0xc2515c9d	-52.340443
129	0xc21ade28	-38.71695
130	0xc2254e52	-41.326485
131	0xc2268b90	-41.63629
132	0xc240bfc2	-48.187263
133	0xc24b08c5	-50.758564
134	0xc2469e1e	-49.65441
135	0xbe988b9b	-0.2979401
136	0x3d1d027f	0.03833246
137	0x3f82aacd	1.0208374
138	0xbb9497b8	-0.004534688
139	0xbef36086	-0.4753458
140	0x3f637312	0.8884746
141	0xbda88c63	-0.08229902
142	0xbf1b1773	-0.60582656
143	0xbefce909	-0.49396542
144	0x40722ae1	3.7838671
145	0x406e706e	3.7256122
146	0x4076a175	3.8536046
147	0x40593b50	3.3942451
148	0x40603d59	3.5037444
149	0x407ae2cf	3.9200933
150	0x4014c879	2.3247359
151	0x400e5f59	2.2245696
152	0x404b4346	3.175981
153	0xc14c9827	-12.787147
154	0xc1341ee4	-11.257542
155	0xc12bd454	-10.739338
156	0xc165ff38	-14.374809
157	0xc16860f8	-14.523674
158	0xc16d9c8b	-14.8507185
159	0xc15f2302	-13.946047
160	0xc182677e	-16.300533
161	0xc18f2fb0	-17.898285
162	0xc1a6450f	-20.78372
163	0xc19b293e	-19.395138
164	0xc1967696	-18.807903
165	0xc1c87565	-25.057322
166	0xc1c34e2a	-24.413166
167	0xc1bbe5dd	-23.487238
168	0xc1dd7bc7	-27.685438
169	0xc1e0c8db	-28.098074
170	0xc1d06755	-26.050455
171	0xc10cdb9d	-8.803617
172	0xc0e44709	-7.1336713
173	0xc0db62dc	-6.855818
174	0xc14ec558	-12.92318
175	0xc143c96b	-12.236674
176	0xc148a79c	-12.54092
177	0xc16153e6	-14.082983
178	0xc16f1c40	-14.944397
179	0xc17b39fa	-15.701654
180	0xc09f5b90	-4.979927
181	0xc0a87ff0	-5.2656174
182	0xc0a2aae7	-5.083362
183	0xc0f5a724	-7.676653
184	0xc0f86ef7	-7.7635455
185	0xc0e76947	-7.231601
186	0xc1005733	-8.021289
187	0xc0f9d25b	-7.806928
188	0xc0e600d2	-7.1876
189	0x40f9f0af	7.8106303
190	0x40d4ae69	6.6462903
191	0x40bf69f4	5.9816837
192	0x410700e3	8.4377165
193	0x40fa2ad5	7.8177285
194	0x40f5c963	7.6808333
195	0x40e98200	7.297119
196	0x40f61a03	7.6906753
197	0x4108d195	8.5511675
198	0x40eef7fc	7.4677715
199	0x40f918c5	7.7842736
200	0x410553e8	8.332985
201	0x40a831db	5.256086
202	0x40cd0b66	6.4076414
203	0x40f4c508	7.6490517
204	0x40bc0f16	5.8768415
205	0x40f63787	7.6942782
206	0x411209f3	9.127429
207	0xc093bbc6	-4.6166716
208	0xc08d503b	-4.4160438
209	0xc088b2e5	-4.2718377
210	0xc0fcfbd3	-7.9057403
211	0xc0f5a680	-7.6765747
212	0xc0eaeb3d	-7.3412156
213	0xc117a20e	-9.477064
214	0xc1114f68	-9.081886
215	0xc0ff6304	-7.980837
216	0x40dc67d1	6.887673
217	0x40f06573	7.512384
218	0x4105b185	8.35584
219	0x40c80b9c	6.251417
220	0x40d50bf6	6.65771
221	0x40f316ad	7.596518
222	0x40af67f1	5.481438
223	0x40b8ae7d	5.7713
224	0x40f243b4	7.5707645
225	0xc1b93d53	-23.154943
226	0xc1c9dd38	-25.233017
227	0xc1c193f8	-24.19725
228	0xc1d5de5f	-26.73358
229	0xc1fde27b	-31.735586
230	0xc1f05a03	-30.043951
231	0xc1de2e03	-27.772467
232	0xc20e924d	-35.64287
233	0xc20556e1	-33.334843
234	0xc22897cf	-42.14825
235	0xc21e31d1	-39.54865
236	0xc20306da	-32.75669
237	0xc24810f0	-50.01654
238	0xc23bf5fa	-46.99021
239	0xc2196ced	-38.356373
240	0xc25cc972	-55.196724
241	0xc24d0888	-51.25833
242	0xc222bd93	-40.68513
243	0xc18a3caf	-17.27963
244	0xc19f5f39	-19.921495
245	0xc1998179	-19.18822
246	0xc1b5543a	-22.666126
247	0xc1d85a13	-27.043982
248	0xc1c81692	-25.01102
249	0xc1c4daf1	-24.606905
250	0xc1f86746	-31.050426
251	0xc1e02641	-28.018679
252	0xc14e56c1	-12.89618
253	0xc12b4ef7	-10.706779
254	0xc0fdab64	-7.9271717
255	0xc17b4e11	-15.706559

exp_avg_sq f4 [8, 8, 3, 3]
0	0x2a5e6425	1.9752306e-13
1	0x2a5b313b	1.9468188e-13
2	0x2a4de55e	1.8287235e-13
3	0x2a487b66	1.7806381e-13
4	0x2a46af21	1.7646693e-13
5	0x2a432740	1.7333097e-13
6	0x2a5793ef	1.9147161e-13
7	0x2a624d82	2.0099723e-13
8	0x2a685992	2.0636815e-13
9	0x2b7a625c	8.8954343e-13
10	0x2b59e88a	7.74166e-13
11	0x2b31b117	6.3128794e-13
12	0x2ba2caa6	1.1567039e-12
13	0x2b9512ab	1.0592268e-12
14	0x2b7cb23f	8.977575e-13
15	0x2bba633a	1.3243636e-12
16	0x2ba95aa2	1.2033328e-12
17	0x2b903b16	1.0248215e-12
18	0x2c02e935	1.8603567e-12
19	0x2bd6a3ca	1.5251075e-12
20	0x2bb545ed	1.2880232e-12
21	0x2c3442ab	2.5616547e-12
22	0x2c18eea2	2.1732967e-12
23	0x2c030af7	1.8622306e-12
24	0x2c497030	2.8626095e-12
25	0x2c2ca203	2.4532605e-12
26	0x2c177874	2.1525256e-12
27	0x2b0ffe3b	5.115662e-13
28	0x2af7b0ea	4.3998773e-13
29	0x2ac741bf	3.5395122e-13
30	0x2b23cc99	5.819317e-13
31	0x2b1114a7	5.154301e-13
32	0x2ae963cf	4.145837e-13
33	0x2b3a1d3f	6.612106e-13
34	0x2b2433c4	5.8336344e-13
35	0x2b06bd31	4.786892e-13
36	0x2b95462b	1.0606562e-12
37	0x2b4ab9be	7.2022585e-13
38	0x2b1ee89c	5.6455686e-13
39	0x2bb71994	1.3010031e-12
40	0x2b8024df	9.105181e-13
41	0x2b45e24b	7.0302504e-13
42	0x2bb8d783	1.3133803e-12
43	0x2b8765e9	9.620613e-13
44	0x2b53d3ae	7.5256023e-13
45	0x2b880fc6	9.667759e-13
46	0x2b5568b1	7.581809e-13
47	0x2b233c9a	5.7993335e-13
48	0x2b3bb853	6.6691547e-13
49	0x2b009715	4.5684404e-13
50	0x2ab4f6e5	3.214574e-13
51	0x2aff37cc	4.5335816e-13
52	0x2aa26e1a	2.885338e-13
53	0x2a6b8e61	2.092159e-13
54	0x2c2fd787	2.4988637e-12
55	0x2bf8bdfe	1.7674193e-12
56	0x2bc3c439	1.3910046e-12
57	0x2c12c92f	2.0859527e-12
58	0x2bbcdccc	1.3419487e-12
59	0x2b8ba92c	9.923499e-13
60	0x2be66075	1.6369255e-12
61	0x2b8f0ab1	1.0163729e-12
62	0x2b52e484	7.4924116e-13
63	0x2a754485	2.1784144e-13
64	0x2a405c65	1.7085081e-13
65	0x2a250c2e	1.465917e-13
66	0x2aa2b647	2.890346e-13
67	0x2a81befd	2.3047528e-13
68	0x2a576cf4	1.9133637e-13
69	0x2ab85747	3.2745527e-13
70	0x2a975e95	2.6888618e-13
71	0x2a825211	2.3149584e-13
72	0x4634078f	11521.89
73	0x4635c93a	11634.307
74	0x46367c5a	11679.088
75	0x464c099e	13058.404
76	0x464de3c7	13176.944
77	0x4653eebd	13563.685
78	0x46230d1d	10435.278
79	0x4621e112	10360.268
80	0x46256ad0	10586.703
81	0x430ae3ef	138.89037
82	0x42cf68eb	103.70492
83	0x4237bab4	45.932327
84	0x431aa1e8	154.63245
85	0x42e0cf17	112.40447
86	0x424beaf3	50.979443
87	0x43697864	233.47028
88	0x434d4cb6	205.29965
89	0x42d8454f	108.13537
90	0x3f2ae9e4	0.6676314
91	0x428fc605	71.88676
92	0x42927084	73.21976
93	0x3f7cb535	0.98714
94	0x4298f18a	76.471756
95	0x42879012	67.78139
96	0x4310a1a7	144.63145
97	0x43915b89	290.71512
98	0x43d35b9b	422.71567
99	0x4341fb89	193.98256
100	0x432ceb7e	172.91989
101	0x430e1b80	142.10742
102	0x41ed5df2	29.670872
103	0x418fed4b	17.990866
104	0x41234365	10.203954
105	0x4140115f	12.004241
106	0x40f76cac	7.7320156
107	0x4088660b	4.2624564
108	0x454200e4	3104.0557
109	0x45a3b26f	5238.304
110	0x45be3949	6087.1606
111	0x4558f32c	3471.1982
112	0x45b29af7	5715.3706
113	0x45cd383b	6567.029
114	0x456f2423	3826.2585
115	0x45ba63cb	5964.474
116	0x45ce813f	6608.156
117	0x46c8cb8e	25701.777
118	0x46e964ca	29874.395
119	0x46e9839c	29889.805
120	0x46ee25a7	30482.826
121	0x470d681c	36200.11
122	0x471150e6	37200.9
123	0x46d3ce29	27111.08
124	0x46f73096	31640.293
125	0x46fb243d	32146.12
126	0x477105bb	61701.73
127	0x47980509	77834.07
128	0x479a6771	79054.88
129	0x477fe2c5	65506.77
130	0x47a271b6	83171.42
131	0x47a537c7	84591.555
132	0x4759e4ae	55780.68
133	0x4789f742	70638.516
134	0x478b5358	71334.69
135	0x4162f4aa	14.184732
136	0x4246faee	49.74505
137	0x42b439a0	90.11255
138	0x3f06fd8c	0.5273063
139	0x417b0f7d	15.691281
140	0x41a99838	21.199326
141	0x3fbdb47b	1.4820703
142	0x41b37e8d	22.436792
143	0x4210a012	36.15632
144	0x43d95dc3	434.7325
145	0x43d12482	418.28522
146	0x43cc9f64	409.24524
147	0x43bd0ec2	378.1153
148	0x43be8c09	381.09402
149	0x43cbdf3f	407.7441
150	0x43a88f5a	337.11993
151	0x43c448ea	392.56964
152	0x43e4e2ff	457.7734
153	0x453997ff	2969.4998
154	0x453a6772	2982.4653
155	0x45393c24	2963.7588
156	0x453ebd9e	3051.851
157	0x453ad67f	2989.406
158	0x4531f3a6	2847.228
159	0x4524a1b9	2634.1077
160	0x45243835	2627.513
161	0x451cf0af	2511.0427
162	0x45edff1c	7615.8887
163	0x45df9aa9	7155.3325
164	0x45cd7a92	6575.3213
165	0x45e9969f	7474.8276
166	0x45d45417	6794.511
167	0x45bafd78	5983.6836
168	0x45cfd9ab	6651.2085
169	0x45bf08b8	6113.09
170	0x45a7cff8	5369.996
171	0x450bc9cd	2236.6125
172	0x45145fca	2373.9868
173	0x451551af	2389.1052
174	0x450c2315	2242.1926
175	0x450cfecf	2255.9255
176	0x450611de	2145.1167
177	0x44ece210	1895.0645
178	0x44ee4499	1906.1437
179	0x44e10456	1800.1355
180	0x44d60541	1712.1642
181	0x448a1933	1104.7875
182	0x445f136b	892.3034
183	0x44dbc16b	1758.0443
184	0x448b731d	1115.5973
185	0x44585af7	865.4213
186	0x44ccd24e	1638.572
187	0x4485cea7	1070.4579
188	0x444a3fca	808.9967
189	0x44e74237	1850.0692
190	0x44b40494	1440.1431
191	0x449a6355	1235.1041
192	0x44cb13c4	1624.6177
193	0x449395aa	1180.677
194	0x44779639	990.3472
195	0x44a6f900	1335.7812
196	0x447a79f2	1001.9054
197	0x44561112	856.2667
198	0x459925ae	4900.71
199	0x454198b8	3097.545
200	0x451bec0d	2494.7532
201	0x45902259	4612.2935
202	0x452b1374	2737.2158
203	0x4503bca7	2107.7908
204	0x457ef110	4079.0664
205	0x451d330d	2515.1907
206	0x44f3d52c	1950.6616
207	0x4456ac99	858.69684
208	0x44478fd9	798.2476
209	0x4436dd47	731.45746
210	0x444e77a7	825.86957
211	0x4434e966	723.64685
212	0x441dbcd3	630.9504
213	0x4431bf47	710.9887
214	0x441b7c12	621.9386
215	0x44040ca8	528.19775
216	0x44bbc006	1502.0007
217	0x44b19d9c	1420.9253
218	0x44c8ccb0	1606.3965
219	0x44add673	1390.7015
220	0x44b7fcc2	1471.8987
221	0x44e971b3	1867.5531
222	0x44b08d86	1412.4226
223	0x44d3f53e	1695.6638
224	0x45078b9c	2168.7256
225	0x4622a6cb	10409.698
226	0x46236ecb	10459.698
227	0x46171671	9669.61
228	0x461f310a	10188.26
229	0x461ae188	9912.383
230	0x46070ce1	8643.22
231	0x461780ca	9696.197
232	0x4612d664	9397.598
233	0x45f91afc	7971.373
234	0x46c18501	24770.502
235	0x46b2735c	22841.68
236	0x46a1d34d	20713.65
237	0x46b58e22	23239.066
238	0x46a0725d	20537.182
239	0x468b4e0a	17831.02
240	0x46ada253	22225.162
241	0x469814af	19466.342
242	0x4682651a	16690.55
243	0x46063efe	8591.748
244	0x46075b79	8662.868
245	0x45ffc091	8184.071
246	0x45fa1417	8002.511
247	0x45f2b386	7766.4404
248	0x45dae94b	7005.1616
249	0x45deed19	7133.637
250	0x45d3ee06	6781.753
251	0x45b7f59a	5886.7
252	0x45492091	3218.0354
253	0x4513ee66	2366.9
254	0x44d69d4d	1716.9156
255	0x4553a1b2	3386.106

exp_avg f4 [8]
0	0xb277c276	-1.44215075e-08
1	0xc284ace2	-66.33766
2	0xc13d36ab	-11.825847
3	0xc1928c9b	-18.318655
4	0xc165e280	-14.367798
5	0xc242d81c	-48.711044
6	0xc0602cb4	-3.5027285
7	0xc0e8cb3c	-7.274809

exp_avg_sq f4 [8]
0	0x2d8971e7	1.562568e-11
1	0x48a9e887	347972.22
2	0x46980ff8	19463.984
3	0x47019483	33172.51
4	0x469920ca	19600.395
5	0x489a34f6	315815.7
6	0x4616e2ab	9656.667
7	0x46d56b50	27317.656

exp_avg f4 [1, 8, 3, 3]
0	0xb2738328	-1.4174283e-08
1	0xb2918b45	-1.6943554e-08
2	0xb299afd8	-1.7891509e-08
3	0xb246efbf	-1.1579629e-08
4	0xb27bde41	-1.4660658e-08
5	0xb2871134	-1.5723892e-08
6	0xb24273a7	-1.13185825e-08
7	0xb2890d98	-1.595508e-08
8	0xb29fb236	-1.8591077e-08
9	0x41247115	10.277608
10	0x4177f54b	15.497386
11	0x4132ef14	11.183369
12	0x413b6497	11.712058
13	0x41754fed	15.332013
14	0x410970b6	8.590017
15	0x410e9bae	8.913008
16	0x4108c14f	8.5471945
17	0x41074ae1	8.455781
18	0xc1cf5aff	-25.919432
19	0xc1ad1995	-21.637491
20	0xc186e194	-16.860146
21	0xc2010c3c	-32.261948
22	0xc1edd5aa	-29.729328
23	0xc1c31ea3	-24.38996
24	0xc1d5c277	-26.719954
25	0xc1d04eb6	-26.038433
26	0xc1bfd07d	-23.9768
27	0x41684cbd	14.518735
28	0x4115834e	9.344557
29	0x4107bd4f	8.483718
30	0x413cee2d	11.808148
31	0x409244f7	4.5709186
32	0x40a9e96f	5.3097453
33	0x4149a569	12.602883
34	0x40ae86f0	5.453972
35	0x41041412	8.2549
36	0x4163798f	14.217177
37	0x4124f56e	10.309919
38	0x4124b292	10.293596
39	0x41518aa7	13.096351
40	0x40f8619f	7.7619166
41	0x4106792e	8.404585
42	0x415c9bd4	13.788044
43	0x411807a4	9.501865
44	0x4139249e	11.57144
45	0x402c3ae9	2.6910956
46	0x409c3501	4.88147
47	0x407898fb	3.8843372
48	0x40950e8f	4.658027
49	0x40db9063	6.8613753
50	0x40a0bfc1	5.0234075
51	0x405031ae	3.2530322
52	0x40869cdb	4.2066474
53	0x405ad442	3.4192052
54	0xbed45315	-0.41469637
55	0xbfdbfd0f	-1.7186602
56	0x3fa39e97	1.2782773
57	0xc133dc47	-11.241279
58	0xc10f8820	-8.970734
59	0xc02ac042	-2.6679845
60	0xc1869ed8	-16.82756
61	0xc117ee1b	-9.495631
62	0x400d1e07	2.2049577
63	0xc1b1371a	-22.151905
64	0xc18d7a2a	-17.68465
65	0xc1370a97	-11.440085
66	0xc1ff8f89	-31.945086
67	0xc1c88203	-25.063482
68	0xc18b892b	-17.441977
69	0xc20182d3	-32.377758
70	0xc1b734ae	-22.900723
71	0xc16eee01	-14.933106

exp_avg_sq f4 [1, 8, 3, 3]
0	0x2e06db8e	3.0663076e-11
1	0x2d929b19	1.6667156e-11
2	0x2d2263ee	9.230823e-12
3	0x2df09466	2.7350743e-11
4	0x2d61857c	1.2819409e-11
5	0x2cc5e014	5.6239544e-12
6	0x2dd4c776	2.4190188e-11
7	0x2d46afa2	1.1293995e-11
8	0x2ca460e6	4.6719182e-12
9	0x44eb1497	1880.6434
10	0x44d5c22b	1710.0677
11	0x44caff0f	1623.9706
12	0x44df442d	1786.1305
13	0x44d03832	1665.7561
14	0x44de1e03	1776.9379
15	0x44f2f529	1943.6613
16	0x450c3002	2243.0005
17	0x44fee2d7	2039.0887
18	0x468ae924	17780.57
19	0x462c2ce7	11019.226
20	0x45d007a4	6656.955
21	0x468937d8	17563.922
22	0x462633ee	10636.982
23	0x45bde328	6076.3945
24	0x4682b621	16731.064
25	0x461f01fb	10176.495
26	0x45b3f6ce	5758.8506
27	0x45f4564e	7818.788
28	0x45a66d37	5325.652
29	0x455d7ea2	3543.9146
30	0x45c3b5a9	6262.7075
31	0x4576624e	3942.144
32	0x452593e6	2649.2437
33	0x45a31330	5218.3984
34	0x455950f1	3477.0588
35	0x452c6ee7	2758.9314
36	0x46154ab1	9554.673
37	0x45b1ce99	5689.8247
38	0x4568e391	3726.223
39	0x460abac0	8878.6875
40	0x458fd064	4602.049
41	0x4526591b	2661.569
42	0x45f32bf2	7781.493
43	0x4573ecc3	3902.7976
44	0x451f2a00	2546.625
45	0x43a39ed9	327.241
46	0x43ab2b4f	342.33835
47	0x436f85ad	239.52217
48	0x43a12c50	322.3462
49	0x43abaf55	343.36978
50	0x438e8189	285.012
51	0x43b19fc0	355.24805
52	0x43dfabcc	447.34216
53	0x43a7e5f9	335.79666
54	0x46b22faf	22807.842
55	0x46173555	9677.333
56	0x458d1224	4514.2676
57	0x46b831f9	23576.986
58	0x460a8d86	8867.381
59	0x455b07a6	3504.478
60	0x469d5d5a	20142.676
61	0x45e24cb1	7241.5864
62	0x4554325b	3395.1472
63	0x469e4f2d	20263.588
64	0x4623a1d1	10472.454
65	0x45ba223c	5956.2793
66	0x469c482b	20004.084
67	0x46149092	9508.143
68	0x4593e237	4732.277
69	0x468e2248	18193.14
70	0x46050ae3	8514.722
71	0x4586f96a	4319.177

exp_avg f4 [18, 1062]
0	0x3f2d5763	0.67711467
1	0x3ffb2aa4	1.9622388
2	0x4025a604	2.5882578
3	0x400b7257	2.1788538
4	0x3fddd3ec	1.7330298
5	0x3f9f00fb	1.2422174
6	0x3f73951f	0.95149416
7	0x3f809c93	1.0047783
8	0x3faf6e43	1.3705524
9	0x3fcbf70d	1.5934769
10	0x3fd3dacb	1.6551145
11	0x3fc62d9d	1.548267
12	0x3fa87417	1.3160428
13	0x3f8a9a2d	1.0828301
14	0x3f7ba6af	0.98301214
15	0x3f71677d	0.94298536
16	0x3f788be0	0.9708843
17	0x3f802a1c	1.0012851
18	0x3f85e7b7	1.0461339
19	0x3f89363f	1.071968
20	0x3f8725dc	1.0558429
21	0x3f80886d	1.0041634
22	0x3f347c7a	0.70502436
23	0x3e6356aa	0.22201028
24	0x3e81c4dd	0.25345507
25	0x3f4f1799	0.8089538
26	0x3f19618f	0.5991449
27	0xbe45202e	-0.19250557
28	0x3ddfa333	0.109198
29	0x3fc92a9f	1.5716132
30	0x40158137	2.3360116
31	0x4019599a	2.3960938
32	0x40157000	2.334961
33	0x40098a8f	2.149082
34	0x40118958	2.2740078
35	0x402419d1	2.5640757
36	0x4034cbcb	2.8249385
37	0x403e7981	2.976166
38	0x402c319d	2.6905282
39	0x4009f4a5	2.155557
40	0x3fce43eb	1.6114477
41	0x3f631677	0.88706154
42	0x3f5bcd82	0.85860455
43	0x3fd1e2b7	1.6397313
44	0x4005f7c3	2.0932472
45	0x3ffc2c49	1.9701015
46	0x3fe0cdf5	1.7562853
47	0x3fe33eb5	1.7753512
48	0x3ff989fb	1.9495233
49	0x3fff3690	1.9938526
50	0x4000ed50	2.0144844
51	0x40027ca1	2.0388567
52	0x40016706	2.021913
53	0x3fff8d75	1.9965044
54	0x3ffc345f	1.9703482
55	0x3ff970b5	1.948752
56	0x3ff598bb	1.9187235
57	0x3ffd76b5	1.9801852
58	0x3fcde4c6	1.6085441
59	0x3fe679e2	1.8005946
60	0x406221ca	3.5333123
61	0x4082cbd1	4.08738
62	0x4052e4fb	3.2952259
63	0x400ec620	2.2308426
64	0x3fa92d0d	1.3216873
65	0x3f34585f	0.70447344
66	0x3f7537fb	0.95788544
67	0x3fd8ed70	1.694746
68	0x3ffb88ed	1.9651161
69	0x40063436	2.0969367
70	0x3ffc4393	1.9708122
71	0x3fe4339b	1.7828249
72	0x3fd4220c	1.657289
73	0x3fcd783b	1.6052316
74	0x3fbfcdd4	1.4984689
75	0x3fac95a8	1.3483171
76	0x3f9a7154	1.2065835
77	0x3f9238a4	1.1423535
78	0x3f8e4eaf	1.1117762
79	0x3f84c49d	1.0372502
80	0x3f77fddd	0.9687174
81	0x3f49549b	0.7864472
82	0x3f10264d	0.5630844
83	0x3f89548b	1.0728925
84	0x3fd43e4e	1.6581514
85	0x3f83a530	1.0284786
86	0x3ee31811	0.443543
87	0x3fc47031	1.5346738
88	0x40316301	2.7716677
89	0x402a06d0	2.6566658
90	0x401480db	2.3203647
91	0x40128832	2.2895627
92	0x40175af0	2.3649254
93	0x402f4d76	2.7391028
94	0x403e0dc8	2.9695911
95	0x403b76a0	2.9291153
96	0x40372edf	2.8622358
97	0x402c8bf6	2.6960425
98	0x401cf5f1	2.452511
99	0x3fec4fe6	1.8461883
100	0x3fb2f732	1.3981688
101	0x4012cb7b	2.2936695
102	0x406e36c4	3.7220926
103	0x40828485	4.0786767
104	0x4074efeb	3.8271434
105	0x406566da	3.5844026
106	0x40614e7c	3.5204153
107	0x40613e21	3.519417
108	0x405d8c9e	3.4617076
109	0x4061f8c3	3.5308082
110	0x40691afa	3.6422715
111	0x40699a84	3.650056
112	0x40685b61	3.6305773
113	0x40671987	3.610933
114	0x40669360	3.602745
115	0x40663473	3.5969512
116	0x40625194	3.5362291
117	0x4014899d	2.3208992
118	0x4000650c	2.0061674
119	0x40679e71	3.6190455
120	0x408eb67c	4.459776
121	0x407ed077	3.9814737
122	0x403497f9	2.8217757
123	0x3fe0e169	1.756879
124	0x3f81118e	1.0083482
125	0x3f8aa4a5	1.0831496
126	0x3fd73a9f	1.6814765
127	0x40045212	2.0675092
128	0x40131ac5	2.298509
129	0x4013435a	2.3009858
130	0x4012353d	2.2844994
131	0x401a8eed	2.4149735
132	0x40202cf7	2.5027444
133	0x401c7a06	2.4449477
134	0x4012c0ee	2.2930255
135	0x40089b07	2.134462
136	0x40026f15	2.03803
137	0x3ff66ea8	1.925252
138	0x3fdfac42	1.7474444
139	0x3fc87612	1.5661032
140	0x3fa7d3fa	1.3111565
141	0x3fa95d9b	1.3231691
142	0x400365b2	2.053082
143	0x4009bd78	2.1521893
144	0x3f863772	1.048567
145	0x3f8649b5	1.0491244
146	0x40299267	2.6495607
147	0x404d734e	3.2101626
148	0x4010357e	2.253265
149	0x3fd87fd6	1.6914012
150	0x3ff73ac7	1.9314812
151	0x401d0a2e	2.4537463
152	0x403ff2e9	2.999201
153	0x4047e640	3.1234283
154	0x403af2e8	2.9210758
155	0x4031718e	2.7725558
156	0x40351c6f	2.8298604
157	0x402ff165	2.7491086
158	0x40117d6f	2.2732809
159	0x400ea8fb	2.2290637
160	0x406ae57c	3.6702566
161	0x409c6328	4.887104
162	0x4094ea42	4.653596
163	0x4082dc42	4.089387
164	0x407685a3	3.8519065
165	0x4071254d	3.7679017
166	0x406ac1f9	3.6680892
167	0x40644ef0	3.567318
168	0x406a849f	3.6643445
169	0x40743276	3.81558
170	0x407544e1	3.832329
171	0x4074ac62	3.8230214
172	0x407535c0	3.8314056
173	0x4076699d	3.8501961
174	0x4077a944	3.8697062
175	0x40729078	3.7900677
176	0x4019d496	2.4036002
177	0x3fb03d44	1.3768697
178	0x405f6fd4	3.4912004
179	0x40a083da	5.016095
180	0x40a05a79	5.011044
181	0x40873f00	4.2264404
182	0x4045e07c	3.0918264
183	0x4014435f	2.316612
184	0x402227ef	2.5336874
185	0x402f1d5d	2.7361672
186	0x402dbbe6	2.7145934
187	0x40365628	2.8490086
188	0x4039fe2f	2.9061391
189	0x40389a47	2.8844163
190	0x4045ceef	3.0907552
191	0x404fb993	3.2457016
192	0x4055e061	3.34182
193	0x405756a7	3.3646638
194	0x4053757c	3.3040457
195	0x404d2215	3.2052052
196	0x40431ebd	3.048751
197	0x403702e7	2.8595521
198	0x402c90fe	2.6963496
199	0x40227500	2.538391
200	0x402e2739	2.721144
201	0x40500fd2	3.2509656
202	0x402d5f91	2.708958
203	0x3f93e19d	1.1553227
204	0x3f9c57c9	1.221429
205	0x403a1a9a	2.9078736
206	0x4050470d	3.2543366
207	0x401364ca	2.3030267
208	0x3ff67904	1.9255681
209	0x401b96da	2.4310822
210	0x404bdc71	3.1853297
211	0x406b80d1	3.6797373
212	0x40728c4c	3.789813
213	0x40736fb9	3.803694
214	0x407d1f6b	3.9550426
215	0x408313ea	4.096181
216	0x407a1630	3.9076042
217	0x405c56e2	3.442803
218	0x4065c37f	3.5900571
219	0x4096eaa1	4.716141
220	0x40afbb6b	5.491628
221	0x40931f92	4.597604
222	0x406cdd5b	3.7010105
223	0x406c6f22	3.694283
224	0x40721272	3.7823758
225	0x406c1ef6	3.6893897
226	0x4062a683	3.541413
227	0x40690622	3.6409993
228	0x407145e5	3.769891
229	0x406fc8a1	3.7466204
230	0x406f3f23	3.7382286
231	0x407147a8	3.7699986
232	0x407333f0	3.800045
233	0x40755fdb	3.8339756
234	0x4072395d	3.7847512
235	0x4019fb13	2.4059494
236	0x3f5cbdd9	0.86227185
237	0x4056a54f	3.3538396
238	0x409d4924	4.9151783
239	0x409261b1	4.574425
240	0x40925e43	4.5740066
241	0x408d6948	4.4191017
242	0x408b5c0d	4.3549867
243	0x40983009	4.7558637
244	0x408d7eb9	4.421719
245	0x4082d938	4.089016
246	0x408742e4	4.2269154
247	0x40846560	4.137375
248	0x4080491a	4.0089235
249	0x407fccc2	3.9968724
250	0x407ccea5	3.9501126
251	0x407de0dc	3.9668493
252	0x4080cb17	4.0247912
253	0x40808629	4.016377
254	0x407644bc	3.8479452
255	0x4063087a	3.5473924
