temp/idx-338-strainMatSVD-AugNone-LR1.00E-05-CV5-Ch4-net.pth (torch_old, 236753 bytes, 25 tensors)

layers.0.weight f4 [4, 1, 3, 3]
00000000: 890d 33be 79c5 7abd 67b8 3c3e 12b6 073e
00000010: 3059 fdbd 9d20 9e3e 037a c4bd c4ae 9abe
00000020: e45f 9fbb 4371 29be 12d5 9a3d aad7 82be
00000030: f957 57bd fb48 93be 203b 8a3c dc8b 7cbe
00000040: 6bb1 7abe 6246 bcbe eb1f afbe 51f1 b5be
00000050: f744 803d ab76 9a3e 29b0 3ebe 9320 35bd
00000060: 844f 56be 60fc af3e 0331 c73d 88e1 86be
00000070: 464b 913e 1478 49be 6851 b1be 5b07 df3d
00000080: 0d51 6ebe b0b4 37be 7ef4 57be 10c3 ffbc
-0.17485632 -0.06122348 0.18429719 0.13253048 -0.12370527 0.30884257 -0.095935844 -0.3021146
-0.004863726 -0.16547112 0.07560171 -0.25555164 -0.05257413 -0.28766617 0.016873896 -0.24662727
-0.24481742 -0.36772448 -0.3420404 -0.35535672 0.06263154 0.3016866 -0.18621887 -0.04422052
-0.2092877 0.34372234 0.09726145 -0.26343942 0.28377742 -0.19674712 -0.3463242 0.10890075
-0.23273106 -0.1794002 -0.2108936 -0.031220943

layers.0.bias f4 [4]
00000000: b533 a63e 5594 b13e 846a 383e f11d 703e
0.32461324 0.3468348 0.18009382 0.23448922

layers.2.weight f4 [4, 4, 3, 3]
00000000: b0ea bcbd ff52 69be 0883 023e 19fd b0bd
00000010: 16e8 f13c 3738 0e3e d47c 4d3e 9fdd 823e
00000020: 11f2 ca3d cc99 92bd 557d 263d 57d6 54be
00000030: 3bdb 6f3e b545 1dbe 4abd 43be b728 f43c
00000040: d187 15be 3fc4 d3bd a8e7 213e 3d4e a23e
00000050: 1784 84be ef98 5f3e b68b 04be 8a22 e43c
00000060: 9097 963e ea0d 8f3d fc9b 1e3e bbca ff3d
00000070: ea96 c3bd efc0 223e 8b07 3abe c7c1 87bd
00000080: 50bb 1fbe 7a17 a23c 19b7 26be c449 8d3e
00000090: 4570 abbc 4aae 45be 3087 08be 84eb bc3d
000000a0: a865 d53d ecae 703e 3311 993e 6b86 493d
000000b0: fbb9 19be 802b 813d 176c e7bd c175 9e3c
000000c0: 9de6 c93d 0079 58be 10c0 36be 1928 f73c
000000d0: d7fa af3d 2d3b 76bd 155b 00bd 3ea5 4a3e
000000e0: 81bf 263b 5489 d8bc e406 a9bd e4ef 5cbe
000000f0: c320 053d 1499 36be 1d27 4dbd 8872 073e
00000100: dbaa e1bb bee1 853e e91e 73be 5892 00bd
00000110: 1caa e0bb ae90 f7bd 3a4b f63c 85c7 88be
00000120: 330f f7bd 51ef 54be 7e27 24be 2b07 9c3e
00000130: e5a2 493e 015a 1e3e 5ab7 263d 96ed 1b3e
00000140: 7c1b f5bd ba0e c0bd c9c3 d13d d78f afbd
00000150: 525e 3ebd 53d3 7e3e 136e 863e a597 5c3e
00000160: 385d 43be 6048 9fbb efa9 963e aea5 68be
00000170: 0d6e 7f3e 93c7 01be 6eba 833e 2927 663e
00000180: d807 e83d a4da 0c3e 9baf c8bc b5b9 1ebe
00000190: 10bb 5c3e 9be5 8b3c 9005 7abd 9744 5ebc
000001a0: 04a1 333e ceac 5abe e80a 833e c0e3 943e
000001b0: d7a9 0dbe 6666 b9bb fc1b 07be 0eff cbbd
000001c0: aa4c a23e a4b0 92bc 8487 17be c987 6d3e
000001d0: 98f0 34be e8fe 8bbd 1913 5d3e 699f 923c
000001e0: 5917 893d 6dd4 a1ba 9b2d 70be c0f2 20be
000001f0: b8d9 953e 0317 55bd be91 a6bd 2b88 9e3e
00000200: b657 1c3e 4c2c 53be d754 8abd 5aa9 e33c
00000210: e786 df3d d89b 1f3e 4f93 43bc 030f 763e
00000220: 23ab 193e 1ce4 7dbe f185 08be 60ef 9ebd
00000230: 1974 75be c3d3 2a3e 4cdb 843e bd62 5c3c
-0.092244506 -0.22785567 0.12745297 -0.086420245 0.029529613 0.13888632 0.2006715 0.25559708
0.09909452 -0.07158241 0.04064687 -0.20784889 0.23423474 -0.15358622 -0.19115177 0.02980457
-0.14602591 -0.10340165 0.15811026 0.31700316 -0.25882027 0.21835683 -0.1294392 0.0278485
0.29412508 0.06985076 0.15489191 0.1248984 -0.09550269 0.15893911 -0.1816694 -0.06628757
-0.15598798 0.019786585 -0.16280784 0.2759534 -0.020927558 -0.19304767 -0.1333282 0.092246085
0.1041978 0.23504227 0.29895934 0.049200457 -0.15012352 0.06307125 -0.112999134 0.019343259
0.09858439 -0.21139908 -0.17846704 0.030170487 0.08592766 -0.06011503 -0.031336863 0.19789597
0.0025443735 -0.02643267 -0.082532674 -0.21575886 0.032501947 -0.17831832 -0.05008613 0.13227284
-0.0068868226 0.2614879 -0.2374226 -0.031389564 -0.006856216 -0.12088142 0.030065168 -0.2671472
-0.12063446 -0.20794417 -0.1603069 0.3047422 0.19691046 0.15464021 0.0407022 0.1522735
-0.11968133 -0.09377809 0.10242421 -0.08572357 -0.04647667 0.24885301 0.26255855 0.21542223
-0.19078529 -0.0048609227 0.29426524 -0.22719452 0.24944325 -0.12673788 0.25728172 0.22475876
0.11329621 0.1375528 -0.024497798 -0.15500529 0.21555734 0.017077258 -0.06104046 -0.013566158
0.17541891 -0.21354982 0.25594258 0.2908001 -0.1383432 -0.005657959 -0.13194269 -0.09960757
0.31699115 -0.017906494 -0.14797789 0.23196329 -0.17669904 -0.06835729 0.21589316 0.017898278
0.06693906 -0.0012346633 -0.23454897 -0.15717602 0.2926767 -0.0520239 -0.08133267 0.30963263
0.15267834 -0.20622367 -0.06754463 0.027790714 0.109144025 0.15586793 -0.011936977 0.24029164
0.1500669 -0.24794048 -0.13332345 -0.07760501 -0.23970069 0.16682343 0.2594856 0.013451275

layers.2.bias f4 [4]
00000000: c657 473e 2aac 063e 9084 3d3e de62 823d
0.19467077 0.13151613 0.185076 0.06366514

layers.4.weight f4 [4, 4, 3, 3]
00000000: b0ea bcbd ff52 69be 0883 023e 19fd b0bd
00000010: 16e8 f13c 3738 0e3e d47c 4d3e 9fdd 823e
00000020: 11f2 ca3d cc99 92bd 557d 263d 57d6 54be
00000030: 3bdb 6f3e b545 1dbe 4abd 43be b728 f43c
00000040: d187 15be 3fc4 d3bd a8e7 213e 3d4e a23e
00000050: 1784 84be ef98 5f3e b68b 04be 8a22 e43c
00000060: 9097 963e ea0d 8f3d fc9b 1e3e bbca ff3d
00000070: ea96 c3bd efc0 223e 8b07 3abe c7c1 87bd
00000080: 50bb 1fbe 7a17 a23c 19b7 26be c449 8d3e
00000090: 4570 abbc 4aae 45be 3087 08be 84eb bc3d
000000a0: a865 d53d ecae 703e 3311 993e 6b86 493d
000000b0: fbb9 19be 802b 813d 176c e7bd c175 9e3c
000000c0: 9de6 c93d 0079 58be 10c0 36be 1928 f73c
000000d0: d7fa af3d 2d3b 76bd 155b 00bd 3ea5 4a3e
000000e0: 81bf 263b 5489 d8bc e406 a9bd e4ef 5cbe
000000f0: c320 053d 1499 36be 1d27 4dbd 8872 073e
00000100: dbaa e1bb bee1 853e e91e 73be 5892 00bd
00000110: 1caa e0bb ae90 f7bd 3a4b f63c 85c7 88be
00000120: 330f f7bd 51ef 54be 7e27 24be 2b07 9c3e
00000130: e5a2 493e 015a 1e3e 5ab7 263d 96ed 1b3e
00000140: 7c1b f5bd ba0e c0bd c9c3 d13d d78f afbd
00000150: 525e 3ebd 53d3 7e3e 136e 863e a597 5c3e
00000160: 385d 43be 6048 9fbb efa9 963e aea5 68be
00000170: 0d6e 7f3e 93c7 01be 6eba 833e 2927 663e
00000180: d807 e83d a4da 0c3e 9baf c8bc b5b9 1ebe
00000190: 10bb 5c3e 9be5 8b3c 9005 7abd 9744 5ebc
000001a0: 04a1 333e ceac 5abe e80a 833e c0e3 943e
000001b0: d7a9 0dbe 6666 b9bb fc1b 07be 0eff cbbd
000001c0: aa4c a23e a4b0 92bc 8487 17be c987 6d3e
000001d0: 98f0 34be e8fe 8bbd 1913 5d3e 699f 923c
000001e0: 5917 893d 6dd4 a1ba 9b2d 70be c0f2 20be
000001f0: b8d9 953e 0317 55bd be91 a6bd 2b88 9e3e
00000200: b657 1c3e 4c2c 53be d754 8abd 5aa9 e33c
00000210: e786 df3d d89b 1f3e 4f93 43bc 030f 763e
00000220: 23ab 193e 1ce4 7dbe f185 08be 60ef 9ebd
00000230: 1974 75be c3d3 2a3e 4cdb 843e bd62 5c3c
-0.092244506 -0.22785567 0.12745297 -0.086420245 0.029529613 0.13888632 0.2006715 0.25559708
0.09909452 -0.07158241 0.04064687 -0.20784889 0.23423474 -0.15358622 -0.19115177 0.02980457
-0.14602591 -0.10340165 0.15811026 0.31700316 -0.25882027 0.21835683 -0.1294392 0.0278485
0.29412508 0.06985076 0.15489191 0.1248984 -0.09550269 0.15893911 -0.1816694 -0.06628757
-0.15598798 0.019786585 -0.16280784 0.2759534 -0.020927558 -0.19304767 -0.1333282 0.092246085
0.1041978 0.23504227 0.29895934 0.049200457 -0.15012352 0.06307125 -0.112999134 0.019343259
0.09858439 -0.21139908 -0.17846704 0.030170487 0.08592766 -0.06011503 -0.031336863 0.19789597
0.0025443735 -0.02643267 -0.082532674 -0.21575886 0.032501947 -0.17831832 -0.05008613 0.13227284
-0.0068868226 0.2614879 -0.2374226 -0.031389564 -0.006856216 -0.12088142 0.030065168 -0.2671472
-0.12063446 -0.20794417 -0.1603069 0.3047422 0.19691046 0.15464021 0.0407022 0.1522735
-0.11968133 -0.09377809 0.10242421 -0.08572357 -0.04647667 0.24885301 0.26255855 0.21542223
-0.19078529 -0.0048609227 0.29426524 -0.22719452 0.24944325 -0.12673788 0.25728172 0.22475876
0.11329621 0.1375528 -0.024497798 -0.15500529 0.21555734 0.017077258 -0.06104046 -0.013566158
0.17541891 -0.21354982 0.25594258 0.2908001 -0.1383432 -0.005657959 -0.13194269 -0.09960757
0.31699115 -0.017906494 -0.14797789 0.23196329 -0.17669904 -0.06835729 0.21589316 0.017898278
0.06693906 -0.0012346633 -0.23454897 -0.15717602 0.2926767 -0.0520239 -0.08133267 0.30963263
0.15267834 -0.20622367 -0.06754463 0.027790714 0.109144025 0.15586793 -0.011936977 0.24029164
0.1500669 -0.24794048 -0.13332345 -0.07760501 -0.23970069 0.16682343 0.2594856 0.013451275

layers.4.bias f4 [4]
00000000: c657 473e 2aac 063e 9084 3d3e de62 823d
0.19467077 0.13151613 0.185076 0.06366514

layers.6.weight f4 [4, 4, 3, 3]
00000000: b0ea bcbd ff52 69be 0883 023e 19fd b0bd
00000010: 16e8 f13c 3738 0e3e d47c 4d3e 9fdd 823e
00000020: 11f2 ca3d cc99 92bd 557d 263d 57d6 54be
00000030: 3bdb 6f3e b545 1dbe 4abd 43be b728 f43c
00000040: d187 15be 3fc4 d3bd a8e7 213e 3d4e a23e
00000050: 1784 84be ef98 5f3e b68b 04be 8a22 e43c
00000060: 9097 963e ea0d 8f3d fc9b 1e3e bbca ff3d
00000070: ea96 c3bd efc0 223e 8b07 3abe c7c1 87bd
00000080: 50bb 1fbe 7a17 a23c 19b7 26be c449 8d3e
00000090: 4570 abbc 4aae 45be 3087 08be 84eb bc3d
000000a0: a865 d53d ecae 703e 3311 993e 6b86 493d
000000b0: fbb9 19be 802b 813d 176c e7bd c175 9e3c
000000c0: 9de6 c93d 0079 58be 10c0 36be 1928 f73c
000000d0: d7fa af3d 2d3b 76bd 155b 00bd 3ea5 4a3e
000000e0: 81bf 263b 5489 d8bc e406 a9bd e4ef 5cbe
000000f0: c320 053d 1499 36be 1d27 4dbd 8872 073e
00000100: dbaa e1bb bee1 853e e91e 73be 5892 00bd
00000110: 1caa e0bb ae90 f7bd 3a4b f63c 85c7 88be
00000120: 330f f7bd 51ef 54be 7e27 24be 2b07 9c3e
00000130: e5a2 493e 015a 1e3e 5ab7 263d 96ed 1b3e
00000140: 7c1b f5bd ba0e c0bd c9c3 d13d d78f afbd
00000150: 525e 3ebd 53d3 7e3e 136e 863e a597 5c3e
00000160: 385d 43be 6048 9fbb efa9 963e aea5 68be
00000170: 0d6e 7f3e 93c7 01be 6eba 833e 2927 663e
00000180: d807 e83d a4da 0c3e 9baf c8bc b5b9 1ebe
00000190: 10bb 5c3e 9be5 8b3c 9005 7abd 9744 5ebc
000001a0: 04a1 333e ceac 5abe e80a 833e c0e3 943e
000001b0: d7a9 0dbe 6666 b9bb fc1b 07be 0eff cbbd
000001c0: aa4c a23e a4b0 92bc 8487 17be c987 6d3e
000001d0: 98f0 34be e8fe 8bbd 1913 5d3e 699f 923c
000001e0: 5917 893d 6dd4 a1ba 9b2d 70be c0f2 20be
000001f0: b8d9 953e 0317 55bd be91 a6bd 2b88 9e3e
00000200: b657 1c3e 4c2c 53be d754 8abd 5aa9 e33c
00000210: e786 df3d d89b 1f3e 4f93 43bc 030f 763e
00000220: 23ab 193e 1ce4 7dbe f185 08be 60ef 9ebd
00000230: 1974 75be c3d3 2a3e 4cdb 843e bd62 5c3c
-0.092244506 -0.22785567 0.12745297 -0.086420245 0.029529613 0.13888632 0.2006715 0.25559708
0.09909452 -0.07158241 0.04064687 -0.20784889 0.23423474 -0.15358622 -0.19115177 0.02980457
-0.14602591 -0.10340165 0.15811026 0.31700316 -0.25882027 0.21835683 -0.1294392 0.0278485
0.29412508 0.06985076 0.15489191 0.1248984 -0.09550269 0.15893911 -0.1816694 -0.06628757
-0.15598798 0.019786585 -0.16280784 0.2759534 -0.020927558 -0.19304767 -0.1333282 0.092246085
0.1041978 0.23504227 0.29895934 0.049200457 -0.15012352 0.06307125 -0.112999134 0.019343259
0.09858439 -0.21139908 -0.17846704 0.030170487 0.08592766 -0.06011503 -0.031336863 0.19789597
0.0025443735 -0.02643267 -0.082532674 -0.21575886 0.032501947 -0.17831832 -0.05008613 0.13227284
-0.0068868226 0.2614879 -0.2374226 -0.031389564 -0.006856216 -0.12088142 0.030065168 -0.2671472
-0.12063446 -0.20794417 -0.1603069 0.3047422 0.19691046 0.15464021 0.0407022 0.1522735
-0.11968133 -0.09377809 0.10242421 -0.08572357 -0.04647667 0.24885301 0.26255855 0.21542223
-0.19078529 -0.0048609227 0.29426524 -0.22719452 0.24944325 -0.12673788 0.25728172 0.22475876
0.11329621 0.1375528 -0.024497798 -0.15500529 0.21555734 0.017077258 -0.06104046 -0.013566158
0.17541891 -0.21354982 0.25594258 0.2908001 -0.1383432 -0.005657959 -0.13194269 -0.09960757
0.31699115 -0.017906494 -0.14797789 0.23196329 -0.17669904 -0.06835729 0.21589316 0.017898278
0.06693906 -0.0012346633 -0.23454897 -0.15717602 0.2926767 -0.0520239 -0.08133267 0.30963263
0.15267834 -0.20622367 -0.06754463 0.027790714 0.109144025 0.15586793 -0.011936977 0.24029164
0.1500669 -0.24794048 -0.13332345 -0.07760501 -0.23970069 0.16682343 0.2594856 0.013451275

layers.6.bias f4 [4]
00000000: c657 473e 2aac 063e 9084 3d3e de62 823d
0.19467077 0.13151613 0.185076 0.06366514

layers.8.weight f4 [1, 4, 3, 3]
00000000: c160 3bbe 2846 9ebe d3e4 bc3e 24ab 8d3e
00000010: 280c 833e ab26 b53e 2d81 b5bd 67b2 bd3e
00000020: 5e85 73be 44be 99be bffa 5d3e b785 413d
00000030: fd95 2bbd 57bb 97bd cdc2 b2bc 0644 9abe
00000040: 1f53 963e ee79 d73d ddf9 3d3e a9ef c8bd
00000050: 8686 f63d 0d9d 7abe ed2c af3e aa57 b3bd
00000060: 1b68 7f3e 89db 923e 83a4 53be dae6 d43d
00000070: 1650 5b3e 7fc4 8a3e 1afa 9b3e 0432 8d3e
00000080: e8af 623e 1262 52be 1c5a 63be 6951 9f3e
-0.18298627 -0.309129 0.3689333 0.27669632 0.25595212 0.35381064 -0.08862529 0.37050173
-0.23781344 -0.30027974 0.21677683 0.04724666 -0.041891087 -0.07408779 -0.021821404 -0.30130023
0.2936029 0.10521303 0.18552347 -0.098113365 0.12037377 -0.24473973 0.34213963 -0.08756955
0.24942057 0.28683117 -0.20668225 0.10395594 0.21417269 0.2710304 0.3046425 0.2757722
0.22137415 -0.20545223 -0.22202343 0.311168

layers.11.weight f4 [18, 1062]
00000000: dc90 623d f2b3 16bd a52c 4abc dc40 583d
00000010: a069 0e3c 1134 09bd ef81 873d c3f4 33bd
00000020: cd69 5cbd daa6 61bd 252d 83bd d50a b8bb
00000030: 2211 263d a629 133c c331 a33c faab 813c
00000040: 29da 563d de89 1a3c af2c 803c d9fe bbbb
00000050: 3f3b 9e3b f779 54bd bdf7 803d 4e44 183c
00000060: 56a1 113c 2838 7c3d a686 42bd 102f 3e3d
00000070: 8dcf 033d c867 9cbc 8e72 34bd 0ec5 443d
00000080: 58e7 c3bc 2bad 6b3d dd35 9a3a c372 863d
00000090: ecd3 073c 6bd2 1ebd bae3 b13c a22f d6bc
000000a0: f3f2 4b3d e03d 13bc 6492 96bc 0044 d73c
000000b0: 5eca 41bc aef4 86bd da03 f83c 91bd a13d
000000c0: ff72 863d 3c3a 363c 618d 6abd c182 0abd
000000d0: af0c 62bc 9084 dc3c 0297 943c 7c49 54bd
000000e0: 204e 30bd 3cf7 b93c 4663 1e3d aff9 83bb
000000f0: 1a09 483d 4816 febc 4b27 a23d ad4f 553d
00000100: 471a 653d bffb b2bc 264f 443d 86b0 c43b
00000110: b18f 713d 9c10 b93b f07f 163d 9dc7 32bd
00000120: e457 823d 8a8b 673d 496e 8c3c daf9 913d
00000130: 7cc7 363d 0672 6a3d 7a87 263d 22c6 0f3d
00000140: e80b 013c cf0f b5bc 26da 12bd ff34 bcbc
00000150: d8d3 fabb d2bf e4bc 80fd 93bc 3505 0cbc
00000160: 85c4 4f3b 14a5 d43c 332f fdbc adc7 af3c
00000170: 0d02 533d 260b a53d 5d7b bbbb 4708 463d
00000180: 50be 863d b2a7 78bc 5a39 273b 2354 b93c
00000190: 80c6 ebbc a9bb 8e3c 74a0 16bd 664c 9c3d
000001a0: 013c a23d bb6b ef3c 18fc 82bd cbf6 8dbc
000001b0: 65a1 903c f3fe 063d b76e 01bd 1f2c 2cbd
000001c0: faea 7dbb f8f4 acbc 1444 623d c981 2f3d
000001d0: 2cc2 85bd ca61 bf3c c920 083c ea48 e93c
000001e0: 45fa 4c3d 9aca 153c 6d49 393a 5267 3cbd
000001f0: d8bb 2f3c d4d5 843d 5b0d 07bc 1370 6fbd
00000200: 49fb d0bc 824f 88bd 0dca aa3c 21c7 c8bb
00000210: 9210 413d 5925 c8bc 9443 133d 81fe 643d
00000220: 828e 7bbd 6811 7cbd 492e 303d 910c 5fbd
00000230: 1cfc c6bc 5c6f 42bd 0e7a 8f3d 161b 7bbd
00000240: 93bc 0e3b 4c7d a23c b56e 01bd 8ae6 743d
00000250: 6766 9bbb 93c9 7b3d d83d 32bb 90c2 9d3d
00000260: 6a21 c23c 3098 d5bc 2b5d 113d 6cc6 b83c
00000270: bece 89bd a7f6 98bc d163 283d a130 213d
00000280: dcaa 333d dfe0 1abb 45bc 8e3d 90a2 c7bc
00000290: 513b eebc 6563 823b 4873 86bd 4345 ec3c
000002a0: 86de 083d 6527 0b3c 08b4 9b3c 50e5 eebc
000002b0: c850 963d c4fc 06bc fb75 47bd 9ef8 55bd
000002c0: 247e 83bc c182 293d 067d 7e3c 6ce0 7b3b
000002d0: 8c95 9abc d861 9d3b daf6 42bc cc1a f43c
000002e0: 33e0 89bc 3060 9d3d 9738 c23c 8690 863d
000002f0: bc3f 0f3d 7f04 babc e215 2cbc 0b1d a4bb
00000300: 4068 893d a955 ea3b 13b4 71bd e40b debc
00000310: 1f21 82bd a2e6 6a3d 91ab 3a3d 7ffd 18bd
00000320: ed56 633d e6f5 4d3d d912 6a3c bef1 eabc
00000330: 60ae 0bbd 00d1 3fbd 4542 9b3d 7c45 bbbc
00000340: d168 a13d 5744 393d f503 0e3c 0703 b13b
00000350: 8541 8a3d b109 0bbd cab3 263d 74e8 a53c
00000360: 2ff0 de3b 71e2 d43c b111 57bd cbb6 c0bc
00000370: a922 6e3d 5fa7 84bd 85cc 6f3d 2083 c83a
00000380: 448a 913d 6afa 593d 941b 0ebd c9d3 a13c
00000390: a985 68bd 7950 be3c 9932 433d f2eb 813c
000003a0: 53f6 8b3c 0e48 a03d e399 48bc 677b 6dbb
000003b0: 3efe 953c 81f7 ac3c c45a 1c3a 938c 903b
000003c0: 9ea7 3cbd 81d3 a13c f130 f83c 4174 10bc
000003d0: e835 a93b 8b50 22bc c315 09bd 0b9e 26bc
000003e0: d953 27bd 59fc 1fbd a84e ad3c 4409 0bbd
000003f0: 40af 133d 0e98 723d 24c5 acbb 3b73 8cbd
0.05531393 -0.036792703 -0.012339746 0.05279623 0.008692175 -0.03349692 0.0661658 -0.043934595
-0.053811837 -0.055090763 -0.06405095 -0.0056165257 0.040543683 0.008982098 0.01992119 0.015829075
0.052454147 0.009432284 0.015646307 -0.0057371673 0.00482884 -0.051874127 0.06297252 0.009293629
0.008888563 0.061576992 -0.047491692 0.0464316 0.032180358 -0.019092456 -0.04405456 0.04803949
-0.023914024 0.057538193 0.001176532 0.06564858 0.008290272 -0.03877489 0.021715034 -0.02614576
0.04979224 -0.00898692 -0.018380351 0.026277542 -0.011828033 -0.06589638 0.030275274 0.07897485
0.065649025 0.011122283 -0.057263736 -0.033816103 -0.013796969 0.02691868 0.018138412 -0.051827893
-0.043043256 0.022700898 0.038668893 -0.0040275673 0.048836805 -0.031016484 0.07917651 0.052077938
0.055933263 -0.021848558 0.047927044 0.0060024885 0.058974925 0.005647732 0.036743104 -0.043647397
0.0636442 0.05652956 0.017142432 0.071277335 0.044623837 0.057237647 0.040656544 0.035101064
0.007876374 -0.022102265 -0.035852574 -0.02297449 -0.0076546483 -0.027923498 -0.018065214 -0.008546163
0.0031702828 0.025957622 -0.030906295 0.021457518 0.051515628 0.08058767 -0.005721493 0.048347738
0.06579268 -0.0151767 0.0025516362 0.022623127 -0.028781176 0.017423468 -0.036774114 0.07631759
0.07921601 0.029226175 -0.06395739 -0.017329594 0.017655084 0.032957982 -0.031599727 -0.042034265
-0.0038744793 -0.021112904 0.055240706 0.042848382 -0.06531176 0.02336206 0.008308598 0.028477151
0.050043363 0.009142542 0.0007068131 -0.04599697 0.010725938 0.06486097 -0.00824293 -0.05845649
-0.025510447 -0.0665579 0.020848298 -0.0061272536 0.047134943 -0.024431871 0.03595312 0.055906776
-0.061415203 -0.061540037 0.04301289 -0.054455344 -0.024290137 -0.04746948 0.07005702 -0.061305128
0.002177988 0.019835137 -0.03159972 0.05979017 -0.004742432 0.061471533 -0.0027197506 0.077031255
0.023697574 -0.026073545 0.035489243 0.022555552 -0.06728886 -0.0186723 0.041110817 0.039353017
0.043864116 -0.0023632569 0.06969503 -0.024369508 -0.029081019 0.003979134 -0.06564957 0.02884162
0.03341534 0.008493279 0.019006744 -0.02916208 0.073396266 -0.008238975 -0.0486965 -0.052239053
-0.01605136 0.041384462 0.015532738 0.0038433326 -0.018870138 0.0048029236 -0.011899674 0.029797934
-0.01683054 0.07684362 0.023708625 0.065705344 0.03497289 -0.022707222 -0.010503264 -0.005008345
0.06709337 0.007151325 -0.059009623 -0.02710528 -0.063539736 0.057348855 0.045573775 -0.037351128
0.05550282 0.050283335 0.01428672 -0.028679725 -0.034101844 -0.046830177 0.07580999 -0.022860281
0.0788132 0.04523119 0.008667936 0.005401972 0.06750778 -0.03394479 0.040698804 0.020252444
0.0068035345 0.025986882 -0.052507106 -0.023524662 0.058138523 -0.06477236 0.058544654 0.0015297867
0.0710645 0.05321733 -0.03469427 0.019754307 -0.056768093 0.023231732 0.047655676 0.015859578
0.01708523 0.07826243 -0.012243721 -0.0036236884 0.018309709 0.021114113 0.0005964453 0.004411289
-0.04605829 0.019754173 0.030296775 -0.00881678 0.005163897 -0.009906898 -0.03346802 -0.010169516
-0.040851448 -0.039059017 0.02115567 -0.033944383 0.036055803 0.059227042 -0.0052725244 -0.06857916

layers.11.bias f4 [18]
00000000: 398f 4d3c 699a 99bb 7f07 1e3a 9a73 f83c
00000010: 464c 203d ae38 083c bbff 933b 8dfd a33b
00000020: edf3 093d 200c 2a3c 7b07 0b3c 3f3f 053c
00000030: cfc1 383c 0717 6ebb ec65 003c f5cd 7dbc
00000040: dd43 4aba 7120 ac3c
0.012546354 -0.0046875966 0.00060283387 0.03032856 0.03913524 0.008314295 0.0045165694 0.005004591
0.03367989 0.010378867 0.00848567 0.008132755 0.011276676 -0.0036329643 0.0078368 -0.0154909985
-0.0007715801 0.021011563

exp_avg f4 [4, 1, 3, 3]
00000000: 0712 27c1 bdbb 27c1 1b3a 21c1 fd13 17c1
00000010: d52d 15c1 bb73 0dc1 862c 2ec1 696c 2fc1
00000020: 290b 29c1 9832 1ec1 9f8a 1ec1 d41f 1bc1
00000030: cd46 27c1 6e46 29c1 052c 24c1 1f34 18c1
00000040: c8c9 18c1 f779 14c1 5a42 1dc2 574b 1cc2
00000050: 301f 19c2 3b67 21c2 93d6 1fc2 81e8 1cc2
00000060: 3505 24c2 6e0f 22c2 700d 1ec2 8dda 91c1
00000070: 10a8 8ec1 7194 8ac1 8d94 94c1 697f 92c1
00000080: 8ec6 8ec1 d7a0 9bc1 a793 97c1 d51c 92c1
-10.441901 -10.483335 -10.076686 -9.44238 -9.323689 -8.8407545 -10.88587 -10.963967
-10.565225 -9.887352 -9.908843 -9.695271 -10.454785 -10.579695 -10.260747 -9.512725
-9.549263 -9.279777 -39.314796 -39.073574 -38.280457 -40.35081 -39.959545 -39.227055
-41.005085 -40.515068 -39.513123 -18.231714 -17.832062 -17.322481 -18.572535 -18.312212
-17.84695 -19.453535 -18.947096 -18.264078

exp_avg_sq f4 [4, 1, 3, 3]
00000000: 34f4 0044 3eed 0044 0ec6 fa43 8a95 e843
00000010: 1557 e643 6812 de43 5fbb e243 cce2 e343
00000020: 9362 dd43 b0c3 fe43 7dd0 ff43 8b54 fb43
00000030: 847a 0d44 a190 0e44 3154 0b44 374d 0a44
00000040: b997 0a44 9d7b 0744 0f80 0d46 5416 0d46
00000050: c211 0b46 d093 1246 f001 1246 9329 1046
00000060: c759 1046 57a6 0f46 e59a 0d46 d268 de44
00000070: 6e8d db44 d541 d844 9768 e444 3463 e244
00000080: c04d df44 3629 e044 b7e8 dc44 1297 d844
515.8157 515.7069 501.5473 465.16827 460.68033 444.1438 453.46384 455.77185
442.7701 509.5288 511.6288 502.6605 565.9143 570.2598 557.3155 553.2065
554.37067 541.93146 9056.015 9029.582 8900.439 9380.953 9344.484 9226.394
9238.444 9193.585 9062.724 1779.2756 1756.4197 1730.0573 1827.2684 1811.1001
1786.4297 1793.2878 1767.2723 1732.721

exp_avg f4 [4]
00000000: 71cf b3c1 f1fb 97c1 4680 8fc2 1fab 16c2
-22.47629 -18.998018 -71.750534 -37.66711

exp_avg_sq f4 [4]
00000000: 34f9 8748 bfcc 6b48 de5a 874a 5bab 4449
278473.62 241458.98 4.435311e+06 805557.7

exp_avg f4 [4, 4, 3, 3]
00000000: 9262 52c1 d923 57c1 5902 51c1 8c86 81c1
00000010: 1dd1 82c1 a876 7bc1 5cf5 72c1 efa9 72c1
00000020: 794b 69c1 cdee b440 835f af40 843f ab40
00000030: efae aa40 9742 a240 2843 9f40 b5b2 b340
00000040: 0f94 aa40 17b5 af40 fde4 ccc0 ab77 cdc0
00000050: a475 c2c0 7d93 26c1 6327 2ac1 e83e 24c1
00000060: 0b30 2dc1 33c5 2fc1 3ff6 28c1 cabd e840
00000070: ea7e df40 1ee6 e240 0be5 bf40 2c45 b840
00000080: becc b940 cd6f d140 2096 c940 40ca c840
00000090: 6a9d dfc0 45c1 dbc0 5d5d d5c0 5109 b6c0
000000a0: 7b97 b0c0 1985 aac0 ddb0 c1c0 45e1 bcc0
000000b0: 45a5 b1c0 823c c83f 145e a03f 80cb 7c3f
000000c0: dbc0 1740 9e70 ff3f 19a0 ca3f 9d57 e03f
000000d0: 6b00 b03f ff95 7d3f 5503 3b3e 3831 9e3e
000000e0: ab17 193f f29e 683f 0b8d 7e3f 067a 993f
000000f0: 3132 7c3f d592 813f 7eac 823f c342 e43f
00000100: e1ae d43f cbba bf3f 5c1d 2340 36c6 1d40
00000110: c487 0840 5db3 ab3f 281a a03f 4738 6a3f
00000120: 2387 5fc2 4cc4 5fc2 27ba 5ac2 51c6 5cc2
00000130: 8954 5dc2 5926 57c2 30dc 4fc2 6de8 51c2
00000140: 3ec9 4bc2 8a69 6d41 fc78 6341 b19f 5b41
00000150: 14dc 7c41 8d30 7141 5d72 6a41 9d63 9041
00000160: 7b01 8941 d948 8341 328d 8d40 eb5a 6e40
00000170: 9ee6 5d40 63e2 db3f 2344 9b3f 9313 6e3f
00000180: c5cb 6c3f fbbe f63d 5007 aabc 99bc c841
00000190: b497 c841 a53a c841 23a2 c441 e62f c341
000001a0: b286 c341 b927 ca41 591b c741 132b c441
000001b0: 325f 9dc1 7ab5 9fc1 d374 9dc1 d83b b3c1
000001c0: 0472 b4c1 b0ed aec1 eb3b c3c1 7443 c5c1
000001d0: 91c2 c0c1 6e6c 4441 6621 3341 d40e 2b41
000001e0: 9af6 5241 bb83 4541 b508 3f41 bfb1 4441
000001f0: b91b 3841 a1ae 2e41 ed6c 0ec1 34d2 0fc1
00000200: b565 0dc1 e4d6 1ac1 9719 1dc1 ccfc 1ac1
00000210: 3a6d 16c1 b2b5 14c1 410c 0fc1 8517 8441
00000220: b67c 7e41 0f75 7f41 c4db 6b41 496b 6441
00000230: 7486 6941 eb34 6241 0d20 5c41 d294 6341
-13.149065 -13.446252 -13.063073 -16.190697 -16.352106 -15.716469 -15.184902 -15.166488
-14.580926 5.6541505 5.480409 5.3515034 5.333854 5.0706286 4.976948 5.615565
5.3305736 5.4908557 -6.4029527 -6.420858 -6.0768604 -10.411008 -10.634616 -10.265358
-10.824229 -10.985644 -10.560119 7.2731676 6.9842424 7.0905905 5.9967093 5.758444
5.806243 6.5448976 6.299576 6.2746887 -6.9879656 -6.8673425 -6.667647 -5.6886373
-5.5184913 -5.3287473 -6.0528398 -5.9024987 -5.5514245 1.5643466 1.252871 0.98748016
2.371146 1.9956243 1.5830108 1.7526737 1.3750128 0.99057 0.1826299 0.30896926
0.5980174 0.9086753 0.99433964 1.1990364 0.98514086 1.0122935 1.020889 1.7832874
1.6615869 1.497888 2.548667 2.4652228 2.1332865 1.3414112 1.2507982 0.9149212
-55.88197 -55.941696 -54.68179 -55.19367 -55.332554 -53.78745 -51.965027 -52.47698
-50.946526 14.838266 14.217037 13.726487 15.80373 15.074353 14.652921 18.04864
17.125723 16.41057 4.4234858 3.7242992 3.4672008 1.7178463 1.2130169 0.9299862
0.9249843 0.120481454 -0.02075544 25.092089 25.074074 25.028635 24.579168 24.398388
24.44077 25.269396 24.888353 24.521032 -19.671482 -19.963612 -19.682043 -22.40422
-22.555672 -21.866058 -24.404257 -24.657936 -24.095003 12.276472 11.195654 10.69112
13.185205 12.344661 11.939626 12.293395 11.506768 10.917634 -8.901593 -8.988819
-8.837331 -9.677464 -9.8187475 -9.686718 -9.401667 -9.294359 -8.940492 16.511484
15.905447 15.966079 14.741154 14.276193 14.595325 14.137919 13.757825 14.223833

exp_avg_sq f4 [4, 4, 3, 3]
00000000: 4d50 6449 7ebd 6949 330e 6449 b2ed 5949
00000010: 4625 5f49 21db 5949 289d 3d49 651e 4249
00000020: 7974 3d49 4ac2 eb46 3dfc f846 3d2f f546
00000030: 507d df46 6b1c ec46 bbc0 e746 3336 af46
00000040: f1af ba46 4612 b746 5bee 9749 014d 9949
00000050: f5d4 9449 8d9d 9349 c9d6 9449 105f 9049
00000060: 9388 7b49 0735 7d49 03b2 7549 4cd3 1948
00000070: a9ad 1d48 895e 1748 1835 1548 ec9d 1848
00000080: 1052 1248 b8dc 0348 781b 0748 6146 0148
00000090: 14e8 ce45 2c93 c345 4d8b af45 7c63 e045
000000a0: 26f7 d345 df5b be45 f81c d445 89df c845
000000b0: 8630 b445 57cf bf45 d243 bf45 2cc7 b845
000000c0: 764a d345 5c27 d245 3451 cb45 ffee c745
000000d0: 89f8 c645 006c c045 1f8a c144 fb7d b644
000000e0: 3660 9b44 132e b244 38dc a744 7f94 8f44
000000f0: 0b36 a944 7393 9e44 ce30 8544 54b7 1e45
00000100: 0e1c 2545 8dda 1345 4b17 3045 0e9a 3645
00000110: d76f 2445 c13f 2345 fe9c 2a45 22e4 1a45
00000120: 679d 014a 12c4 054a d8b3 044a 8dfc 034a
00000130: 292b 084a 270c 074a efce f149 fe64 f949
00000140: e369 f749 4d93 eb48 cd05 f148 5ac3 ed48
00000150: d4f4 fb48 ded3 0049 df46 fe48 8bbd f048
00000160: 682f f648 0add f248 7ef0 734a 9db4 794a
00000170: bbf7 744a 4079 7c4a 2f1f 814a 9543 7d4a
00000180: 88e4 6a4a 4222 704a 3e88 6b4a 5203 2349
00000190: a4c6 2749 cb25 2449 54c0 2b49 af95 3049
000001a0: bd0b 2d49 3bfe 2349 a765 2849 3836 2549
000001b0: 284d f049 6f45 f549 5417 f049 c19a fd49
000001c0: ba6c 014a 3454 fd49 64b9 ed49 e697 f249
000001d0: 1d78 ed49 2305 b047 0b44 b247 9d49 ab47
000001e0: 9e21 bf47 fa91 c147 1cf4 b947 331d c147
000001f0: 80a0 c347 ff61 bc47 272f 124a 2979 144a
00000200: c50f 114a e499 194a 90fd 1b4a df62 184a
00000210: 4d1d 0f4a cf5a 114a 1301 0e4a 4b7b b448
00000220: b874 b648 66e6 ad48 5fc4 c148 b8c5 c348
00000230: cda3 ba48 63fc be48 9c06 c148 cb2c b848
935172.8 957399.9 934115.2 892635.1 914004.4 892338.06 776658.5 795110.3
776007.56 30177.145 31870.12 31383.62 28606.656 30222.209 29664.365 22427.1
23895.97 23433.137 1.2446194e+06 1.2558401e+06 1.2192306e+06 1.2092656e+06 1.2192891e+06 1.18269e+06
1.0302812e+06 1.03713644e+06 1.0063682e+06 157517.19 161462.64 155002.14 152788.38 156279.69
149832.25 135026.88 138349.88 132377.52 6621.01 6258.3965 5617.4126 7180.4355
6782.8936 6091.484 6787.621 6427.942 5766.0654 6137.9175 6120.4775 5912.8965
6761.3076 6724.92 6506.1504 6397.8745 6367.067 6157.5 1548.3163 1459.9369
1243.0066 1425.4398 1342.8818 1148.6405 1353.6888 1268.6078 1065.5251 2539.458
2641.7534 2365.6594 2817.4558 2921.6284 2630.99 2611.9846 2729.812 2478.2583
2.1236098e+06 2.1916205e+06 2.174198e+06 2.1624672e+06 2.2309862e+06 2.2126178e+06 1.9808939e+06 2.0430398e+06
2.0268124e+06 482458.4 493614.4 486938.8 516006.62 527677.9 520758.97 493036.34
504187.25 497384.3 3.9967035e+06 4.0911752e+06 4.0135508e+06 4.136528e+06 4.2310635e+06 4.1494772e+06
3.848482e+06 3.9343525e+06 3.8589595e+06 667701.1 687210.25 672348.7 703493.25 723290.94
708795.8 671715.7 689754.44 676707.5 1.968549e+06 2.0092619e+06 1.9668265e+06 2.0775281e+06
2.1204945e+06 2.0752705e+06 1.9474365e+06 1.9873248e+06 1.9453476e+06 90122.27 91272.086 87699.23
97859.234 99107.95 95208.22 98874.4 100161.0 96451.99 2.3950818e+06 2.4325862e+06
2.3766892e+06 2.516601e+06 2.555748e+06 2.4966958e+06 2.3447872e+06 2.3814918e+06 2.3265968e+06 369626.34
373669.75 356147.2 396834.97 400941.75 382238.4 391139.1 395316.88 377190.34

exp_avg f4 [4]
00000000: 2976 65c2 21e0 7fc1 0381 12c3 d754 b0c2
-57.36539 -15.992219 -146.50395 -88.1657

exp_avg_sq f4 [4]
00000000: 2196 2f4a d3ce 8247 3312 854b ca73 b84a
2.8768082e+06 66973.65 1.7441894e+07 6.044133e+06

exp_avg f4 [1, 4, 3, 3]
00000000: f736 8bc1 f2fa 8dc1 1d49 8ac1 6a55 a0c1
00000010: 179d a3c1 dc06 a0c1 f0fb 97c1 47a4 9cc1
00000020: c766 9ac1 e3fd 5fbe 01be f6be 4136 f2be
00000030: 47e9 97bf f427 bbbf 7c5c cabf a632 7bbf
00000040: 4b48 9bbf 257b abbf a1a4 78c1 216e 7dc1
00000050: 84c4 76c1 22d8 8fc1 ce19 92c1 299f 8dc1
00000060: 2892 88c1 2797 8bc1 80f2 87c1 dea9 8fc0
00000070: 0868 95c0 2436 8ac0 4cc2 a0c0 8d91 a7c0
00000080: 7369 9ec0 4924 9ac0 d824 a5c0 4441 a1c0
-17.401838 -17.747532 -17.2857 -20.041706 -20.451704 -20.00335 -18.998016 -19.580214
-19.300184 -0.21874194 -0.48191836 -0.47307017 -1.1868066 -1.4621568 -1.5809474 -0.9812416
-1.2131437 -1.3396956 -15.540193 -15.839387 -15.422977 -17.980534 -18.2626 -17.702715
-17.071365 -17.448805 -16.993408 -4.4894857 -4.668949 -4.319109 -5.023718 -5.2365174
-4.950372 -4.8169293 -5.1607475 -5.039217

exp_avg_sq f4 [1, 4, 3, 3]
00000000: bf64 ee49 9b86 f549 3122 f249 9457 f149
00000010: dddf f849 7cc4 f549 958b d749 4529 de49
00000020: b279 db49 70cb e140 7a2d 5e42 a403 5e42
00000030: 6a44 3142 940e f642 51bf 1543 c114 e641
00000040: 0996 b142 4fdd d742 efe7 ff49 1780 034a
00000050: a77f 004a 36fe 034a 62f7 074a e501 054a
00000060: 49e2 e949 cacd f049 1dcb eb49 3c17 af47
00000070: 8e6e b647 4535 af47 0e8d b547 7e9d bc47
00000080: fbbd b547 92ba a647 ebf9 ac47 9ef4 a647
1.9529199e+06 2.0113474e+06 1.9835581e+06 1.9770745e+06 2.0387796e+06 2.0133275e+06 1.7657466e+06 1.8199446e+06
1.7979422e+06 7.0560837 55.54441 55.503555 44.31681 123.02847 149.74733 28.760134
88.79304 107.93224 2.0963819e+06 2.1545018e+06 2.1053218e+06 2.1625735e+06 2.2276725e+06 2.1791932e+06
1.9159771e+06 1.9726652e+06 1.9316196e+06 89646.47 93405.11 89706.54 92954.11 96570.984
93051.96 85365.14 88563.836 85481.234

exp_avg f4 [18, 1062]
00000000: e30a 22bd 17bf 37bd 8a20 17bd 9d53 ffbc
00000010: fb43 e8bc f642 ffbc f11f 1abd 12da 44bd
00000020: 8a02 7dbd 0a57 93bd a97d 9cbd 8888 99bd
00000030: 0e70 8bbd d5ad 6abd 7a5c 36bd 8a5d febc
00000040: a604 a1bc 992b 38bc 2ce5 c7bb ac2b e9bb
00000050: d067 6cbc 4008 d5bc 5a08 2ebd d5cc 71bd
00000060: e8c0 a2bd ffac c4bd 101d e4bd 7843 f7bd
00000070: 41fe 02be 2e6b 03be 46ab 01be 46e5 fcbd
00000080: 8636 f1bd 5f3c e8bd 3d8c d7bd 1fc9 cebd
00000090: a477 c7bd 7ff2 cbbd 5e1c d0bd 9896 f9bd
000000a0: 0f54 0dbe 90c0 0abe f61c 0bbe a842 05be
000000b0: 7d4a 07be d0ed 06be 4188 05be 05dc 05be
000000c0: 934b 07be 2e95 03be e794 00be d224 ffbd
000000d0: 8e89 f9bd 5485 f8bd beac f8bd bbfe fbbd
000000e0: f5e3 dfbd 4c02 f2bd ab49 c8bd b4ef 7bbd
000000f0: d502 98bd e878 63bd 5d7b 4fbd e6ae 1ebd
00000100: 6a52 1bbd 159a 3cbd 5388 60bd 819b 81bd
00000110: 32f2 8bbd 8cad 8bbd b7bc 7bbd acef 53bd
00000120: 7c70 24bd bdef dfbc b0ca 67bc 3ae0 87bb
00000130: b06f e23a 72c4 963b be15 113b 819a 85bb
00000140: e036 6bbc e0c4 d1bc 6f1f 1ebd 2b93 60bd
00000150: 8b33 97bd e9db b3bd 497c c7bd a361 d2bd
00000160: 7496 dabd 3bf9 debd 5af4 e0bd 8aba dabd
00000170: aadd d4bd 4004 c7bd 9f73 bdbd b2da c3bd
00000180: 43ec d3bd 91f6 e5bd 3a4a 0fbe 0e01 23be
00000190: 58cc 1cbe 35fc 1abe a16a 14be ecd1 18be
000001a0: 991e 1abe e5b8 17be 5841 17be 1838 15be
000001b0: 44ea 10be 2980 0dbe cb18 0dbe 5966 0abe
000001c0: dcd2 09be b2ba 08be 84cc 0cbe ad73 01be
000001d0: 79d7 fbbd 1169 b4bd 016e 8fbd 82c7 9bbd
000001e0: b7ae 66bd ff87 4dbd c7f0 28bd bb18 2bbd
000001f0: 3c49 46bd 83b8 7cbd 22ca 8fbd 256d 96bd
00000200: 7c82 91bd a518 86bd 45b2 68bd 5d56 3ebd
00000210: 6f6c 10bd 7581 cabc f828 90bc c76e 62bc
00000220: 7763 52bc 3037 8abc 054c cfbc 406e 1cbd
00000230: 1c3a 51bd eaad 89bd 4a31 a5bd f189 d0bd
00000240: 2b76 f1bd ed24 06be caec 08be c63a 11be
00000250: e155 1cbe 5e26 1fbe 118c 18be 88df 13be
00000260: c38d 0dbe 67b4 06be b16a 0bbe 1556 0ebe
00000270: 0b81 17be d9ab 2abe d18b 2ebe 07b5 22be
00000280: 1337 1abe a2e2 15be ce0b 1dbe 0b2b 22be
00000290: d6e8 1fbe eb76 20be e37c 1ebe 3dd4 17be
000002a0: 2f35 14be 6fb8 12be 44d6 0ebe 07c5 0cbe
000002b0: 6176 0bbe e3bc 10be 792e 08be a158 01be
000002c0: afc0 a5bd ef4f 72bd 808b 82bd 4fc9 25bd
000002d0: 6b00 f6bc 4a43 20bc c556 613a 4b47 4d3b
000002e0: 975a 1e3b 7fbd 893b 32ef 983b 6c3f cf3b
000002f0: 0995 3f3c bbeb 973c c1ac d53c 7ff4 073d
00000300: 9db1 1e3d 0547 303d 4499 323d 3261 203d
00000310: eba5 ee3c 5bf0 843c ad83 803a c227 88bc
00000320: c747 12bd ae9f 5fbd a59d a5bd 7582 e0bd
00000330: 1180 febd 2455 0abe 719d 1bbe 9a90 30be
00000340: 8451 34be 2e8c 33be 5e2a 30be 1286 2bbe
00000350: 1e97 25be 4197 28be 24ec 26be c157 29be
00000360: ec6a 2fbe 32e6 2ebe b38c 20be 0fac 18be
00000370: 0228 1cbe e4a1 22be 6da0 23be 0d88 20be
00000380: 02d3 1ebe 70b3 15be a13f 09be adc9 06be
00000390: 4e18 02be 5dc4 01be 0241 ffbd 8f2d febd
000003a0: fcad 04be 1280 f5bd 9cd0 e6bd 54d7 91bd
000003b0: 2997 47bd 1870 53bd 00a8 e5bc 7a46 56bc
000003c0: a50d 403b 091a 693c 2503 923c 2532 8b3c
000003d0: 717c 8d3c fbf5 a63c f885 d33c 2b7c ff3c
000003e0: 2440 193d 3c6e 2f3d 11da 3e3d 2487 473d
000003f0: ddbd 453d 5710 313d 6d88 0b3d 2186 c53c
-0.039561164 -0.04485997 -0.036896266 -0.0311678 -0.028352728 -0.03115986 -0.037628118 -0.04805953
-0.06177 -0.07194336 -0.07641155 -0.074967444 -0.06808482 -0.057294685 -0.044521786 -0.031050462
-0.019655537 -0.011240863 -0.0061003175 -0.007115802 -0.014429048 -0.02600491 -0.042488433 -0.059033234
-0.0794695 -0.09603309 -0.11138356 -0.120734155 -0.12792303 -0.12833855 -0.12662992 -0.12348418
-0.11777978 -0.1133964 -0.10524795 -0.100969546 -0.097396165 -0.09958362 -0.101616606 -0.121869266
-0.13801597 -0.1355002 -0.13585266 -0.13013709 -0.13212009 -0.13176656 -0.13040258 -0.13072212
-0.13212423 -0.12849876 -0.12556802 -0.12458195 -0.121844396 -0.12134805 -0.12142323 -0.12304445
-0.10932151 -0.11816844 -0.09779676 -0.061507896 -0.07422415 -0.055535227 -0.050654758 -0.038741015
-0.037920393 -0.04604538 -0.05481751 -0.06328488 -0.068333045 -0.06820211 -0.06145927 -0.05174224
-0.040146336 -0.027335996 -0.014147446 -0.004146603 0.0017275717 0.004601055 0.0022138203 -0.004077256
-0.014356345 -0.025606573 -0.038604196 -0.05482785 -0.07382878 -0.08782179 -0.097405024 -0.10272529
-0.10673228 -0.10887381 -0.10984106 -0.10680111 -0.103938416 -0.097176075 -0.092505686 -0.09563197
-0.10347798 -0.112286694 -0.13993159 -0.15918371 -0.15312326 -0.15135272 -0.144938 -0.14923829
-0.15050735 -0.14816625 -0.1477102 -0.1457218 -0.14151865 -0.1381842 -0.13778989 -0.13515605
-0.13459343 -0.13352469 -0.13749892 -0.12641783 -0.122969575 -0.08809102 -0.070034035 -0.076064125
-0.056318965 -0.050178524 -0.04124525 -0.04177163 -0.048409685 -0.0616994 -0.07020976 -0.073450364
-0.07104966 -0.06547669 -0.056810636 -0.04646908 -0.03525966 -0.024719933 -0.01759766 -0.013820357
-0.012841097 -0.016872019 -0.025304804 -0.03819108 -0.051080808 -0.067226246 -0.08066042 -0.1018256
-0.11790117 -0.13100024 -0.13371578 -0.14182577 -0.15267135 -0.1554198 -0.14897181 -0.14440739
-0.13823609 -0.13154756 -0.13614918 -0.13900025 -0.1479532 -0.16667117 -0.17045523 -0.15889369
-0.15060072 -0.14637235 -0.15336534 -0.15836732 -0.15616164 -0.15670364 -0.15477328 -0.14827056
-0.14473413 -0.14328168 -0.13948923 -0.13747035 -0.13619377 -0.14134555 -0.13298978 -0.12631465
-0.08093392 -0.059158262 -0.06374264 -0.040475186 -0.030029496 -0.009781668 0.00085959985 0.0031323011
0.0024162882 0.004203498 0.004667186 0.006324699 0.011693248 0.018545022 0.026083352 0.033192154
0.038743604 0.04303648 0.043603197 0.039155193 0.02913185 0.016227892 0.0009804867 -0.01662052
-0.035712983 -0.05459564 -0.08086709 -0.10962383 -0.124267705 -0.13509041 -0.15196778 -0.17242661
-0.1760922 -0.17533943 -0.17203662 -0.16750363 -0.16170928 -0.16463949 -0.16301018 -0.16537382
-0.17130631 -0.1708 -0.15678672 -0.14909385 -0.15249637 -0.15882069 -0.15979166 -0.15676899
-0.1551018 -0.14619231 -0.13403179 -0.1316287 -0.12704584 -0.12672563 -0.12463571 -0.12411033
-0.12956995 -0.11987318 -0.11270258 -0.07121149 -0.048728142 -0.051620573 -0.02803421 -0.013078326
0.0029305008 0.014227399 0.017823765 0.016991684 0.017271252 0.020380965 0.025820717 0.031187138
0.037414685 0.042829737 0.046594683 0.048712865 0.04827677 0.043228474 0.034065653 0.02411181

exp_avg_sq f4 [18, 1062]
00000000: b648 be3f d5cd 3740 0db7 8740 1e7b 9440
00000010: a991 9440 d4b4 9140 cdea 8e40 7cd0 8c40
00000020: 6b8f 8b40 b7e6 8a40 e4bb 8a40 91fb 8a40
00000030: 6182 8b40 3435 8c40 51f9 8c40 4bb9 8d40
00000040: 7e70 8e40 9714 8f40 5e94 8f40 fe04 9040
00000050: 9069 9040 1bc3 9040 1c0c 9140 8764 9140
00000060: 41c7 9140 4e82 9240 3225 9340 b3e5 9340
00000070: 52e4 9440 3006 9640 0a01 9740 5dcf 9740
00000080: a5aa 9840 1c39 9940 dfa0 9940 8e1f 9a40
00000090: 2051 9a40 0575 9a40 9301 9a40 3279 9a40
000000a0: 1e8c 9a40 09df 9940 8ba0 9940 7d0b 9940
000000b0: 24dc 9840 3663 9840 1327 9840 aeb1 9740
000000c0: 8aaa 9740 6e44 9740 a4e8 9640 aeca 9640
000000d0: daae 9640 efaa 9640 04ad 9640 77ef 9c40
000000e0: 4438 8540 50a7 9840 dc13 6840 a49a 4740
000000f0: cee1 a640 4b23 a840 e9fb b140 9325 af40
00000100: 6716 ac40 49e3 a940 5262 a840 10d3 a740
00000110: 4af2 a740 3b8a a840 e74d a940 9442 aa40
00000120: ae52 ab40 6864 ac40 b469 ad40 7968 ae40
00000130: 445a af40 4c1e b040 e5c1 b040 b641 b140
00000140: 9985 b140 a5ca b140 4c1a b240 7072 b240
00000150: 11d4 b240 8357 b340 3adf b340 789b b440
00000160: c97d b540 a236 b640 38c3 b640 3740 b740
00000170: 73ba b740 ba1a b840 c01f b840 458c b840
00000180: 80b9 b840 697b b840 d7d0 b840 3812 b940
00000190: 74e8 b740 8b71 b740 6eb0 b640 bd81 b640
000001a0: f4cf b540 823c b540 1fdf b440 ba9f b440
000001b0: d706 b440 6092 b340 2a80 b340 f982 b340
000001c0: 9b8e b340 f89c b340 17ea b940 802f a640
000001d0: 0d0a a540 c920 2e40 d77e 5e40 ff48 a540
000001e0: 5f38 b540 c71a bc40 8f2f b940 c9eb b640
000001f0: 9583 b540 764c b540 eda4 b540 9a97 b640
00000200: 96e6 b740 0f99 b940 5a7f bb40 7080 bd40
00000210: af86 bf40 5976 c140 7c4c c340 5efb c440
00000220: 6661 c640 358c c740 ed80 c840 2325 c940
00000230: 01ba c940 7b39 ca40 a6af ca40 f5e1 ca40
00000240: ef3d cb40 6e68 cb40 6321 cc40 306a cc40
00000250: e676 cc40 ce3c cc40 4a86 cc40 318f cc40
00000260: e94b cc40 a298 cb40 ad82 cb40 13a4 ca40
00000270: 72dd c940 3f36 c940 0bc1 c740 2b6f c540
00000280: 6b32 c440 8ef6 c240 f0f2 c140 fedb c040
00000290: c827 c040 6094 bf40 a7e3 be40 cb03 be40
000002a0: 9857 bd40 c150 bd40 d332 bd40 1056 bd40
000002b0: 6f5b bd40 bb34 c740 0027 b840 150b b140
000002c0: 41d6 1e40 02b8 5840 a46c a840 88e0 b240
000002d0: baa4 b840 3e1a b740 fdd1 b540 88b6 b540
000002e0: e37c b640 f5da b740 1c01 ba40 719a bc40
000002f0: 525a bf40 9942 c240 c933 c540 7d1c c840
00000300: 80de ca40 a467 cd40 39c4 cf40 6bf5 d140
00000310: 5604 d440 67cb d540 534a d740 e994 d840
00000320: 01d8 d940 b7c5 da40 1814 db40 f625 db40
00000330: 008c db40 5591 db40 71ff da40 9f1d da40
00000340: 454a d940 5e6a d840 8948 d740 0bc4 d540
00000350: 04f7 d340 4c89 d240 58bd d040 ccd7 ce40
00000360: 778e cc40 e03a ca40 5fd5 c740 6c45 c640
00000370: cdde c440 48d7 c340 40ce c240 caea c140
00000380: ba5d c140 981e c040 1488 be40 83fa bd40
00000390: 649f bd40 e9b9 bd40 14b4 bd40 90b8 bd40
000003a0: d12e c840 5ea9 b340 d37d aa40 f539 2540
000003b0: f2c9 5540 6d14 a540 44ce af40 acb8 b640
000003c0: 2bc6 b640 b3f5 b640 1550 b840 2481 ba40
000003d0: 9a2e bd40 8728 c040 e050 c340 aac4 c640
000003e0: 463b ca40 21be cd40 ac3a d140 0b90 d440
000003f0: 42c8 d740 ebea da40 3bf2 dd40 aca2 e040
1.486594 2.871938 4.241095 4.640029 4.642781 4.5533237 4.466162 4.4004498
4.361257 4.3406634 4.335436 4.343209 4.3596654 4.3814945 4.405434 4.428869
4.451232 4.4712634 4.486861 4.5006094 4.512886 4.5238166 4.532728 4.5435214
4.555573 4.5784063 4.5982904 4.6217895 4.652871 4.6882553 4.718877 4.744063
4.7708306 4.7882214 4.8008876 4.816352 4.822403 4.8267846 4.812692 4.8272943
4.829604 4.808476 4.8008475 4.7826524 4.7768726 4.7621107 4.75477 4.7404394
4.7395678 4.727103 4.7158985 4.712241 4.708844 4.708366 4.70862 4.9042315
4.1631184 4.770424 3.6262121 3.1188135 5.215064 5.254308 5.5620008 5.4733367
5.3777347 5.308995 5.262002 5.2445145 5.2483263 5.266874 5.2907596 5.320627
5.3538427 5.3872566 5.419153 5.450253 5.4797688 5.5036983 5.523669 5.5392714
5.5475583 5.555987 5.56571 5.5764694 5.588387 5.6044326 5.6209993 5.643978
5.6716046 5.694169 5.7113304 5.7265887 5.74151 5.7532625 5.7538757 5.7671227
5.772644 5.7650647 5.775493 5.783474 5.7471256 5.73261 5.709037 5.703337
5.681635 5.663636 5.6522365 5.644498 5.625835 5.611618 5.609395 5.609738
5.611158 5.612911 5.8098254 5.1932983 5.157477 2.720751 3.4764917 5.1651607
5.663131 5.8782687 5.7870555 5.7162824 5.6723123 5.6655836 5.6763825 5.706006
5.7468977 5.799934 5.859296 5.9219284 5.985191 6.0456967 6.1030865 6.1556845
6.1993895 6.235865 6.265738 6.2857833 6.3039556 6.3195167 6.3339415 6.3400826
6.3513103 6.356498 6.3790755 6.3879623 6.389514 6.3824224 6.3913927 6.3924794
6.3842664 6.362382 6.3597016 6.3325286 6.308282 6.287872 6.242315 6.1698203
6.1311545 6.092597 6.0609055 6.0268545 6.004856 5.986862 5.9652896 5.937963
5.9169426 5.9161077 5.912454 5.9167557 5.9174113 6.225187 5.7547607 5.532603
2.481827 3.386231 5.263262 5.5899086 5.770108 5.7219534 5.6818833 5.6785316
5.702745 5.745478 5.8126354 5.8938527 5.9797754 6.0706296 6.1625714 6.2534776
6.3396606 6.4189014 6.492703 6.5612082 6.6255293 6.6810794 6.727823 6.7681775
6.8076177 6.836635 6.846203 6.848384 6.86084 6.8614907 6.843682 6.816116
6.790316 6.7629843 6.7276044 6.680181 6.6239033 6.57926 6.5231133 6.4638424
6.3923907 6.319687 6.2447963 6.1959743 6.1521974 6.1200294 6.087677 6.059911
6.042691 6.0037346 5.954111 5.93683 5.925707 5.928944 5.928232 5.9287796
6.255715 5.6144247 5.3278594 2.5816624 3.3404508 5.1587434 5.493929 5.710043
5.7116904 5.7174926 5.7597756 5.828264 5.9119387 6.004947 6.1036224 6.211507
6.3197355 6.429459 6.538412 6.6425834 6.7431955 6.8411765 6.935819 7.0198574

exp_avg f4 [18]
00000000: e2da 5fbd d58e 61bd 5451 fbbd 7ff2 63be
00000010: 8873 b1be 6a35 bebe 5f60 78be 85ad 3439
00000020: cc8e 52bc 26d8 43be e677 20be 5403 2cbe
00000030: 7fc1 fdbd 3133 95bd a15f 6ebd 5a24 6abd
00000040: f6d6 5abd f349 48bd
-0.054652102 -0.055067856 -0.122713715 -0.22260474 -0.34658456 -0.37150127 -0.24255513 0.00017230779
-0.012851428 -0.19125423 -0.15670738 -0.16798145 -0.12390422 -0.072851546 -0.058196668 -0.057163574
-0.05342766 -0.04889865

exp_avg_sq f4 [18]
00000000: c354 6740 ef68 c340 233f 4441 21b0 cb41
00000010: bdff 1f42 1586 6d42 be33 b142 0933 0343
00000020: c29f 0a43 213e 0e43 12b1 df42 7200 b742
00000030: 1c7d 7442 3e77 0c42 0fac 7a41 f812 e340
00000040: bb35 bc40 c00d 9040
3.6145484 6.1065593 12.265414 25.461 39.999744 59.38094 88.60106 131.19936
138.62405 142.24269 111.84584 91.50087 61.122177 35.116447 15.6670065 7.0960655
5.881559 4.5016785
