temp/idx-260-strainMatSVD-AugShift-LR1.00E-04-CV3-Ch8-net-retrain-ISBI-final.pth (torch_old, 242216 bytes, 21 tensors)

layers.0.weight f4 [8, 1, 3, 3]
0	0x3e6f61a9	0.23377098
1	0x3f0fb3d8	0.56133795
2	0x3f074ac4	0.5284846
3	0x3e56e8ec	0.2098729
4	0x3ecf39ac	0.40473688
5	0x3f02417e	0.50881183
6	0x3ef99947	0.48749754
7	0x3e84034b	0.25783762
8	0x3f004fcd	0.50121766
9	0x3f00331b	0.5007798
10	0x3efb56f0	0.49089766
11	0x3ecb3245	0.3968679
12	0x3f0f9ebf	0.561016
13	0x3f07c4f2	0.5303489
14	0x3edecca2	0.43515497
15	0x3e4071e3	0.18793444
16	0x3f0eba50	0.5575304
17	0x3efb293a	0.4905489
18	0x2f820eea	2.365746e-10
19	0xa20b9d4f	-1.8921291e-18
20	0x25124d91	1.2689762e-16
21	0xb0cb0c43	-1.4773679e-09
22	0xbc1d9ba6	-0.009619629
23	0xba9999af	-0.0011718775
24	0xbc6d80a5	-0.014496003
25	0x2e5017ee	4.731498e-11
26	0x3b7f5bdc	0.0038964665
27	0xbeb7cc38	-0.35897994
28	0xbd918077	-0.07104581
29	0x3dcdd160	0.10049701
30	0xbe2509b1	-0.16116978
31	0xbed1a7ad	-0.4094824
32	0x3d9f3fea	0.077758625
33	0xbe506556	-0.20351157
34	0xbe49f965	-0.19724043
35	0xbe84dbae	-0.25948852
36	0xbbb11549	-0.0054041487
37	0x0004aabe	4.28593e-40
38	0xbb387a29	-0.0028148985
39	0xb8076830	-3.228354e-05
40	0x8002a488	-2.42694e-40
41	0x800052eb	-2.9745e-41
42	0x13cb88c4	5.1379266e-27
43	0x800661fb	-5.86162e-40
44	0x3ac8d50c	0.0015322282
45	0xbc617d51	-0.013762788
46	0x3d1261fe	0.035737984
47	0xbc6b9837	-0.014379553
48	0xbe859adb	-0.26094708
49	0xbe445925	-0.19174631
50	0xbe989d25	-0.29807392
51	0x3e508e89	0.20366873
52	0x3def6183	0.11688521
53	0x3d9eb71b	0.07749768
54	0xbd871075	-0.06594936
55	0x3dbdf8f5	0.092760004
56	0xbdcbbb4b	-0.09947833
57	0xbe00d989	-0.12582983
58	0xbe782bb9	-0.24235429
59	0xbdcdd8e4	-0.10051134
60	0x3e1605bd	0.14650626
61	0x3dc32060	0.095276594
62	0x3d9e817d	0.07739542
63	0xbe8744e4	-0.26419747
64	0xbeb1c183	-0.3471795
65	0x3d962afd	0.07332418
66	0xbeb2b378	-0.3490255
67	0xbe0b0b55	-0.13578542
68	0xbdca75a2	-0.09885718
69	0xbe078cc2	-0.13237289
70	0xbdff8a50	-0.12477553
71	0x3dd31250	0.10306227

layers.0.bias f4 [8]
0	0x3c36f1b6	0.011166027
1	0x3c95132d	0.01819762
2	0xbd265122	-0.040604718
3	0x3e469b98	0.19395292
4	0xbb528751	-0.0032124112
5	0x3e628b41	0.22123434
6	0x3ed06c70	0.4070773
7	0x3db9bba3	0.09068992

layers.2.weight f4 [8, 8, 3, 3]
0	0x3e7d74b0	0.24751544
1	0x3eb6f467	0.3573334
2	0x3ef2af9c	0.47399604
3	0x3ee16f01	0.44030002
4	0x3f106f86	0.5642017
5	0x3efeae10	0.49742174
6	0x3ed0b685	0.4076425
7	0x3ed55921	0.41669562
8	0x3e3dd1a8	0.18537009
9	0x3f09ff8c	0.5390556
10	0x3ee5ebc2	0.4490643
11	0x3ee5982f	0.4484267
12	0x3ef5e4d1	0.48026136
13	0x3ee1c0a8	0.44092298
14	0x3ef51d7e	0.47874063
15	0x3ea4e6c0	0.32207298
16	0x3f03dc2b	0.51507825
17	0x3ef9d597	0.4879577
18	0x80060e4c	-5.56142e-40
19	0x3bd6f2a7	0.006559688
20	0x3b3dbcb8	0.0028951596
21	0x37810227	1.5379e-05
22	0x3b91057b	0.004425702
23	0x80073fc8	-6.65729e-40
24	0x80071120	-6.48992e-40
25	0x800649b1	-5.77448e-40
26	0x800651cf	-5.8036e-40
27	0xbdd34ccd	-0.10317383
28	0xbdee9f19	-0.11651439
29	0xbd035298	-0.03206119
30	0xbe41dc5e	-0.1893172
31	0x3d30ecea	0.04319469
32	0x3deefdf8	0.116695344
33	0xbe5f4967	-0.21805345
34	0xbe576f65	-0.21038587
35	0xbe31f528	-0.17378676
36	0x37068302	8.017525e-06
37	0xb767537f	-1.3788113e-05
38	0x38357b42	4.3268556e-05
39	0xb95aab2f	-0.00020853871
40	0xbba75816	-0.005106936
41	0x326d62b1	1.38176555e-08
42	0xb7736ff4	-1.4509995e-05
43	0x3b3ca442	0.0028784429
44	0x00062f91	5.68077e-40
45	0xbe2c4a2a	-0.16825166
46	0x3e0ed416	0.13948092
47	0x3d32b325	0.043627877
48	0xbe17ce5a	-0.1482481
49	0x3e1fbc61	0.15599205
50	0xbdd72d20	-0.10506654
51	0x3bc4adab	0.006002148
52	0xbd8dd60d	-0.069255926
53	0xbccf7229	-0.02532299
54	0x3ded4722	0.11585833
55	0x3da74ea3	0.08169296
56	0x3ce107b5	0.027469495
57	0x3de31bdc	0.11089298
58	0xbb0c38d0	-0.0021396168
59	0x3e158a26	0.1460348
60	0xbd582d65	-0.052777667
61	0x3d53befb	0.051695805
62	0x3e3370f4	0.17523557
63	0xbbc1fa64	-0.0059197415
64	0xbe80fa02	-0.2519074
65	0xbd5c2c13	-0.05375297
66	0xbd5f8e8b	-0.0545793
67	0xbe33dee6	-0.17565498
68	0xbd980215	-0.07422272
69	0xbde63323	-0.11240222
70	0xbe374b6b	-0.17899863
71	0xbceeb4a9	-0.02913888
72	0xbebf44b6	-0.3735711
73	0xbedd6962	-0.43244463
74	0xbe40bdd3	-0.18822412
75	0xbe8fcc99	-0.28085783
76	0xbebad8f3	-0.36493644
77	0xbe87e492	-0.26541573
78	0xbec5d105	-0.38636032
79	0xbe78613d	-0.24255843
80	0xbe9c51e8	-0.3053124
81	0xbf00c2d8	-0.5029731
82	0xbeb82168	-0.35962987
83	0xbe37f711	-0.17965342
84	0xbeb69476	-0.35660142
85	0xbec293e8	-0.3800347
86	0xbeac5306	-0.33657092
87	0xbeca07a2	-0.39458948
88	0xbef11dd9	-0.47093084
89	0xbe080e3b	-0.13286678
90	0x308d5bd8	1.0285204e-09
91	0x8003a2e0	-3.33935e-40
92	0xb4715338	-2.2475149e-07
93	0xb81a2fd8	-3.676102e-05
94	0x3528aec9	6.2839223e-07
95	0x19031cf3	6.7783875e-24
96	0x3928aebf	0.00016086827
97	0xb91fe352	-0.00015248105
98	0x39ccf4f0	0.00039092405
99	0x3e6860b5	0.22693141
100	0x3e2408f4	0.1601904
101	0xba57a211	-0.0008225749
102	0x3dbbb02b	0.09164461
103	0x3e593e95	0.2121528
104	0x3e81aa48	0.25325227
105	0x3e4af9fe	0.19821927
106	0x3dbba2ff	0.091619484
107	0xbd341627	-0.04396644
108	0x00061cfd	5.61412e-40
109	0xacf3252e	-6.910603e-12
110	0xbb137f85	-0.0022506427
111	0x39585509	0.00020631043
112	0x00062aff	5.66437e-40
113	0xbc279b97	-0.010229967
114	0x3c25cb63	0.010119292
115	0xb96dab4c	-0.00022665894
116	0x385c0015	5.2452164e-05
117	0x3badd7d6	0.0053052707
118	0x3e3391fe	0.1753616
119	0x3e023ab1	0.12717701
120	0x3dabba67	0.08385163
121	0x3db7ac73	0.08968439
122	0x3c3a7350	0.011380032
123	0xbdc7ab89	-0.097495146
124	0x3e61be36	0.22045216
125	0x3c9c10ca	0.019050974
126	0xbdd9044f	-0.10596525
127	0x3ddbad72	0.107264414
128	0x3e029d65	0.12755354
129	0x3dc55679	0.09635634
130	0x3dea00ea	0.114259556
131	0x3e16b8dd	0.14718957
132	0xbda22e5f	-0.07919001
133	0x3964b8d7	0.00021812633
134	0x3e16859a	0.14699402
135	0x3eb1c43e	0.34720033
136	0x3e5e2147	0.21692382
137	0x3e30c20b	0.17261522
138	0x3df5b0c0	0.11996603
139	0x3e823520	0.25431156
140	0x3eabb389	0.33535412
141	0x3e90a653	0.28251895
142	0x3e2fcb23	0.17167334
143	0x3e7bb661	0.24581291
144	0x3f05a971	0.5221167
145	0x3ee45a35	0.44600073
146	0x3ed4dc20	0.41574192
147	0x3ef45557	0.4772136
148	0x3eb3b72f	0.35100695
149	0x3e1481c7	0.14502631
150	0x3e5bac8c	0.2145254
151	0x3e0a70c9	0.13519587
152	0x3eb1d795	0.3473479
153	0x3f020a96	0.507974
154	0x3f0c76fc	0.54869056
155	0x3ea5b0cf	0.32361457
156	0x3e93925a	0.28822595
157	0x3ec7b3ea	0.3900445
158	0x3e59b9b9	0.21262254
159	0x3ee30a2c	0.44343698
160	0x3e7fd53b	0.24983685
161	0x3ebbf2e1	0.3670874
162	0x32235dc8	9.509172e-09
163	0x3b9457cb	0.0045270673
164	0x80066a16	-5.8907e-40
165	0xb28e07d1	-1.653453e-08
166	0x341d0fa6	1.4627457e-07
167	0xb82a575c	-4.061252e-05
168	0x3c1ebec3	0.009689036
169	0x39a85416	0.00032106106
170	0x3c30e64f	0.010797097
171	0x3d26d7e2	0.040733226
172	0x3db3d043	0.08779957
173	0xbe296f38	-0.16546333
174	0xbd295e58	-0.04134974
175	0xbe1d1cab	-0.15342967
176	0xbe2ddb6f	-0.16978239
177	0xbd91f42f	-0.071266524
178	0xbde732a7	-0.11288958
179	0x3e6a6f8d	0.22894116
180	0xbb6275c1	-0.003455505
181	0x3b0c2d17	0.002138918
182	0x1ee25620	2.3964301e-20
183	0x3ab2e3ee	0.0013648251
184	0x3b2da5c0	0.00264965
185	0xb9b70c6f	-0.00034913744
186	0xbbfec0a3	-0.007774429
187	0xb76aa17a	-1.3985084e-05
188	0x0005d807	5.36673e-40
189	0x3dc29cae	0.095025405
190	0x3e1a09db	0.15042822
191	0xbe14e72a	-0.14541307
192	0x3c42ecb4	0.011897255
193	0x3d4156c9	0.047201905
194	0x3d2a8888	0.041634113
195	0x3df4ec8c	0.1195918
196	0xbcb2df77	-0.021835072
197	0x3df5fe8e	0.12011443
198	0xbd8fcaee	-0.07021128
199	0x3e204c54	0.15654117
200	0x3e069305	0.13142021
201	0x3e0e434f	0.13892864
202	0x3e18f8e5	0.14938696
203	0x3be6bd0c	0.007041579
204	0xbde9fc45	-0.1142507
205	0x3d063139	0.032761786
206	0xbbc672a0	-0.006056145
207	0xbe620919	-0.22073783
208	0xbe3c1e0c	-0.18370837
209	0xbcb31d2e	-0.0218645
210	0xbe424b25	-0.18973978
211	0xbe240c14	-0.16020232
212	0xbe65593b	-0.2239732
213	0x3d5a000a	0.053222694
214	0xbe39b7c2	-0.18136504
215	0xbd3118a5	-0.043236393
216	0xbe96ea88	-0.29475808
217	0xbee1b42d	-0.44082776
218	0xbee425c1	-0.44560054
219	0xbeec308e	-0.46130794
220	0xbe8c284a	-0.27374488
221	0xbeb2a04a	-0.34887916
222	0xbd197886	-0.037468456
223	0xbee7b125	-0.45252338
224	0xbddcdd1b	-0.1078436
225	0xbe50111c	-0.20319027
226	0xbe55b84c	-0.20871085
227	0xbebbf1f0	-0.3670802
228	0xbf020dbd	-0.5080221
229	0xbf0d2bf0	-0.5514517
230	0xbe817a73	-0.25288734
231	0xbe8f33d4	-0.2796923
232	0xbed0653e	-0.40702242
233	0xbe61d713	-0.220547
234	0xbb5304ad	-0.0032198832
235	0x38b27cb7	8.5109314e-05
236	0x3a74e831	0.00093424605
237	0x38232416	3.8895836e-05
238	0x3981ca0f	0.00024755343
239	0xac6420d4	-3.2418972e-12
240	0x3bdfedce	0.0068337684
241	0x3ad5ee96	0.0016321715
242	0x309179f9	1.0584805e-09
243	0xbd34f674	-0.04418035
244	0x3e9325b4	0.28739703
245	0x3b8a943e	0.0042290976
246	0xbdeef771	-0.116682895
247	0x3e502654	0.20327121
248	0xbd833b38	-0.064077795
249	0xbd901723	-0.07035663
250	0xbd9bfe64	-0.076168805
251	0xbde72233	-0.1128582
252	0xac671af5	-3.2842039e-12
253	0x80026900	-2.21338e-40
254	0xbc3af9a1	-0.011412055
255	0xbaddf8ac	-0.0016935072

layers.2.bias f4 [8]
0	0x3ad767cb	0.0016434131
1	0x3e3f31d9	0.18671359
2	0xbda7b00a	-0.08187874
3	0x3daa9e21	0.08330942
4	0x3dce322f	0.100681655
5	0xbdbac5de	-0.091197714
6	0x3e2fdbbb	0.17173664
7	0xbd5bb4a3	-0.053639065

layers.4.weight f4 [1, 8, 3, 3]
0	0xbed39d62	-0.4133101
1	0xbeeaae29	-0.45836
2	0xbe189b02	-0.14902881
3	0x3d45a0f9	0.04824922
4	0xbe2a2c3e	-0.1661844
5	0xbe705636	-0.23470387
6	0xbe6df2a5	-0.23237093
7	0xbe9f01fc	-0.310562
8	0xbcdff975	-0.02734063
9	0x3dc6b620	0.09702706
10	0x3ea44e3e	0.32090944
11	0x3e447f49	0.1918918
12	0x3ea78a92	0.32722908
13	0x3e0c28a8	0.13687384
14	0x3e809a5c	0.25117767
15	0xbcb7757e	-0.022394892
16	0xbdfc34cb	-0.12314757
17	0x3e9deb6b	0.30843672
18	0xbe8fbdf6	-0.28074616
19	0xbf04dc06	-0.5189823
20	0xbd8d0a55	-0.06886736
21	0xbeed78ed	-0.46381322
22	0xbea7823a	-0.32716542
23	0xbe8b1e28	-0.27171445
24	0xbef18c0a	-0.47177154
25	0xbef7327d	-0.48280707
26	0xbeae71cb	-0.34071192
27	0xbd2e472b	-0.04254834
28	0x3e1b5bcf	0.15171741
29	0xbdcb7934	-0.09935227
30	0x3d8088b7	0.06276076
31	0x3eaa9fe5	0.33325115
32	0xbdbc0eb1	-0.0918249
33	0x3ec0f848	0.37689424
34	0x3eba80f6	0.36426514
35	0xbc47822c	-0.0121770315
36	0x3e61a72f	0.22036432
37	0xbd4747da	-0.048652507
38	0x3df0980f	0.11747753
39	0x3d059d91	0.03262097
40	0x3eb9cfa5	0.36291233
41	0x3e492d23	0.19646125
42	0x3ec03904	0.375435
43	0xbe140246	-0.14453992
44	0x3e366249	0.1781093
45	0x3cb219b7	0.021740777
46	0xba99d17d	-0.0011735406
47	0x3b78b1db	0.0037947807
48	0x3d116fde	0.035507075
49	0xbe24beb7	-0.16088377
50	0x3bb3738e	0.0054764217
51	0xbe53b107	-0.20673
52	0xbe19d2a9	-0.15021767
53	0x3cbf0e73	0.02332232
54	0x3e30bddd	0.17259927
55	0x3e1df038	0.15423667
56	0x3e0bf701	0.13668443
57	0x3e7a13bd	0.24421592
58	0x3c85108a	0.016243238
59	0xbdb68757	-0.08912533
60	0xbe2ed652	-0.17073944
61	0x3e7cf9ef	0.24704717
62	0x3e38ac9d	0.18034597
63	0xbe570257	-0.20996986
64	0xbe413cc8	-0.18870842
65	0xbe93a34b	-0.2883552
66	0xbed828b6	-0.4221856
67	0xbed108ed	-0.40827122
68	0xbe985f14	-0.2976004
69	0xbedec614	-0.43510497
70	0xbee4b3e9	-0.4466851
71	0xbe980df7	-0.29698154

layers.7.weight f4 [18, 1062]
0	0xbe05f7cc	-0.13082808
1	0xbe2eb806	-0.17062387
2	0xbe428af1	-0.18998314
3	0xbe512254	-0.20423251
4	0xbe10d521	-0.14143802
5	0xbe867667	-0.2626221
6	0xbe3c1936	-0.18368992
7	0xbe45d19d	-0.19318242
8	0xbdfcf5d4	-0.123515755
9	0xbd9fdc94	-0.07805744
10	0xbc90f3c3	-0.01769436
11	0xbd911c5d	-0.07085488
12	0x3d99b9b2	0.07506122
13	0x3dca0650	0.09864485
14	0x3ae3fe9e	0.0017394607
15	0xbc3cf41d	-0.0115328105
16	0x3bee0c21	0.0072646295
17	0xbc0c95f4	-0.0085806735
18	0x3cdb9172	0.026802752
19	0x3db5ac37	0.08870738
20	0xbca153bc	-0.019693248
21	0x3d69cce3	0.05708016
22	0xbbc0a757	-0.0058793235
23	0x3abeacee	0.0014547387
24	0x3db2a847	0.087235026
25	0x3a393370	0.0007064855
26	0x3d1f3e13	0.038877558
27	0x3d9e883a	0.07740827
28	0xbc2b99d0	-0.0104736835
29	0x3dbcc6fc	0.09217641
30	0x3de8e4a5	0.113717355
31	0x3e132053	0.143678
32	0x3db99d33	0.090631865
33	0x3d9b9d6c	0.07598385
34	0x3dd052f7	0.10172074
35	0x3dc076eb	0.09397682
36	0x3d0e32ed	0.034716535
37	0xbcb911a8	-0.022591427
38	0xbd5e4da8	-0.054273278
39	0xbcce404c	-0.025177144
40	0xbd10344e	-0.03520613
41	0x3d1f613c	0.03891109
42	0x3c87dddd	0.016585285
43	0xbdb51c9e	-0.08843349
44	0x3d701c82	0.058620937
45	0xbcadec6a	-0.021230895
46	0x3d45e913	0.04831798
47	0x3b197327	0.0023414583
48	0x3dbc7563	0.09202077
49	0xbd3e832a	-0.046511807
50	0x3d5bc613	0.053655695
51	0x3bb67c9f	0.005569055
52	0xbd2692ec	-0.04066746
53	0xbd70262f	-0.058630165
54	0x3d0602f9	0.03271768
55	0xbd780493	-0.060551237
56	0xb9e1ecc4	-0.00043091748
57	0xbcf256ee	-0.029582467
58	0x3d95ab32	0.073080435
59	0xbe41433c	-0.18873304
60	0xbe7829fc	-0.24234766
61	0xbe598758	-0.21243036
62	0xbe27eac1	-0.16398145
63	0xbe59ef76	-0.21282753
64	0xbe6858c5	-0.22690113
65	0xbe059eef	-0.1304891
66	0xbe3282af	-0.17432664
67	0xbda8ac94	-0.08236042
68	0xbdf5a655	-0.11994616
69	0x3d2cb5c6	0.04216554
70	0xbc6a7fbd	-0.014312682
71	0xbd1affcf	-0.037841614
72	0x3d1636ac	0.036673233
73	0xbc3cdc10	-0.011527076
74	0x3d6f9ad2	0.058497258
75	0x3ced9965	0.029003808
76	0x3d582862	0.052772887
77	0x3a5c97f4	0.0008414977
78	0xbbfc1253	-0.007692614
79	0x3bc2d49d	0.0059457556
80	0x3dcdba13	0.100452565
81	0x3e0423c7	0.12904273
82	0x3bdeb365	0.006796288
83	0x3d8ac60e	0.06776057
84	0x3c95c0cb	0.018280407
85	0x3d33ef28	0.04392925
86	0x3cf98e78	0.030463442
87	0x3dae4c9d	0.085107066
88	0x3d6d2f4d	0.057906438
89	0x3dd2933a	0.102819875
90	0x3dbcac94	0.09212604
91	0x3dc3676c	0.095412105
92	0x3d825569	0.06363947
93	0xbba12fd0	-0.00491903
94	0x3dc778bd	0.09739826
95	0x3d3a60d5	0.045502502
96	0xbd226bc9	-0.039653573
97	0x3bcf4f13	0.006326565
98	0xbd6ab6af	-0.057303127
99	0xbcef5fc1	-0.029220464
100	0xbd676a35	-0.05649777
101	0xbd9027a6	-0.07038812
102	0x3d2f3e1b	0.042783838
103	0xbd3c45ea	-0.045965113
104	0xbbb57141	-0.0055371826
105	0x3da92452	0.08258881
106	0x3d7e7bf6	0.062129937
107	0x3cda4336	0.026643377
108	0x3d37e2b3	0.04489393
109	0x3d15b2a6	0.036547326
110	0x3d09196f	0.03347152
111	0x3d995161	0.07486225
112	0xbd1cdfbb	-0.038299304
113	0x3da95016	0.08267228
114	0x3cc7cefc	0.02439069
115	0xbd333826	-0.04375472
116	0x3bcdf155	0.0062848725
117	0xbd643743	-0.055716764
118	0xbe182d12	-0.14860943
119	0xbe4e8cf8	-0.20170963
120	0xbe12f9d6	-0.14353117
121	0xbdc959ed	-0.09831605
122	0xbe60d188	-0.2195493
123	0xbe39186f	-0.18075727
124	0xbe3a05eb	-0.1816632
125	0xbddb7b24	-0.107168466
126	0xbde51398	-0.11185378
127	0x39e4d4b4	0.00043646025
128	0x3d42cf4d	0.04756098
129	0x3d2ce46f	0.04221004
130	0x3dab80a4	0.083741456
131	0x3c89a573	0.016802525
132	0x3e065cab	0.13121288
133	0xbb4f387c	-0.003161936
134	0xbc86a58c	-0.01643636
135	0x3ca3ed62	0.020010654
136	0x3c4fbf18	0.012679838
137	0x3b844c7a	0.004037437
138	0x3c949c47	0.018140925
139	0x3dd9a46f	0.10627066
140	0x3c5df648	0.013547488
141	0x3dd52c9c	0.10408899
142	0xbb233111	-0.0024901072
143	0x3db36203	0.087589286
144	0xbcb4d2c6	-0.02207316
145	0x3d813a12	0.06309904
146	0x3d01b0a9	0.031662617
147	0x3c812c89	0.015768306
148	0x3da63930	0.081163764
149	0x3e0af84e	0.13571283
150	0x3b817680	0.003950894
151	0x3dbe4a96	0.0929157
152	0x3dfc5fe8	0.1232298
153	0x3d0c679e	0.034278505
154	0xbd36bed0	-0.044615567
155	0x3d86922f	0.06570851
156	0xbcaa8454	-0.020815052
157	0xbd8608e1	-0.06544662
158	0xbd374eab	-0.044752758
159	0x3c7b7ad7	0.0153491115
160	0xbc5bd53e	-0.01341754
161	0xbd5f2626	-0.05447974
162	0x3cab407f	0.020904778
163	0xbc5d80e1	-0.013519497
164	0x3ce9a581	0.028521301
165	0x3d84eb7c	0.064902276
166	0x3df36634	0.11884728
167	0xbc685427	-0.01418022
168	0xbc6bdb0d	-0.0143954875
169	0x37e2c240	2.7031754e-05
170	0x3d1a5df5	0.03768726
171	0x3dc3fe3f	0.09569978
172	0x3d372d3d	0.044720877
173	0xbd2e2d37	-0.04252359
174	0xbb79f6f4	-0.003814158
175	0x3c104362	0.008805128
176	0xbbc9dbfa	-0.0061602565
177	0xbdc97e1d	-0.09838507
178	0xbd676dfe	-0.05650138
179	0xbd9f760e	-0.07786189
180	0xbd351983	-0.044213783
181	0xbe0b2b9e	-0.13590857
182	0xbde491d6	-0.111606285
183	0xbd192863	-0.03739203
184	0xbc4848e5	-0.012224411
185	0xbe05bbd5	-0.13059933
186	0xbd8b5817	-0.06803911
187	0x3d7406e8	0.0595769
188	0x3dafdc70	0.08586967
189	0x3e092421	0.13392688
190	0x3d15d51a	0.036580183
191	0x3dd606a2	0.10450484
192	0x3ac9924e	0.0015378685
193	0x3dae925b	0.08524009
194	0x3d8f46f5	0.06995956
195	0x3d5ab2dd	0.053393234
196	0x3bf62eb0	0.00751289
197	0x3c510d5d	0.012759534
198	0x3db3aa0b	0.087726675
199	0x3d8abc73	0.06774225
200	0x3d2e6063	0.04257239
201	0x3d20535c	0.039141998
202	0x3d810a79	0.063008256
203	0x3cea7e24	0.028624602
204	0x3ceef92f	0.029171554
205	0xbd1d1306	-0.03834822
206	0xbcaa2eaa	-0.020774204
207	0x3d3834dd	0.04497229
208	0x3d863fbc	0.06555125
209	0x3da48b5a	0.08034392
210	0xbc53092c	-0.012880605
211	0x3d84b2bd	0.06479404
212	0x3b1c818f	0.0023880934
213	0x3d8baa59	0.068196006
214	0xbd358100	-0.044312477
215	0xbcf0715a	-0.029350925
216	0xbdccfa4d	-0.100086786
217	0x3c60835d	0.013703194
218	0xbdbacfea	-0.09121688
219	0xbcbc0e13	-0.02295593
220	0x3c830f26	0.015998434
221	0xbd254590	-0.040349543
222	0x3c4ac16a	0.012375215
223	0x3dd6cb04	0.10487941
224	0x3d249e23	0.040189873
225	0x3e132bba	0.14372149
226	0x3dcb65f8	0.09931558
227	0x3dd67046	0.10470633
228	0x3e00a477	0.12562738
229	0x3cc385aa	0.023867447
230	0xbc35b6da	-0.0110909585
231	0x3d0c6314	0.034274176
232	0x3c99b061	0.018760862
233	0xbceb6894	-0.02873639
234	0x3da57047	0.08078056
235	0x3ce42835	0.027851203
236	0xbc27e843	-0.010248247
237	0x3d0d7b41	0.034541372
238	0x3d0ba397	0.03409156
239	0xbc2a8853	-0.010408479
240	0xbc3e8247	-0.01162774
241	0xbd587d60	-0.052853942
242	0xbd0a1502	-0.03371144
243	0x3c6eef4f	0.014583423
244	0xb893c5ef	-7.046374e-05
245	0xbd9df5f7	-0.0771293
246	0xbcd2b764	-0.025722213
247	0x3d673012	0.056442328
248	0x3d1ac928	0.037789494
249	0x3ddcea5f	0.1078689
250	0x3dc8025e	0.097660765
251	0x3cea08d0	0.028568655
252	0x3db568df	0.08857893
253	0x3dcca53b	0.09992453
254	0x3df174ad	0.11789832
255	0x3d9b74c4	0.07590631

layers.7.bias f4 [18]
0	0x3c4736d4	0.012159068
1	0x3d4ad71d	0.049521554
2	0x3cfba7be	0.030719634
3	0x3c4d94e6	0.012547707
4	0x3ba388f2	0.0049906904
5	0x3c917bf5	0.017759303
6	0x3d681cab	0.056667965
7	0x3d3125c7	0.043248918
8	0x3cdf7b77	0.027280552
9	0x3d3a6ad5	0.04551204
10	0x3c342205	0.010994439
11	0x3ccd162a	0.025034983
12	0x3d4f5dc5	0.050626535
13	0x3d30b64c	0.0431426
14	0x3d07913b	0.033097487
15	0x3bbcd70f	0.0057629417
16	0x3c2be441	0.010491432
17	0x3c1d6d78	0.009608619

exp_avg f4 [8, 1, 3, 3]
0	0xc20a6204	-34.59572
1	0xc1f76cea	-30.92818
2	0xc1955b09	-18.66945
3	0xc1b88caa	-23.068684
4	0xc1ba9ee2	-23.32758
5	0xc1428c92	-12.159319
6	0xc1a93a91	-21.153597
7	0xc199efbd	-19.24206
8	0xc0c93010	-6.287117
9	0xc20fa7e4	-35.913956
10	0xc1f3d36c	-30.478233
11	0xc17381de	-15.219206
12	0xc1d352f3	-26.415503
13	0xc1c2b870	-24.340057
14	0xc117ebdd	-9.495084
15	0xc1c07847	-24.05873
16	0xc1a1a192	-20.203892
17	0xc09e10ca	-4.9395494
18	0x2744a942	2.729222e-15
19	0x99fa492b	-2.5878946e-23
20	0x1cfb21bc	1.6618507e-21
21	0xa89753aa	-1.6800651e-14
22	0xb3d254e4	-9.7943285e-08
23	0xb24fb954	-1.20911245e-08
24	0xb41e175c	-1.4723395e-07
25	0x261f5e3f	5.5291934e-16
26	0x332b582f	3.9894243e-08
27	0x418b7960	17.434265
28	0x416fb0d5	14.980672
29	0x40f27de4	7.5778675
30	0x41cc0843	25.504034
31	0x41ba9db7	23.32701
32	0x417239e2	15.139132
33	0x416c933b	14.785945
34	0x414df9ba	12.873468
35	0x40b1d349	5.5570416
36	0xb36d286c	-5.5217626e-08
37	0x00000004	6e-45
38	0xb2f813a6	-2.8879935e-08
39	0xafbb9756	-3.4122632e-10
40	0x00000004	6e-45
41	0x80000004	-6e-45
42	0x0bfe8ea7	9.805188e-32
43	0x80000004	-6e-45
44	0x32879037	1.578165e-08
45	0x41574bd5	13.456014
46	0x414d0be2	12.815401
47	0x410b9ba2	8.725496
48	0x4157f7c8	13.497993
49	0x41575596	13.458395
50	0x411b8af2	9.721422
51	0x3ff5e516	1.9210536
52	0x4013f4d9	2.3118193
53	0xbea2d2ec	-0.31801546
54	0x4120be33	10.046435
55	0x410d5dc0	8.835388
56	0x40b576ea	5.670766
57	0x412ba09c	10.726711
58	0x411d50bf	9.832213
59	0x40de99da	6.9562807
60	0x3fcdb474	1.6070695
61	0x3fb1b959	1.3884689
62	0xbee6ec77	-0.45102283
63	0x421771c2	37.86109
64	0x41f81cc4	31.014046
65	0x41766efe	15.402098
66	0x4238e088	46.21927
67	0x4221924e	40.392876
68	0x41bf9ea0	23.952454
69	0x4190a36e	18.0798
70	0x4158b7d7	13.544883
71	0xbf15eb16	-0.5856184

exp_avg_sq f4 [8, 1, 3, 3]
0	0x44c9b3df	1613.621
1	0x44a7b139	1341.5382
2	0x443f0422	764.0646
3	0x4499a935	1229.2877
4	0x448d0047	1128.0087
5	0x4431a4bf	710.57416
6	0x445ce311	883.5479
7	0x4453cee0	847.2324
8	0x4405588b	533.3835
9	0x44ba423b	1490.0697
10	0x4493171b	1176.722
11	0x4411bb81	582.92975
12	0x44619552	902.3331
13	0x4442c9da	779.15393
14	0x43b8639b	368.77817
15	0x44515fa8	837.4946
16	0x44443716	784.8607
17	0x43e24938	452.57202
18	0x27c204fd	5.3851225e-15
19	0x26d32990	1.4652332e-15
20	0x2703ca5a	1.8289597e-15
21	0x27eb72ac	6.534993e-15
22	0x2aa75a14	2.9727663e-13
23	0x29e01fbe	9.953105e-14
24	0x2adf580a	3.9673847e-13
25	0x27a60d4c	4.608867e-15
26	0x2a43ecdf	1.740166e-13
27	0x45970e40	4833.7812
28	0x459a8b85	4945.44
29	0x4596fcb5	4831.5884
30	0x45a64052	5320.04
31	0x45ad7f35	5551.901
32	0x45aa92cd	5458.35
33	0x4563e018	3646.0059
34	0x456c98c1	3785.547
35	0x456aa304	3754.1885
36	0x2a6a8c49	2.0832046e-13
37	0x23b4ee80	1.9616648e-17
38	0x2a2602e2	1.4744762e-13
39	0x2912240c	3.2449778e-14
40	0x1f614993	4.7706462e-20
41	0x20956f78	2.5315346e-19
42	0x264bf885	7.076658e-16
43	0x24e18f6b	9.7821155e-17
44	0x29fae9fa	1.1142819e-13
45	0x4497382f	1209.7557
46	0x4496c8fa	1206.2805
47	0x448f5057	1146.5106
48	0x449863c9	1219.1183
49	0x44974928	1210.2861
50	0x448f848e	1148.1423
51	0x44815428	1034.6299
52	0x447379f7	973.9057
53	0x446504fc	916.0779
54	0x44a37aa0	1307.832
55	0x44a0b24c	1285.5718
56	0x4498fc76	1223.8894
57	0x449cb85f	1253.7616
58	0x449a3b59	1233.8546
59	0x4492f4c9	1175.6495
60	0x4483fe8f	1055.955
61	0x4478a8f9	994.6402
62	0x446a1082	936.25793
63	0x467c6712	16153.768
64	0x4682107c	16648.242
65	0x467fd4b1	16373.173
66	0x4680c180	16480.75
67	0x46867613	17211.037
68	0x4684c574	16994.727
69	0x462ef4a8	11197.164
70	0x46310255	11328.583
71	0x462e2872	11146.111

exp_avg f4 [8]
0	0x43231f7b	163.12297
1	0x42b24a6d	89.14536
2	0xb4dbf3fe	-4.0969456e-07
3	0xc2b9c93a	-92.89302
4	0xb30d1707	-3.2850064e-08
5	0xc2c46b11	-98.209114
6	0xc2c12681	-96.5752
7	0xc32dbce5	-173.73787

exp_avg_sq f4 [8]
0	0x498b2bc1	1.1400881e+06
1	0x493c42d3	771117.2
2	0x2b8889fe	9.701682e-13
3	0x4929abc0	694972.0
4	0x2a31167d	1.572856e-13
5	0x47af3b48	89718.56
6	0x480397cc	134751.19
7	0x49e5451e	1.8781798e+06

exp_avg f4 [8, 8, 3, 3]
0	0xc08679aa	-4.2023516
1	0xc06afe28	-3.6717625
2	0xbfce2090	-1.6103687
3	0xc0c36150	-6.105629
4	0xc0af660c	-5.481207
5	0xc03a757c	-2.9134207
6	0xc0a61c1b	-5.190931
7	0xc09a9a61	-4.831345
8	0xc01675e7	-2.3509462
9	0xc09b60d6	-4.855571
10	0xc08cdaca	-4.4017076
11	0xbff21f03	-1.8915714
12	0xc0e58329	-7.1722608
13	0xc0d480eb	-6.640737
14	0xc06679e7	-3.6011903
15	0xc0ba17f1	-5.8154225
16	0xc0b89ff1	-5.769524
17	0xc0401940	-3.0015411
18	0x00000004	6e-45
19	0x338fc307	6.694432e-08
20	0x32ff1af0	2.9698157e-08
21	0x2f33a62b	1.633899e-10
22	0x3342764b	4.527673e-08
23	0x00000001	1e-45
24	0x80000002	-3e-45
25	0x00000004	6e-45
26	0x00000004	6e-45
27	0x3fe76fcf	1.8080996
28	0x400e1f64	2.220666
29	0x3fa218fe	1.2663877
30	0x3f95b5cc	1.1696105
31	0x3fe461e0	1.7842369
32	0x3f742c5a	0.95380175
33	0xbe75a4d0	-0.23988652
34	0x3def5fc3	0.11688187
35	0xbf31e820	-0.6949482
36	0x2ebc2afd	8.5568864e-11
37	0xaf213017	-1.465995e-10
38	0x2ffaeaea	4.5641652e-10
39	0xb1158f3d	-2.1763775e-09
40	0xb36031be	-5.2199304e-08
41	0x2a2deba2	1.5447238e-13
42	0xaf29910a	-1.5421989e-10
43	0x32fda440	2.9527769e-08
44	0x00000004	6e-45
45	0xbf5bcbcb	-0.8585784
46	0xbf69dcc0	-0.9135246
47	0xbfabd7d4	-1.342524
48	0xbf54dabc	-0.8314626
49	0xbf140026	-0.57812726
50	0xbf6d72f8	-0.92753553
51	0xbfc7bbaf	-1.5604151
52	0xbfa3d232	-1.2798522
53	0xbfca4a37	-1.5803899
54	0xbffb6bac	-1.9642234
55	0xbfeda496	-1.8565853
56	0xc003b233	-2.0577514
57	0xc0314cf3	-2.7703216
58	0xc01bba49	-2.433245
59	0xc025fe2b	-2.5936382
60	0xc06f3168	-3.7373905
61	0xc0561408	-3.3449726
62	0xc05df923	-3.468331
63	0x3fd42ac2	1.6575549
64	0x3ffe3537	1.985999
65	0x3fb37702	1.4020693
66	0x3fe04654	1.7521462
67	0x4017a64a	2.3695245
68	0x3ff00614	1.8751855
69	0x3fa415ef	1.2819194
70	0x3fec9cee	1.8485391
71	0x3faba0fc	1.3408504
72	0x406983bf	3.6486661
73	0x4025d30d	2.5910065
74	0x3f3f70f0	0.74781704
75	0x40bfac79	5.989804
76	0x409bafe7	4.8652225
77	0x401c6e88	2.4442463
78	0x409569cc	4.6691647
79	0x40761a47	3.8453538
80	0x3fd06eda	1.6283829
81	0x4089c97f	4.3058467
82	0x40456e75	3.0848668
83	0x3f52db7c	0.82366157
84	0x40e830a8	7.2559395
85	0x40c0d6d3	6.0262237
86	0x4049e436	3.154554
87	0x40afeb2a	5.4974566
88	0x4094a6b1	4.645348
89	0x40070e72	2.1102567
90	0x28534d0b	1.1729559e-14
91	0x00000004	6e-45
92	0xac2d2d62	-2.4609971e-12
93	0xafd56b4a	-3.8820708e-10
94	0x2cf04ac3	6.8295105e-12
95	0x110ae066	1.0955429e-28
96	0x30e7255e	1.6818082e-09
97	0xb0db2c80	-1.5946995e-09
98	0x318b9802	4.0627137e-09
99	0xc177ad4e	-15.479811
100	0xc16a87d7	-14.658164
101	0xc139c760	-11.611176
102	0xc196caef	-18.849089
103	0xc193bc80	-18.467041
104	0xc178981d	-15.537137
105	0xc142d7fb	-12.17773
106	0xc14324eb	-12.196513
107	0xc11ec696	-9.923483
108	0x00000004	6e-45
109	0xa4bd2c23	-8.2040455e-17
110	0xb2c6a213	-2.3123937e-08
111	0x3113f8dd	2.1532778e-09
112	0x00000004	6e-45
113	0xb3df981a	-1.0411914e-07
114	0x33dd3088	1.0299942e-07
115	0xb12276ce	-2.3641635e-09
116	0x3017e2e5	5.5255917e-10
117	0xc0f17e0e	-7.5466375
118	0xc0e718ed	-7.2217927
119	0xc0c2d545	-6.088534
120	0xc14be3d5	-12.743123
121	0xc146841c	-12.407253
122	0xc12ff20e	-10.996595
123	0xc13ea1f0	-11.9145355
124	0xc139f4b5	-11.622243
125	0xc123bde0	-10.233856
126	0xc14423dc	-12.258755
127	0xc145de6d	-12.366803
128	0xc133b576	-11.231802
129	0xc18d728e	-17.680935
130	0xc18e1bbb	-17.76354
131	0xc182f0cd	-16.367579
132	0xc184bc2b	-16.591879
133	0xc1852183	-16.641363
134	0xc1737867	-15.216895
135	0xc1077d46	-8.468084
136	0xc1002dee	-8.011213
137	0xc0bea3dc	-5.9575024
138	0xc1606f2c	-14.027142
139	0xc15d214a	-13.820627
140	0xc139f34f	-11.6219015
141	0xc13e0db0	-11.878342
142	0xc13d9589	-11.849008
143	0xc11e13c8	-9.879829
144	0xc1145202	-9.270021
145	0xc101088d	-8.064588
146	0xc08389b7	-4.110561
147	0xc12f870e	-10.970472
148	0xc11f8719	-9.970483
149	0xc0b243c5	-5.5707726
150	0xc0d8d1aa	-6.7755938
151	0xc0c8b114	-6.271616
152	0xc02666f9	-2.600035
153	0xc12c188a	-10.755991
154	0xc11ad568	-9.677101
155	0xc09ce8d7	-4.903423
156	0xc1500da9	-13.003335
157	0xc141eb22	-12.119905
158	0xc0e2f728	-7.0926704
159	0xc0eb659b	-7.356153
160	0xc0e57616	-7.170665
161	0xc0509a49	-3.2594168
162	0x29f00f11	1.06607546e-13
163	0x3346e342	4.6307157e-08
164	0x00000004	6e-45
165	0xaa4fd5e7	-1.8459506e-13
166	0x2be220fa	1.6067419e-12
167	0xafeb9e20	-4.2858606e-10
168	0x33d3d71d	9.864582e-08
169	0x31659814	3.3410332e-09
170	0x33ebe9dd	1.098558e-07
171	0x40615a2d	3.521129
172	0x402b14ff	2.6731565
173	0xbe383fc8	-0.1799308
174	0xbe28909b	-0.16461413
175	0xbfb6038d	-1.4219834
176	0xc0893470	-4.287651
177	0xc00bd2db	-2.1847446
178	0xc069c646	-3.6527267
179	0xc0d62a9e	-6.6927023
180	0xb31811b2	-3.540635e-08
181	0x32bcd598	2.1983212e-08
182	0x16d5506a	3.4462754e-25
183	0x3271afcb	1.4068017e-08
184	0x32e99aa6	2.7195096e-08
185	0xb1798847	-3.6311734e-09
186	0xb3aa34e2	-7.925861e-08
187	0xaf23796e	-1.4867904e-10
188	0x80000004	-6e-45
189	0xc00197c7	-2.0248888
190	0xc037060e	-2.8597445
191	0xc09556f9	-4.666867
192	0xc04e457d	-3.2229912
193	0xc08a6978	-4.3253746
194	0xc0c6f595	-6.2174783
195	0xc072bfbc	-3.7929525
196	0xc08fd442	-4.4946604
197	0xc0c99fe8	-6.30077
198	0xc097a1eb	-4.7385154
199	0xc0bdc3a7	-5.9301333
200	0xc105d028	-8.363319
201	0xc112f753	-9.185382
202	0xc132e309	-11.1804285
203	0xc15b2070	-13.695419
204	0xc10083ae	-8.032148
205	0xc1136e25	-9.214391
206	0xc13aced0	-11.675491
207	0x404b0221	3.172005
208	0x40300a46	2.750627
209	0x3fa6be20	1.3026772
210	0x404a7db8	3.1639233
211	0x40312377	2.7677896
212	0x3f9191aa	1.1372578
213	0x400b28e6	2.1743712
214	0x3fcb79a1	1.5896493
215	0xbea61a97	-0.3244216
216	0x4086a4e3	4.207628
217	0x4088ee36	4.2790785
218	0x403c4832	2.9419065
219	0x4066691a	3.600165
220	0x4075a912	3.8384442
221	0x40263de8	2.5975285
222	0x3f57c982	0.8429185
223	0x3fa1d16a	1.2642033
224	0x3f06c7e0	0.52648735
225	0x409fdf77	4.9960284
226	0x40a62b84	5.192812
227	0x4068d5d9	3.6380522
228	0x408605d1	4.18821
229	0x4092d1bc	4.5881023
230	0x404f8a16	3.242803
231	0x3f2c1122	0.6721364
232	0x3fa1a9df	1.2629966
233	0x3f067ab3	0.52530974
234	0xb30dc366	-3.3006835e-08
235	0x3075a373	8.9362756e-10
236	0x3225d903	9.653607e-09
237	0x2fe1b9a7	4.1059176e-10
238	0x31315600	2.5805775e-09
239	0xa4329c7f	-3.8730155e-17
240	0x3395bb16	6.972384e-08
241	0x329058ea	1.680424e-08
242	0x28596849	1.2068533e-14
243	0xc152d622	-13.1772785
244	0xc15f35f5	-13.950673
245	0xc14b9700	-12.724365
246	0xc11dddbd	-9.866635
247	0xc12da40b	-10.85255
248	0xc1211044	-10.066471
249	0xc00ae3b7	-2.1701486
250	0xc043d0e3	-3.0596244
251	0xc02c255e	-2.6897807
252	0xa434ec2d	-3.9231327e-17
253	0x00000003	4e-45
254	0xb3f9448f	-1.1607437e-07
255	0xb295bc71	-1.7431576e-08

exp_avg_sq f4 [8, 8, 3, 3]
0	0x422fe8d9	43.97739
1	0x421719cd	37.775196
2	0x41c04245	24.032358
3	0x424620e4	49.53212
4	0x42286d47	42.106716
5	0x41c483e7	24.564405
6	0x422917a0	42.27307
7	0x42113d8f	36.310116
8	0x419c42cb	19.532614
9	0x4253ca85	52.947773
10	0x423713dd	45.769398
11	0x41e5411d	28.656794
12	0x4266d79f	57.710567
13	0x424534ea	49.301674
14	0x41e11f40	28.140259
15	0x4246279b	49.538677
16	0x422fc00e	43.937553
17	0x41bde9e2	23.7392
18	0x25b31c4b	3.1070722e-16
19	0x2a835ae9	2.3333356e-13
20	0x2a2848a0	1.4946594e-13
21	0x28f5eede	2.7304056e-14
22	0x2a51bd6a	1.8628645e-13
23	0x25a21c6a	2.8121774e-16
24	0x25afa922	3.047227e-16
25	0x25bf9cad	3.3239386e-16
26	0x2580183c	2.2220882e-16
27	0x43b398e2	359.1944
28	0x43c14c65	386.59683
29	0x43bff139	383.88455
30	0x43b9bc7f	371.47263
31	0x43c6e0d2	397.7564
32	0x43c68bab	397.09116
33	0x43b29024	357.1261
34	0x43bad883	373.6915
35	0x43b979b4	370.9508
36	0x28d5b326	2.3725444e-14
37	0x28f00c38	2.6650652e-14
38	0x291d072c	3.4867224e-14
39	0x2972f769	5.394939e-14
40	0x2a6312bf	2.0168154e-13
41	0x28195f02	8.513808e-15
42	0x28f2c59c	2.6953097e-14
43	0x2a27cda4	1.4903926e-13
44	0x214f8ed3	7.0323354e-19
45	0x436c2f2d	236.18428
46	0x4376edc4	246.92877
47	0x43729eee	242.62082
48	0x437da535	253.64534
49	0x43829468	261.15942
50	0x4380555d	256.6669
51	0x4373f997	243.97496
52	0x437b1c19	251.10976
53	0x437706ad	247.02608
54	0x44a62558	1329.167
55	0x44ad4398	1386.1123
56	0x44a9ea0f	1359.3143
57	0x44b2efdf	1431.496
58	0x44b8ab11	1477.3458
59	0x44b52a6f	1449.326
60	0x44acf95f	1383.7928
61	0x44b21a3d	1424.82
62	0x44aec653	1398.1976
63	0x4257fb27	53.995266
64	0x426ec8d1	59.69611
65	0x426fb708	59.92874
66	0x424af88e	50.74273
67	0x4268978d	58.148
68	0x427379ca	60.868935
69	0x4230c23a	44.189674
70	0x42489bf0	50.152283
71	0x4254d081	53.203617
72	0x423bbe27	46.935696
73	0x4215840c	37.378952
74	0x41d09754	26.07389
75	0x4274988c	61.14897
76	0x42405761	48.08533
77	0x41ec3fbd	29.531122
78	0x42396ab7	46.354214
79	0x42100276	36.002403
80	0x41a11705	20.13624
81	0x422a898f	42.634335
82	0x42044187	33.06399
83	0x41aaf1e2	21.368107
84	0x427181d3	60.37678
85	0x42398f10	46.38971
86	0x41cd9583	25.698004
87	0x423a953a	46.64573
88	0x420ca92c	35.165207
89	0x418826a2	17.018864
90	0x27e22ef2	6.27785e-15
91	0x2240055a	2.6023685e-18
92	0x28621516	1.25500925e-14
93	0x2916ccd0	3.3484337e-14
94	0x28852e4e	1.4786048e-14
95	0x267c7c90	8.7598877e-16
96	0x29609d61	4.9874496e-14
97	0x295d156b	4.9090435e-14
98	0x2994d7a7	6.60993e-14
99	0x460af9b0	8894.422
100	0x460dc46d	9073.106
101	0x460aa69c	8873.652
102	0x46191af4	9798.738
103	0x461d06ae	10049.67
104	0x461a11e6	9860.475
105	0x4604b133	8492.3
106	0x460809e6	8706.475
107	0x4605b1dc	8556.465
108	0x25bd67ff	3.2856744e-16
109	0x278be3ca	3.882722e-15
110	0x2a1517ef	1.3242162e-13
111	0x297229de	5.377111e-14
112	0x2151a892	7.1035055e-19
113	0x2aae5bc9	3.0972298e-13
114	0x2aad1533	3.0745683e-13
115	0x297953b5	5.536171e-14
116	0x2924e228	3.6611474e-14
117	0x453dca7f	3036.656
118	0x454135dc	3091.3662
119	0x453a9852	2985.52
120	0x4561dc32	3613.7622
121	0x45666d51	3686.8323
122	0x455e67e6	3558.4937
123	0x4553ee9d	3390.9133
124	0x455886e5	3464.431
125	0x455122b9	3346.1702
126	0x46c71b11	25485.533
127	0x46ca7566	25914.7
128	0x46c4ddcb	25198.896
129	0x46e2c932	29028.598
130	0x46e6d51d	29546.557
131	0x46e06c32	28726.098
132	0x46d5c675	27363.229
133	0x46d9a29f	27857.31
134	0x46d39ed1	27087.408
135	0x4494c3ba	1190.1165
136	0x4498a29a	1221.0813
137	0x4495fd6d	1199.9196
138	0x44bbc9c5	1502.3053
139	0x44c491e4	1572.5591
140	0x44c32138	1561.0381
141	0x44a29d10	1300.9082
142	0x44aad447	1366.6337
143	0x44aa88fc	1364.2808
144	0x4352400a	210.25015
145	0x4336d289	182.8224
146	0x42f15f53	120.68618
147	0x4354f525	212.9576
148	0x4338fc90	184.98657
149	0x42e2c4c3	113.3843
150	0x43176d86	151.42783
151	0x4304edb4	132.92853
152	0x429f0c8c	79.524506
153	0x43510513	209.01982
154	0x43348700	180.52734
155	0x42e16bbd	112.71043
156	0x435d9052	221.56375
157	0x433e0f9e	190.061
158	0x42db5fdb	109.68722
159	0x4324915d	164.56783
160	0x430febc0	143.9209
161	0x42a57150	82.72131
162	0x28125cbd	8.1247375e-15
163	0x2a5459fe	1.8860605e-13
164	0x253c084e	1.6309214e-16
165	0x281cead7	8.710662e-15
166	0x2853e640	1.176278e-14
167	0x291a901b	3.431986e-14
168	0x2aa81e08	2.9863633e-13
169	0x298b5eff	6.189319e-14
170	0x2ab4e24d	3.213145e-13
171	0x452b169d	2737.4133
172	0x4535c689	2908.4084
173	0x45333805	2867.5012
174	0x4526e93d	2670.5774
175	0x452ee342	2798.2036
176	0x452c351c	2755.3193
177	0x45212aab	2578.6667
178	0x452398a1	2617.5393
179	0x451eb3ef	2539.2458
180	0x2a37fbed	1.634107e-13
181	0x2a119a52	1.2932128e-13
182	0x26ac8d7c	1.1973247e-15
183	0x29eebea3	1.06023934e-13
184	0x2a212458	1.4312282e-13
185	0x298f4ae4	6.363467e-14
186	0x2a91ce33	2.5900254e-13
187	0x28f0cd04	2.6734264e-14
188	0x24502470	4.5133674e-17
189	0x44cf4870	1658.2637
190	0x44dac61b	1750.1908
191	0x44d42027	1697.0048
192	0x44d23a1d	1681.816
193	0x44dd2ab2	1769.3342
194	0x44d71c82	1720.8909
195	0x44bb5af6	1498.8425
196	0x44c5fabf	1583.8358
197	0x44c07d9e	1539.9255
198	0x461a883c	9890.059
199	0x46222184	10376.379
200	0x461d6056	10072.084
201	0x461e6096	10136.146
202	0x4625af42	10603.814
203	0x46212930	10314.297
204	0x460e0338	9088.805
205	0x4614c32b	9520.792
206	0x4610a623	9257.534
207	0x43bf058c	382.04333
208	0x43d023a1	416.27835
209	0x43d453e9	424.65555
210	0x43adee48	347.86157
211	0x43be1310	380.14893
212	0x43c4bd6e	393.47992
213	0x438eb34e	285.40082
214	0x438fdb27	287.71213
215	0x438ec7dc	285.5614
216	0x41a84f9a	21.038868
217	0x41ac4210	21.532257
218	0x4164e03a	14.304743
219	0x4188baba	17.091175
220	0x418edee8	17.85884
221	0x4131f0b3	11.121264
222	0x41315a4d	11.084546
223	0x413259de	11.14694
224	0x40e6c515	7.211558
225	0x41c6b385	24.837656
226	0x41c70af4	24.880348
227	0x418011a5	16.008615
228	0x41aad90f	21.355986
229	0x41afa63e	21.956173
230	0x415c902b	13.785197
231	0x41592c8c	13.573376
232	0x415b36a5	13.700841
233	0x4113dde9	9.241677
234	0x2a317907	1.5762748e-13
235	0x293b6696	4.161132e-14
236	0x29cc9017	9.0844155e-14
237	0x2918ea3d	3.395395e-14
238	0x29802a00	5.691628e-14
239	0x27834d25	3.6443444e-15
240	0x2a86a4bc	2.391749e-13
241	0x2a00eb2d	1.1450277e-13
242	0x27e2e448	6.2975104e-15
243	0x44d4f9da	1703.8079
244	0x44e64321	1842.0978
245	0x44e7ec9b	1855.3939
246	0x44b75096	1466.5183
247	0x44c34e6a	1562.4504
248	0x44c41993	1568.7992
249	0x448de650	1135.1973
250	0x449141c4	1162.0552
251	0x448fc947	1150.2899
252	0x27837104	3.6482336e-15
253	0x2348bed8	1.08824345e-17
254	0x2abbf233	3.3385932e-13
255	0x2a03068b	1.1637407e-13

exp_avg f4 [8]
0	0xc0fa917f	-7.8302608
1	0xc21412f9	-37.018528
2	0xc201dee7	-32.467678
3	0xc1dab5a8	-27.3387
4	0xc20357c5	-32.835712
5	0xb5745744	-9.102407e-07
6	0xc1ba563b	-23.292105
7	0x408e5c66	4.448779

exp_avg_sq f4 [8]
0	0x46386742	11801.814
1	0x48882119	278792.78
2	0x47a9426d	86660.85
3	0x470a87ac	35463.67
4	0x47f20926	123922.3
5	0x3c809160	0.01569432
6	0x46ff6fc8	32695.89
7	0x43230e77	163.0565

exp_avg f4 [1, 8, 3, 3]
0	0x41ae2a03	21.770514
1	0x41a8b4f2	21.088352
2	0x4143844e	12.219801
3	0x41e82044	29.015755
4	0x41e97765	29.183298
5	0x4199b4bf	19.213255
6	0x4188c6c3	17.097052
7	0x41935753	18.417639
8	0x41254475	10.329213
9	0xc2693bae	-58.30828
10	0xc25d413e	-55.313713
11	0xc22d5460	-43.332397
12	0xc2951018	-74.53143
13	0xc2919c9a	-72.80586
14	0xc2709bc0	-60.1521
15	0xc2560fb4	-53.515335
16	0xc251fe55	-52.49837
17	0xc22888d2	-42.133614
18	0x4176bd30	15.421188
19	0x4168dad2	14.553423
20	0x41027a52	8.154863
21	0x41bfd3d0	23.978424
22	0x41bde5b6	23.737164
23	0x41821654	16.260902
24	0x418b920e	17.446316
25	0x4190c8ac	18.097984
26	0x413b72ed	11.715558
27	0xc23fba9e	-47.932243
28	0xc232094d	-44.509083
29	0xc203caac	-32.94792
30	0xc288dcbd	-68.43113
31	0xc283f77e	-65.98338
32	0xc253e86b	-52.97697
33	0xc25a7b76	-54.620567
34	0xc253e173	-52.970165
35	0xc226ec3f	-41.73071
36	0xc27deb0d	-63.47954
37	0xc2756d5d	-61.3568
38	0xc23ce5ea	-47.224525
39	0xc29a1412	-77.0392
40	0xc29927b3	-76.57754
41	0xc279376d	-62.304127
42	0xc250910a	-52.14164
43	0xc25260ec	-52.59465
44	0xc224bbd3	-41.183422
45	0x34698048	2.1746484e-07
46	0xb249ceed	-1.1746789e-08
47	0x3322ebf5	3.7933166e-08
48	0x34beaf66	3.5517877e-07
49	0xb5d7f057	-1.6088696e-06
50	0x336b2518	5.4748938e-08
51	0xb60adc47	-2.069182e-06
52	0xb5c99f7d	-1.5022084e-06
53	0x347a6848	2.3321002e-07
54	0xc277defd	-61.967762
55	0xc26dd65d	-59.45934
56	0xc235b163	-45.42323
57	0xc299956d	-76.79185
58	0xc2973311	-75.59974
59	0xc2737507	-60.864285
60	0xc256df2f	-53.717953
61	0xc25675ae	-53.61492
62	0xc225f607	-41.49026
63	0x3ec0eba9	0.37679794
64	0x3e35225a	0.17688885
65	0x3d17c437	0.03705236
66	0x3ef229d9	0.47297552
67	0x3e8b8c62	0.2725554
68	0x3e0841eb	0.13306396
69	0x3ef43ffa	0.4770506
70	0x3e94e6c9	0.29082325
71	0x3e4ee571	0.20204712

exp_avg_sq f4 [1, 8, 3, 3]
0	0x44a5c620	1326.1914
1	0x44a0cf48	1286.4775
2	0x447c12a3	1008.2912
3	0x44a9dcc3	1358.8988
4	0x44a4fd3a	1319.9133
5	0x44706e01	961.7188
6	0x446f0be6	956.1859
7	0x4460c9c0	899.15234
8	0x441b1bca	620.4342
9	0x4771991b	61849.105
10	0x477969ab	63849.668
11	0x477099aa	61593.664
12	0x478707ce	69135.61
13	0x478be3df	71623.74
14	0x4786eee5	69085.79
15	0x4765c9ed	58825.926
16	0x476deb79	60907.473
17	0x4765901a	58768.1
18	0x44646d1e	913.70496
19	0x445d5b75	885.429
20	0x443340fb	717.0153
21	0x4481e2bf	1039.0858
22	0x447e1150	1016.2705
23	0x4442e57c	779.5857
24	0x444521e9	788.52985
25	0x443e2ba8	760.6821
26	0x440a0d19	552.20465
27	0x46d70e14	27527.04
28	0x46de906a	28488.207
29	0x46d43ded	27166.963
30	0x4700fccd	33020.8
31	0x47060543	34309.26
32	0x46fed19e	32616.809
33	0x46e6d717	29547.545
34	0x46f0a7ad	30803.838
35	0x46e5298b	29332.771
36	0x47494df0	51533.938
37	0x47517c19	53628.098
38	0x474c1768	52247.406
39	0x475921c4	55585.766
40	0x47632dab	58157.668
41	0x475d7c40	56700.25
42	0x472fff61	45055.38
43	0x47385f12	47199.07
44	0x47346b75	46187.457
45	0x30bff45e	1.3966532e-09
46	0x3518bb89	5.689731e-07
47	0x355ae4c5	8.154423e-07
48	0x308cc4a1	1.0242226e-09
49	0x3557c149	8.037501e-07
50	0x35727899	9.032752e-07
51	0x2efc18b0	1.14640186e-10
52	0x358c9b33	1.0475982e-06
53	0x35639e6f	8.479464e-07
54	0x47824616	66700.17
55	0x4786c002	68992.016
56	0x4782dd78	67002.94
57	0x478fd282	73637.016
58	0x47953ea4	76413.28
59	0x4790d0c1	74145.51
60	0x47763cde	63036.867
61	0x477f865d	65414.363
62	0x477841cb	63553.793
63	0x3f9f8ed7	1.2465466
64	0x3f87015a	1.0547287
65	0x3f5f0333	0.87114257
66	0x3fce9165	1.6138121
67	0x3fb7847d	1.4337307
68	0x3f9949bc	1.1975627
69	0x3fc51693	1.5397514
70	0x3fbac904	1.4592595
71	0x3fa39eac	1.2782798

exp_avg f4 [18, 1062]
0	0x3f756e79	0.9587169
1	0x3fce7c83	1.6131748
2	0x3fe03e1d	1.7518955
3	0x3fc0fd52	1.5077307
4	0x3f925c0e	1.1434343
5	0x3f68df9d	0.90966207
6	0x3f3ce9db	0.73794335
7	0x3f04cc43	0.5187418
8	0x3daefb55	0.085440315
9	0xbee99979	-0.45624903
10	0xbf7b1c4b	-0.98090047
11	0xbfa36228	-1.276433
12	0xbfb652ff	-1.4244078
13	0xbfb61d6b	-1.4227728
14	0xbfad0d4e	-1.3519685
15	0xbfa1b0b2	-1.2632048
16	0xbf9614bf	-1.1725081
17	0xbf8bbca2	-1.0916941
18	0xbf836e9c	-1.026813
19	0xbf7e96fa	-0.9944912
20	0xbf838698	-1.027545
21	0xbf8d11ba	-1.1021035
22	0xbf957eda	-1.1679337
23	0xbf8f771c	-1.1208224
24	0xbf6a8691	-0.9161158
25	0xbf181e77	-0.59421486
26	0xbe691a17	-0.22763859
27	0xbd3e8c30	-0.046520412
28	0xbdaf741d	-0.08567069
29	0xbead3ac6	-0.33833903
30	0xbf046bc1	-0.5172692
31	0xbf0d26a1	-0.5513707
32	0xbf1469fd	-0.57974225
33	0xbf29ad7c	-0.6628034
34	0xbf4f60b3	-0.81006926
35	0xbf4cc475	-0.7998727
36	0xbf343e58	-0.7040763
37	0xbf194f34	-0.5988648
38	0xbf01d42d	-0.5071438
39	0xbeacd0f0	-0.33753157
40	0xbe077f2b	-0.13232104
41	0xbca630cc	-0.02028694
42	0xbd0a0c45	-0.033703107
43	0xbdfe1bee	-0.12407671
44	0xbe59fb19	-0.21287192
45	0xbe9ceb03	-0.3064805
46	0xbed175ab	-0.40910086
47	0xbef90dc6	-0.4864332
48	0xbf042ffb	-0.5163571
49	0xbf03b658	-0.5145011
50	0xbf06a0dc	-0.525892
51	0xbf0e82c7	-0.556683
52	0xbf16f967	-0.5897431
53	0xbf1b3cd9	-0.6063972
54	0xbf1ad09a	-0.6047455
55	0xbf199e71	-0.6000739
56	0xbf1ab208	-0.60427904
57	0xbf1307cc	-0.5743377
58	0xbed9b082	-0.42517477
59	0x3f799615	0.9749463
60	0x3fd77a2a	1.6834157
61	0x3fce2f5f	1.6108207
62	0x3f866fc9	1.0502864
63	0x3ef3239d	0.47488108
64	0x3dbed370	0.09317672
65	0xbd716739	-0.05893633
66	0xbdb87e03	-0.0900841
67	0xbef25330	-0.47329092
68	0xbf89b171	-1.0757276
69	0xbfe39a0b	-1.7781385
70	0xc00a5eff	-2.162048
71	0xc0141f4b	-2.31441
72	0xc00de082	-2.2168279
73	0xc00056c8	-2.0052967
74	0xbfe30fc9	-1.7739192
75	0xbfc792d8	-1.5591688
76	0xbfb374cd	-1.402002
77	0xbfa380ec	-1.2773719
78	0xbf9cbb00	-1.2244568
79	0xbfa2afb9	-1.2709876
80	0xbfa8331d	-1.3140599
81	0xbfb2adbe	-1.3959272
82	0xbfab67ed	-1.3391091
83	0xbf8581dc	-1.0430255
84	0xbf046fe5	-0.5173324
85	0x3dc29905	0.095018424
86	0x3ec9448f	0.3931012
87	0x3eb2af26	0.34899253
88	0xbcf2fea4	-0.029662438
89	0xbeb22617	-0.34794685
90	0xbeb8eeed	-0.36119786
91	0xbedba88f	-0.42902038
92	0xbf10635f	-0.5640163
93	0xbf6b82d8	-0.91996527
94	0xbf78dfec	-0.9721668
95	0xbf4e46fe	-0.80577075
96	0xbf1a5281	-0.6028214
97	0xbedf7230	-0.43641806
98	0xbe3b7443	-0.18306069
99	0x3e15ea2a	0.14640108
100	0x3ea35933	0.3190399
101	0x3ea180b2	0.315435
102	0x3e3afbf5	0.18260176
103	0x3cb22e9e	0.021750744
104	0xbe37b604	-0.17940527
105	0xbecd51c6	-0.4010145
106	0xbf175d32	-0.5912658
107	0xbf36bf17	-0.7138533
108	0xbf4753b8	-0.7786212
109	0xbf51aab4	-0.819011
110	0xbf5ef923	-0.870989
111	0xbf676de8	-0.9040208
112	0xbf68f412	-0.9099742
113	0xbf64719c	-0.89235854
114	0xbf602c61	-0.87567717
115	0xbf60f58c	-0.87874675
116	0xbf5876b5	-0.8455613
117	0xbf26827b	-0.6504285
118	0x3ecb0014	0.39648497
119	0x3f30c4e2	0.6905042
120	0x3eda8e63	0.42686757
121	0xbe4e8438	-0.20167625
122	0xbf61ac12	-0.88153183
123	0xbf9ace16	-1.2094142
124	0xbf8f99af	-1.1218776
125	0xbf663bd0	-0.89935017
126	0xbf78e4ce	-0.9722413
127	0xbfb194eb	-1.3873571
128	0xbff770fa	-1.9331353
129	0xc01fa155	-2.494222
130	0xc02bccc7	-2.6843736
131	0xc024a008	-2.5722675
132	0xc01334dc	-2.3001013
133	0xbffc83dc	-1.972774
134	0xbfd148a9	-1.6350299
135	0xbfa825e0	-1.3136559
136	0xbf896b7c	-1.0735927
137	0xbf6b276d	-0.91857034
138	0xbf5abaaa	-0.85441077
139	0xbf5e29c6	-0.8678249
140	0xbf50bc90	-0.81537724
141	0xbf2d9f65	-0.6782134
142	0xbeba887a	-0.36432248
143	0x3e70a87c	0.23501772
144	0x3f54a200	0.8305969
145	0x3f98f2f6	1.1949146
146	0x3f8f8b80	1.1214447
147	0x3f28285c	0.65686584
148	0x3e827e3c	0.25486934
149	0x3e9cc5af	0.3061957
150	0x3e5a8dfb	0.21343224
151	0xbd858cd3	-0.06521001
152	0xbf2098f8	-0.6273341
153	0xbf440802	-0.7657472
154	0xbf2453ab	-0.6419017
155	0xbec80508	-0.3906634
156	0xbe1fc4d2	-0.15602425
157	0x3e057df2	0.13036326
158	0x3efc5acb	0.4928802
159	0x3f38c455	0.7217458
160	0x3f420e1b	0.75802773
161	0x3f1dc6b6	0.61631334
162	0x3ed1fc96	0.4101302
163	0x3e0e8515	0.13917954
164	0xbe5f7391	-0.21821429
165	0xbf0ad8c9	-0.5423704
166	0xbf4a455d	-0.7901209
167	0xbf7a923a	-0.97879374
168	0xbf8a089a	-1.0783875
169	0xbf90d838	-1.1315985
170	0xbf9198de	-1.1374776
171	0xbf8deb1f	-1.1087378
172	0xbf872e69	-1.0561038
173	0xbf824ad0	-1.0179081
174	0xbf81e3ed	-1.0147682
175	0xbf7a37d5	-0.9774144
176	0xbf4009ba	-0.7501484
177	0xbe1bfb35	-0.15232547
178	0xbe95d870	-0.2926669
179	0xbf35b6a8	-0.70981836
180	0xbfa33a34	-1.2752137
181	0xbfd73756	-1.6813762
182	0xbfd5bb6f	-1.6697825
183	0xbfb7ebde	-1.4368856
184	0xbf8fc025	-1.1230513
185	0xbf6bfd2f	-0.921832
186	0xbf91a08d	-1.1377121
187	0xbfc59bf8	-1.5438223
188	0xc00b8ff1	-2.1806605
189	0xc026044e	-2.5940127
190	0xc02caa4c	-2.697894
191	0xc026a6dd	-2.6039345
192	0xc017abb8	-2.3698559
193	0xc00319e1	-2.0484545
194	0xbfd81163	-1.6880306
195	0xbfa98564	-1.3243833
196	0xbf73f637	-0.9529757
197	0xbf34a04e	-0.70557106
198	0xbf16c724	-0.58897614
199	0xbeedbe73	-0.46434364
200	0xbe85002b	-0.2597669
201	0x3daa9124	0.083284646
202	0x3f235735	0.6380494
203	0x3f94f853	1.1638283
204	0x3fb853aa	1.4400532
205	0x3fb19429	1.387334
206	0x3f6cf66a	0.925635
207	0x3eda5a24	0.42646897
208	0x3ee74b11	0.4517446
209	0x3ebba3ed	0.36648503
210	0xbc2acdfc	-0.010425087
211	0xbf4634eb	-0.77424496
212	0xbf740419	-0.9531875
213	0xbf4dba92	-0.8036281
214	0xbf045334	-0.5168946
215	0xbe8ec7d4	-0.27886832
216	0x3bec9c98	0.007220816
217	0x3ec256df	0.37956902
218	0x3f228ca8	0.63495874
219	0x3f333e87	0.70017284
220	0x3f0fa4fb	0.56111115
221	0x3eae1433	0.33999786
222	0x3ca9608c	0.02067592
223	0xbec283bf	-0.3799114
224	0xbf3a5782	-0.72789776
225	0xbf7d1da1	-0.98873335
226	0xbf9dae87	-1.2318887
227	0xbfb2449d	-1.3927189
228	0xbfb8f9cf	-1.4451236
229	0xbfb745aa	-1.4318135
230	0xbfb13b14	-1.3846154
231	0xbfa981d3	-1.3242744
232	0xbfa4b1fb	-1.2866815
233	0xbfa4d11e	-1.2876318
234	0xbf9e05be	-1.2345502
235	0xbf6ea020	-0.9321308
236	0xbe9ec331	-0.31008294
237	0xbf0a2ff2	-0.5397941
238	0xbf5e2d50	-0.8678789
239	0xbfb0ce0b	-1.3812879
240	0xbfce96fc	-1.6139827
241	0xbfaeda42	-1.3660357
242	0xbf3db458	-0.7410331
243	0xbec96b78	-0.39339805
244	0xbe30d354	-0.17268115
245	0xbed348fc	-0.4126662
246	0xbf6b01f5	-0.9179986
247	0xbfd73cc1	-1.6815416
248	0xc0107cf6	-2.257627
249	0xc02054d1	-2.5051768
250	0xc01f81b1	-2.4922907
251	0xc01b5403	-2.4270027
252	0xc0137967	-2.3042848
253	0xc007ae74	-2.1200228
254	0xbff1c80d	-1.8889176
255	0xbfc6a8ef	-1.5520304
