temp/idx-260-strainMatSVD-AugShift-LR1.00E-04-CV3-Ch8-net-retrain.pth (torch_old, 242216 bytes, 21 tensors)

layers.0.weight f4 [8, 1, 3, 3]
0	0xbd8fb15e	-0.07016252
1	0xbed937e4	-0.42425454
2	0xbe5dcc6b	-0.2166001
3	0xbf195f03	-0.599106
4	0xbf02d4ce	-0.51105964
5	0xbe4955e8	-0.19661677
6	0xbec015eb	-0.37516722
7	0x3dd3ae25	0.1033595
8	0x3e21bcc3	0.15794663
9	0x3e78095a	0.24222317
10	0x3eb7cdfe	0.35899347
11	0x3dc5cc3b	0.096580945
12	0x3f2be7f1	0.6715079
13	0x3ecda0b8	0.4016168
14	0x3ef12d7e	0.4710502
15	0xbd08dcc1	-0.033413652
16	0x3dcd3096	0.10019033
17	0xbe6ff54a	-0.23433414
18	0x3ed29008	0.41125512
19	0x3eabcc25	0.33554187
20	0x3e9654ba	0.29361516
21	0x3ed86a73	0.42268714
22	0x3e9140ed	0.28369847
23	0x3eb903e9	0.36135796
24	0x3e59287b	0.21206848
25	0xbe03c6ec	-0.12868851
26	0x3d55aac2	0.0521648
27	0x3f7abf66	0.979483
28	0x3f78a3fd	0.97125226
29	0x3f7bb7dc	0.9832742
30	0x3f82b1f6	1.0210559
31	0x3f3e1ca8	0.74262476
32	0x3f774740	0.96593094
33	0x3ee31fbe	0.44360155
34	0x3e4bee99	0.19915237
35	0x3d9f310e	0.07773028
36	0x3e8ed1a7	0.27894327
37	0xbe188040	-0.14892673
38	0x3cd6d0c4	0.026222594
39	0x3d6c5657	0.057699528
40	0x3eb238a7	0.34808847
41	0xbcda9cf1	-0.026686164
42	0x3cafdb63	0.021466916
43	0xbceb49ad	-0.028721655
44	0x3e0446fc	0.12917703
45	0x3ea7e2e6	0.32790297
46	0x3daa3202	0.083103195
47	0xbda714f5	-0.08158294
48	0x3f3e5cb5	0.7436021
49	0x3f3620b8	0.71143675
50	0x3ebb8c8c	0.36630666
51	0x3d5b4309	0.053530727
52	0x3d652cfd	0.055951107
53	0x3b3edd7f	0.0029123721
54	0x3dbca212	0.092106
55	0xbe165a43	-0.1468287
56	0xbe38e0cc	-0.18054503
57	0x3e55b8fa	0.20871344
58	0x3e978754	0.29595435
59	0xbe3bb30e	-0.18330023
60	0x3e9ec32d	0.31008282
61	0x3e911496	0.28336018
62	0x3e705019	0.23468055
63	0x3cb05840	0.021526456
64	0xbe4f6af0	-0.20255637
65	0x3d4ae4b4	0.049534515
66	0x3f7586ae	0.9590863
67	0x3f3686d8	0.71299505
68	0x3f3d68a9	0.73987824
69	0x3f69dee8	0.9135575
70	0x3f6a0125	0.91407996
71	0x3f3e495e	0.743307

layers.0.bias f4 [8]
0	0x3cc16e87	0.023612274
1	0x3e28d092	0.16485813
2	0x3e273093	0.16327123
3	0x3d2bb761	0.04192293
4	0x3f44bf5d	0.768545
5	0x3e2314e2	0.15925935
6	0x3f009756	0.5023092
7	0x3d8698ff	0.065721504

layers.2.weight f4 [8, 8, 3, 3]
0	0x3ca2a245	0.019852767
1	0xbe40a91a	-0.18814507
2	0x3d0e7cb7	0.034786906
3	0xbe89ee6e	-0.2693972
4	0xbd79a62d	-0.060949493
5	0x3cf2032d	0.02954253
6	0xbe39431b	-0.18092005
7	0xbea1e01a	-0.31616288
8	0x3e333063	0.17498927
9	0xbd7e1ee8	-0.062041193
10	0xbd59323e	-0.05302643
11	0x3e64aab7	0.22330748
12	0x3e7738f9	0.24142827
13	0x3ded7709	0.1159497
14	0x3ec6529c	0.387349
15	0x3e38f141	0.18060781
16	0x3d9e61c8	0.07733494
17	0x3d4393e9	0.04774848
18	0xbe45a87f	-0.19302557
19	0x3dfb4441	0.12268878
20	0x3d571caa	0.05251757
21	0x3dc9214a	0.098208025
22	0x3e2f69e0	0.17130232
23	0xbd68b589	-0.05681375
24	0x3e48020c	0.19532031
25	0x3e351897	0.17685162
26	0x3e3698da	0.17831746
27	0xbdbb3a9e	-0.0914204
28	0x3de42d88	0.11141497
29	0xbd8f2261	-0.06988979
30	0xbccf4d68	-0.025305465
31	0x3e317403	0.17329411
32	0x3ec5f935	0.38666692
33	0x3ce67185	0.028130302
34	0x3e838195	0.256848
35	0x3f0e2f69	0.5554109
36	0x3d0d25ce	0.03445988
37	0x3e0adc73	0.13560657
38	0x3dd4f9ac	0.10399184
39	0x3d0ec465	0.034855265
40	0x3acc9a9d	0.0015610043
41	0xbc881a2f	-0.016614048
42	0xbd813f6f	-0.06310927
43	0x3e81838a	0.2529567
44	0xbdb1a462	-0.08673932
45	0xbe08a888	-0.1334554
46	0xbd19be8f	-0.037535246
47	0x3e3e3549	0.18575014
48	0xbd7c57d5	-0.0616072
49	0x3e09ff79	0.13476361
50	0x3e90ddad	0.28294125
51	0x3dbc307e	0.09188937
52	0x3ec19d7e	0.3781547
53	0x3ec5924e	0.38588184
54	0xbcc436cf	-0.023951916
55	0x3e886729	0.26641205
56	0xbdf7bef4	-0.12096968
57	0x3e343adb	0.17600577
58	0x3de70fdc	0.11282322
59	0x3e56bb31	0.20969845
60	0x3e8fb5d9	0.28068426
61	0x3e33ec28	0.17570555
62	0x3e800af6	0.25008363
63	0x3e416a27	0.1888815
64	0x3d9978b2	0.07493724
65	0x3e7a8276	0.2446383
66	0x3ea22b24	0.3167354
67	0x3ed367f9	0.41290262
68	0x3ed2ba50	0.4115777
69	0xbd73e474	-0.05954404
70	0x3e807497	0.2508895
71	0x3eb53f06	0.35399646
72	0xbdb4a2b0	-0.08820093
73	0xbe29d4d7	-0.16585098
74	0x3dd14a6d	0.10219274
75	0xbedf0f87	-0.43566534
76	0xbe301e63	-0.17199092
77	0xbd856ef6	-0.06515305
78	0xbe88f196	-0.26746815
79	0xbe694971	-0.22781922
80	0xbea9a67a	-0.33134824
81	0xbe654a63	-0.22391658
82	0x3d7b492a	0.06134907
83	0xbc4def2d	-0.012569231
84	0x3d09b726	0.03362193
85	0x3e1d007b	0.15332215
86	0x3e572f0a	0.21014038
87	0x3e958872	0.29205662
88	0x3e9efda1	0.31052878
89	0x3ec3e26e	0.3825869
90	0xbd6e12d3	-0.05812342
91	0xbe40ed08	-0.1884042
92	0x3db91061	0.09036327
93	0xbded3926	-0.11583166
94	0x3d121862	0.035667785
95	0x3e8cd0b8	0.2750299
96	0x3e4d48a4	0.20047241
97	0x3e8f6c6b	0.28012404
98	0x3e2852c8	0.16437829
99	0xbe0bdce3	-0.1365848
100	0xbd90af63	-0.07064702
101	0x3c8a69ac	0.016896091
102	0x3dc2905f	0.09500193
103	0x3e758084	0.23974806
104	0x3e65bdc3	0.2243567
105	0x3ebe2d2a	0.37143832
106	0x3e92ad89	0.28648022
107	0x3e7d22d3	0.24720316
108	0xbd13553f	-0.03596997
109	0xbd3513ff	-0.044208523
110	0x3d2e6b9f	0.042583104
111	0x3ecc0c78	0.39853263
112	0x3d9341c9	0.07190282
113	0x3e5e5711	0.217129
114	0x3e8ee9e8	0.2791283
115	0x3e5281f8	0.20557392
116	0x3ea4c188	0.32178903
117	0xbe5b27fd	-0.21401973
118	0xbd08c0e6	-0.033387087
119	0x3e1598b0	0.14609027
120	0x3e9ab505	0.30216232
121	0x3ea641fa	0.3247221
122	0x3e95d166	0.2926132
123	0x3e627323	0.22114234
124	0x3e1d24fc	0.1534614
125	0x3e2cc888	0.16873372
126	0x3e1463f0	0.14491248
127	0x3d44ec35	0.048076827
128	0x3d0b94a9	0.03407732
129	0x3e57427b	0.21021454
130	0x3df62e68	0.1202057
131	0x3e5ae765	0.21377333
132	0x3eb78f58	0.3585155
133	0x3e3e217c	0.18567461
134	0x3eaffa38	0.3437059
135	0xbde7dce9	-0.11321432
136	0xbac02906	-0.0014660663
137	0xbbc2b9b1	-0.0059425463
138	0x3d9d3a82	0.07677175
139	0x3ef59b5d	0.47970095
140	0x3e816d5e	0.25278753
141	0x3e2da3ee	0.16957065
142	0x3ea6c1ad	0.32569638
143	0x3de52051	0.111878045
144	0x3d08eb89	0.03342775
145	0xbd1705f3	-0.036870908
146	0xbd9b3a74	-0.075795084
147	0x3e5e9968	0.21738207
148	0x3e44a7c6	0.19204625
149	0xbd9e2792	-0.07722391
150	0x3e9e1690	0.3087659
151	0x3ecdee7f	0.4022102
152	0x3e4ee1e9	0.20203365
153	0xbef2e23d	-0.4743823
154	0x3e343824	0.17599541
155	0xbe786374	-0.24256688
156	0xbf4a40b9	-0.7900501
157	0xbd9e4d28	-0.0772956
158	0xbecbbfab	-0.3979467
159	0xbf379ec6	-0.71726644
160	0xbee006a0	-0.43755054
161	0xbec1259d	-0.3772401
162	0xbd9d5e18	-0.076839626
163	0xbddbe008	-0.1073609
164	0x3e394f54	0.18096668
165	0xbf302485	-0.68805724
166	0xbe5be747	-0.21474944
167	0xbeaa55b0	-0.332685
168	0xbf12716a	-0.57204306
169	0xbddf5f4e	-0.1090685
170	0xbeb5c5b5	-0.355024
171	0x3e9ce8e8	0.30646443
172	0xbe96f2bc	-0.29482067
173	0xbe688374	-0.22706395
174	0xbe6760b0	-0.22595477
175	0xbf250a0e	-0.6446847
176	0xbf7696bc	-0.9632375
177	0xbdc7d5c2	-0.09757568
178	0xbf2e656b	-0.681235
179	0xbf00fcd4	-0.50385785
180	0xbe8538bd	-0.2601985
181	0x3e2a5955	0.1663564
182	0x3e66672f	0.22500299
183	0xbe1799ad	-0.14804716
184	0xbdaf5dd6	-0.0856282
185	0x3e94a038	0.29028487
186	0xbdaa4595	-0.08314053
187	0x3d5f2e23	0.05448736
188	0x3e1eea5c	0.15519089
189	0xbf23757e	-0.63851154
190	0xbe2f0ee8	-0.1709553
191	0xbe40b363	-0.1881843
192	0xbf3c6d06	-0.73603857
193	0xbe9bc6fa	-0.30425245
194	0xbefaf3e0	-0.49014187
195	0xbf362507	-0.7115025
196	0xbef5c837	-0.48004314
197	0xbf19214e	-0.59816444
198	0xbea5cad1	-0.323813
199	0xbd7e6686	-0.062109493
200	0x3e875aa0	0.2643633
201	0xbd553e44	-0.052061334
202	0x3dd23850	0.10264647
203	0x3e080065	0.132814
204	0xbecd72a0	-0.40126514
205	0x3e289b5e	0.16465518
206	0x3dade3da	0.08490725
207	0x3de544b5	0.111947455
208	0xbe9ecaa5	-0.3101398
209	0xbf270ae8	-0.65251017
210	0xbedfe4ad	-0.43729153
211	0xbe88fe68	-0.26756597
212	0xbee933eb	-0.45547423
213	0xbf131e63	-0.5746824
214	0xbed99ff2	-0.4250484
215	0xbe8dd4ba	-0.2770136
216	0xbec89a5c	-0.39180267
217	0xbe30f9e7	-0.1728283
218	0x3da8f31a	0.08249493
219	0xbeb91cad	-0.3615469
220	0xbec9bf68	-0.39403844
221	0xbe6ba561	-0.23012306
222	0xbec771b1	-0.38953927
223	0xbe339712	-0.17538098
224	0xbd537c12	-0.051631995
225	0x3e33fc3a	0.17576686
226	0x3ce84216	0.028351825
227	0x3e150f50	0.14556623
228	0x3eb7941f	0.35855195
229	0x3eafe431	0.34353784
230	0x3eb42c3f	0.35190007
231	0x3e0b2f4c	0.13592261
232	0x3ee6b045	0.45056358
233	0x3d1c9bdc	0.038234577
234	0x3e23539d	0.15949865
235	0xbd9d1573	-0.07670107
236	0xbd83d556	-0.06437175
237	0x3e29e52f	0.16591333
238	0x3e2008d5	0.15628369
239	0x3e6ee284	0.23328596
240	0x3e3a9af9	0.1822318
241	0x3e4def9e	0.20110938
242	0x3e8568e3	0.26056585
243	0xbdc0e601	-0.0941887
244	0x3e8284e3	0.2549201
245	0x3e9dc569	0.30814674
246	0x3d516da4	0.051129952
247	0x3ee3986e	0.44452232
248	0x3e97a48e	0.29617733
249	0x3e1cdc47	0.15318404
250	0x3e03ccbf	0.12871073
251	0x3ebf5dbb	0.37376198
252	0xbd3ae067	-0.045624163
253	0x3d40e071	0.047089044
254	0x3ea79292	0.32729012
255	0x3e7d65b5	0.2474583

layers.2.bias f4 [8]
0	0x3eadac3d	0.3392047
1	0x3e40ff1d	0.18847318
2	0x3e9701ba	0.29493505
3	0x3e408eac	0.18804425
4	0x3e206121	0.15662052
5	0x3e8a8727	0.27056238
6	0xbeabc4a5	-0.33548465
7	0x3e6be219	0.23035468

layers.4.weight f4 [1, 8, 3, 3]
0	0x3eb40c8a	0.35165817
1	0x3e83b7fd	0.2572631
2	0x3e5a629e	0.21326682
3	0x3e37d768	0.17953265
4	0x3e87a02f	0.26489398
5	0xbdd66cd1	-0.10469974
6	0x3e7f594e	0.24936411
7	0xbd2af1ad	-0.041734386
8	0xbd48db30	-0.04903716
9	0x3f01f51f	0.5076465
10	0x3ee3fe44	0.44529927
11	0x3cf5a910	0.029987842
12	0x3dae3ee2	0.08508088
13	0x3e727f3d	0.2368135
14	0x3dba8cfb	0.09108921
15	0x3dc1c9c8	0.09462315
16	0x3e0e5564	0.13899761
17	0xbddd9d66	-0.10821037
18	0xbf031262	-0.51199925
19	0xbe315fa5	-0.17321642
20	0x3e9b13f9	0.30288675
21	0xbf0fe3d0	-0.5620699
22	0xbebcf15a	-0.36902887
23	0x3e9fe894	0.3123213
24	0xbf40bfd6	-0.7529272
25	0xbf08142d	-0.53155786
26	0xbe391d2f	-0.18077539
27	0x3e83a789	0.25713757
28	0x3ed8df04	0.42357647
29	0x3e4218c9	0.18954767
30	0x3e17d9c8	0.1482917
31	0x3eb98d3c	0.36240566
32	0x3cc31616	0.023814242
33	0x3e79462f	0.24343179
34	0x3efc7b39	0.4931276
35	0xbb5d935d	-0.003380976
36	0x3e2b6428	0.16737425
37	0x3e349810	0.17636132
38	0xbd3af3c5	-0.045642633
39	0xbd89227c	-0.066960305
40	0x3e9340ec	0.2876047
41	0x3eb76446	0.3581869
42	0x3de99372	0.11405076
43	0xbda72139	-0.081606336
44	0x3eafaa3c	0.34309566
45	0xbed8ce5e	-0.42344946
46	0xbe7bb575	-0.24580939
47	0x3d4f0600	0.05054283
48	0xbf2f04de	-0.683668
49	0xbeca604c	-0.39526594
50	0xbf0f77bb	-0.5604207
51	0xbf1d6df3	-0.61495894
52	0xbf296f36	-0.6618532
53	0xbecbbdd9	-0.3979328
54	0xbf346cd5	-0.70478565
55	0xbf5bd196	-0.8586668
56	0xbf384caa	-0.7199198
57	0xbf55f880	-0.83582306
58	0xbf3908d2	-0.72279084
59	0xbf68cfed	-0.9094227
60	0xbf55cb1a	-0.83513033
61	0xbf637576	-0.88851106
62	0xbf07a0ac	-0.5297954
63	0x3dabf057	0.083954506
64	0xbe67dda4	-0.22643143
65	0xbe89692c	-0.26838052
66	0xbdf12848	-0.11775261
67	0x3ec054d3	0.37564716
68	0x3e83b713	0.25725612
69	0xbd08586d	-0.033287454
70	0x3e9cb7da	0.30609018
71	0x3e9d85af	0.30766055

layers.7.weight f4 [18, 1062]
0	0x3e333937	0.17502294
1	0x3e7bf7ce	0.24606249
2	0x3e906c5b	0.2820767
3	0x3e857a68	0.2606995
4	0x3e6bc64b	0.23024862
5	0x3e7525ba	0.23940173
6	0x3e6220b0	0.22082782
7	0x3e4ad592	0.19808033
8	0x3e27af28	0.1637541
9	0x3c579101	0.01315713
10	0x3ba371d1	0.004987933
11	0xbccd3301	-0.025048735
12	0xbd775d6b	-0.060391825
13	0xbce787f3	-0.028263068
14	0xbd3af5a4	-0.045644417
15	0xbc97436e	-0.01846477
16	0x3b94cf1d	0.0045412914
17	0xbd328a60	-0.043588996
18	0xbd455470	-0.04817623
19	0xbd1f1b6a	-0.038844503
20	0xbd4a45d3	-0.049382996
21	0xbddc4b43	-0.107565425
22	0xbe24c678	-0.16091335
23	0xbe4bd7fb	-0.19906609
24	0xbe43a279	-0.19104947
25	0xbe390835	-0.18069537
26	0xbd56fb41	-0.05248571
27	0x3c5eefc3	0.013606968
28	0x3d23d46d	0.039997507
29	0xbbea664e	-0.007153309
30	0xbd3e564e	-0.046469025
31	0xbc55c205	-0.013046746
32	0x3be92bba	0.0071158083
33	0xbdfe858b	-0.12427815
34	0xbd9c330d	-0.07626925
35	0xbdb1b4a6	-0.08677034
36	0xbc55a2d3	-0.013039309
37	0x3d64230a	0.05569748
38	0x3da2a3a5	0.07941369
39	0xbb81a879	-0.003956851
40	0xbbdeb074	-0.006795937
41	0x3c9107ae	0.017703857
42	0xbd1da8ed	-0.03849118
43	0xbaac41e2	-0.0013142193
44	0xbd428bb0	-0.047496498
45	0xbdd35ba0	-0.103202105
46	0xbcc5525e	-0.024087127
47	0xbccebe6c	-0.025237285
48	0xbd715ea0	-0.058928132
49	0xbd887522	-0.06662966
50	0x3d310b61	0.043223742
51	0x3d059ac6	0.032618307
52	0xbda207fc	-0.07911679
53	0xbd86dc85	-0.065850295
54	0xbb9f64f9	-0.004864332
55	0xbd3dc0a4	-0.046326295
56	0x3c90e8cd	0.017689133
57	0x3d1a022a	0.03759972
58	0xbd069ea9	-0.032866154
59	0x3e48870c	0.19582766
60	0x3e379761	0.1792884
61	0x3e57735c	0.210401
62	0x3e91f8ad	0.28510037
63	0x3e7d42ce	0.24732515
64	0x3e324dcf	0.17412494
65	0x3df7f32a	0.12106927
66	0x3d418942	0.04725004
67	0x3de71579	0.112833925
68	0x3da41202	0.08011247
69	0xbd662f0a	-0.056197204
70	0xbd2c7727	-0.04210582
71	0xbd81d743	-0.06339886
72	0xbd740b09	-0.059580836
73	0xbdc43538	-0.09580463
74	0x3d1e0e95	0.038588125
75	0x3da1c965	0.07899741
76	0x3d9db1a6	0.076998994
77	0x3b88dbe6	0.0041766046
78	0x3d88fd8e	0.06688987
79	0xbda1b4c4	-0.078958064
80	0x39d8b790	0.00041335495
81	0xbdc55857	-0.0963599
82	0xbe0d3638	-0.13790214
83	0xbe4f944b	-0.20271413
84	0xbdad58aa	-0.08464177
85	0x3be229bb	0.0069019473
86	0x3d52dfdb	0.051483016
87	0xbcfe258b	-0.031023761
88	0xbcca693e	-0.024708387
89	0xbd2c2c2c	-0.042034313
90	0xbcf9b0f7	-0.030479891
91	0x3d04b3b4	0.03239794
92	0xbb8ac550	-0.0042349473
93	0x3c8cfa80	0.017209291
94	0xbd61da90	-0.055140078
95	0x3d440438	0.047855586
96	0x3a4679d7	0.0007571256
97	0xbcbc5c47	-0.02299322
98	0x3bf27b2d	0.0073999376
99	0x3d9e9b7b	0.07744499
100	0x3d0c6c59	0.034283016
101	0x3d04741f	0.032337304
102	0xbcd55204	-0.026040085
103	0xbd40782a	-0.046989597
104	0x3cf443f0	0.029817551
105	0xbdeeac3f	-0.11653947
106	0xbd9ea213	-0.07745757
107	0xbd3cd940	-0.046105623
108	0xbb6a96ad	-0.0035795376
109	0xbd85a2d4	-0.065251976
110	0xbda4e01b	-0.08050557
111	0xbd4b21e1	-0.049592856
112	0xbd25fe3d	-0.040525664
113	0x3c5d3215	0.01350071
114	0xbd6cc9e8	-0.05780974
115	0xbcb737ef	-0.022365538
116	0xbc3c7995	-0.011503597
117	0xbc82b847	-0.01595701
118	0xbc180523	-0.009278568
119	0x3d89c5a7	0.06727152
120	0x3ddd7268	0.10812837
121	0x3da6a355	0.08136622
122	0x3d5a9274	0.053362325
123	0x3db98670	0.09058845
124	0xbd59f503	-0.053212177
125	0x3d849c86	0.06475167
126	0xbbf5cd7d	-0.0075013028
127	0xbd11d7f9	-0.03560636
128	0xbcfd372e	-0.0309101
129	0xbd97fa5d	-0.074208
130	0xbd8d5467	-0.06900864
131	0xbd3bdf08	-0.045866996
132	0x3d2a647c	0.041599736
133	0x3d07f2af	0.033190425
134	0xbc9d262a	-0.019183237
135	0xbd434df9	-0.047681782
136	0x3d339e49	0.043852124
137	0x3d6ba2f0	0.057528436
138	0x3c6b320d	0.014355195
139	0x3cc5ccec	0.024145566
140	0xbd903586	-0.07041459
141	0xbe05f7f2	-0.13082865
142	0xbd49f6be	-0.049307577
143	0xbd9c6d77	-0.07638066
144	0x3d148474	0.03625913
145	0x3c8bd260	0.017068088
146	0x3c9fcfb6	0.019508224
147	0xbc63e034	-0.013908435
148	0x3d205489	0.03914312
149	0x3dcb92e9	0.0994013
150	0x3d25dc8d	0.040493537
151	0xbd09b193	-0.033616614
152	0xbd0ace8e	-0.033888392
153	0xbd8ce4de	-0.068795905
154	0x3cf9ec07	0.030508054
155	0x3d86daab	0.06584676
156	0x3dd2b936	0.102892324
157	0xbc86f71f	-0.016475258
158	0x3d8e4052	0.06945862
159	0xbbdd818b	-0.0067598275
160	0x3db776ea	0.08958228
161	0x3da4c8dd	0.08046124
162	0xbc114afb	-0.008867974
163	0xbc8d25b4	-0.017229892
164	0xbd794cbf	-0.060864206
165	0xbd2371fa	-0.03990362
166	0x3d4c97e1	0.04994953
167	0xbd49cc26	-0.049266957
168	0xbbb0ad9c	-0.0053917896
169	0xbd7d869c	-0.06189595
170	0xbd762b77	-0.060100045
171	0x3badc55f	0.0053030695
172	0xbd9a5fb3	-0.075377844
173	0xbc5e4321	-0.0135658095
174	0x3d09dbd7	0.03365692
175	0xbcdb42e0	-0.026765287
176	0xbd704f44	-0.058669344
177	0xbc434a9a	-0.011919642
178	0xbc855cc1	-0.01627958
179	0x3d1fb64b	0.038992207
180	0xbc9a4a94	-0.01883439
181	0xbd79cbfb	-0.060985547
182	0xbd8ee3bb	-0.0697703
183	0xbdb2d4fa	-0.08732028
184	0xbd26b0b9	-0.04069588
185	0x3bbe7842	0.0058126757
186	0xbdc60463	-0.096688055
187	0xbdfac1dc	-0.12244007
188	0xbdd2f2c7	-0.10300212
189	0x3cd454d0	0.025919348
190	0xbd06465b	-0.03278194
191	0x3d2fadab	0.042890232
192	0xbcf498b1	-0.029857965
193	0x3da410a6	0.08010988
194	0xbc673e9f	-0.014114051
195	0xbd0ac84f	-0.033882435
196	0x3d0a51cf	0.033769425
197	0x3d291645	0.041281004
198	0xbd26c9a6	-0.04071965
199	0xbd42a019	-0.047515962
200	0xbc7bb54e	-0.015363051
201	0xbca681b4	-0.02032552
202	0x3d4045c8	0.04694155
203	0x3c8000cf	0.015625386
204	0x3ca5d541	0.020243289
205	0x3d321738	0.043479174
206	0x3c940872	0.018070433
207	0x3c1938fe	0.009351967
208	0xbd11b6ce	-0.035574727
209	0x3dab1290	0.0835315
210	0x3c464a0d	0.012102616
211	0xbd9cc2cb	-0.07654341
212	0xbd993f9b	-0.07482835
213	0xbce9c829	-0.028537827
214	0xbd44412a	-0.047913708
215	0xbd1d4550	-0.03839618
216	0x3d2a822f	0.04162806
217	0x3dab715b	0.0837123
218	0x3dc6653b	0.09687277
219	0x3dc2bcf0	0.09508693
220	0x3da187e6	0.07887249
221	0xbc4e6381	-0.012596966
222	0xbd8ea747	-0.06965499
223	0x3cee2e88	0.029074922
224	0xbd99aa74	-0.075032145
225	0x3ccd0965	0.025028894
226	0xbd5db0c8	-0.05412367
227	0xbd4de1dd	-0.050264228
228	0xbd7b7dd0	-0.06139928
229	0xbd2aa17a	-0.041657902
230	0xbd80dd51	-0.06292213
231	0x3c1c4ac8	0.009539314
232	0xbcbb719f	-0.022881327
233	0xbd5c9580	-0.05385351
234	0xbc0dbe65	-0.008651351
235	0x3ce41276	0.027840834
236	0x3dd8465f	0.10560297
237	0xbd2db82b	-0.042411964
238	0xbd4b7711	-0.049674097
239	0xbd0e6f94	-0.034774378
240	0xbd7dc3d9	-0.061954353
241	0x3ceeae9f	0.029136
242	0xbcb8cb47	-0.022557868
243	0xbd5f56c3	-0.0545261
244	0x3d5fc918	0.054635137
245	0xbce9236b	-0.028459271
246	0xbc0af2e2	-0.008480759
247	0x3d89519c	0.06705019
248	0x3d14b043	0.03630091
249	0x3d90ff7a	0.07079978
250	0x3cc6b865	0.024257848
251	0xbca3cabd	-0.019994134
252	0xbd7786e7	-0.060431387
253	0xbcf33f9c	-0.029693417
254	0xbd05e61a	-0.032690145
255	0xba619708	-0.0008605574

layers.7.bias f4 [18]
0	0x3dc070fa	0.093965486
1	0x3da65609	0.08121879
2	0x3dc3aef5	0.09554855
3	0x3db37487	0.0876246
4	0x3da71b98	0.0815956
5	0x3d53cee7	0.05171099
6	0x3da50a2a	0.08058579
7	0x3d8b5031	0.06802405
8	0x3dae68bc	0.0851607
9	0x3d9b239d	0.07575152
10	0x3db2e257	0.08734577
11	0x3d8d4909	0.06898696
12	0x3dbca6c7	0.09211498
13	0x3d3c50eb	0.045975607
14	0x3d672c78	0.056438893
15	0x3d8e46b6	0.06947081
16	0x3da460e0	0.0802629
17	0x3d9a7e7d	0.07543657

exp_avg f4 [8, 1, 3, 3]
0	0xbf0370af	-0.51343817
1	0xbfb75d16	-1.4325283
2	0xc0a43022	-5.1308756
3	0x406a1dcc	3.6580687
4	0x3fbf6504	1.4952703
5	0xc058953a	-3.384108
6	0xbfeb5308	-1.8384714
7	0xc0bf75e1	-5.9831395
8	0xc134f8f2	-11.310778
9	0xbecb69c9	-0.39729145
10	0xbe9aed0e	-0.30258983
11	0x401b1094	2.4228868
12	0xbff5de63	-1.9208492
13	0xbf96a61d	-1.1769444
14	0x402b3830	2.6753044
15	0x400e7697	2.2259881
16	0x400f83ee	2.2424273
17	0x40b11ba4	5.534624
18	0xbea7ebce	-0.32797092
19	0xbe568e43	-0.20952706
20	0x3e2778a6	0.16354617
21	0xbffbf2b9	-1.9683448
22	0xc001fcd8	-2.0310574
23	0xbf8ec289	-1.1153117
24	0x4000b068	2.010767
25	0x3fa26f91	1.2690297
26	0x3ff19117	1.8872403
27	0xc0a630a9	-5.19344
28	0xc106a4ab	-8.415202
29	0xc10fa692	-8.978167
30	0xc0ac7a4a	-5.389928
31	0xc0ef805a	-7.484418
32	0xc0b74076	-5.726619
33	0xc06d8479	-3.7112105
34	0xbf9afc0a	-1.2108166
35	0x40906aa8	4.5130196
36	0x40523ac7	3.2848375
37	0x40801d59	4.0035825
38	0x40872986	4.223819
39	0x4013710b	2.3037746
40	0x4034344d	2.8156922
41	0x404892f3	3.133969
42	0x3fd68f3c	1.6762462
43	0x3fbeab1a	1.4895966
44	0x3fa3df0b	1.2802442
45	0x3fb46755	1.4094034
46	0x3f98ab15	1.192721
47	0x4037998c	2.8687468
48	0xc00a6e2a	-2.1629739
49	0xc02daa84	-2.7135324
50	0xbeebe76d	-0.46075
51	0x3f0ea1b0	0.55715466
52	0xbf8229bb	-1.0168985
53	0x3f9af0d1	1.2104741
54	0x4095c7de	4.680648
55	0x40a2d233	5.088159
56	0x40b43a13	5.632089
57	0x401ed0ad	2.4814866
58	0x4029c334	2.6525393
59	0x406056e1	3.5053027
60	0xbf39c83d	-0.72571164
61	0xbf88f736	-1.0700443
62	0xbf310447	-0.6914715
63	0x403a4d9a	2.9109864
64	0x400008bb	2.0005329
65	0x400ef2d3	2.2335708
66	0xc0845ec0	-4.136566
67	0xc0b514d4	-5.6587925
68	0xc0946a7f	-4.638
69	0xbff7ce23	-1.9359783
70	0xc0040ff2	-2.0634732
71	0x3f1264f6	0.57185304

exp_avg_sq f4 [8, 1, 3, 3]
0	0x43f9aae6	499.33514
1	0x4403b2f4	526.79614
2	0x440cbf20	562.9863
3	0x44131f4e	588.48914
4	0x4412e0b7	587.51117
5	0x4411c306	583.04724
6	0x43f07bb3	480.9664
7	0x44056556	533.5834
8	0x441ddcb0	631.44824
9	0x42ccc5f6	102.38664
10	0x42ec56ad	118.16929
11	0x431a08e6	154.03476
12	0x42aefccc	87.493744
13	0x42a247f5	81.14054
14	0x42cf75ca	103.73006
15	0x42f5a6c4	122.825714
16	0x42c60585	99.01078
17	0x430408b0	132.03394
18	0x41f73054	30.898598
19	0x420b093c	34.759018
20	0x42264d7f	41.57568
21	0x42057808	33.367218
22	0x42062c07	33.542995
23	0x420b91fc	34.892563
24	0x42157e6c	37.37346
25	0x41ed2917	29.645063
26	0x4209ceca	34.451942
27	0x430b62ea	139.38638
28	0x434878cb	200.47185
29	0x434f4cce	207.30002
30	0x42f28bc5	121.27299
31	0x4321d32e	161.82492
32	0x42fa1d71	125.0575
33	0x4290fe44	72.49661
34	0x4275bc98	61.434174
35	0x42ad1655	86.54362
36	0x4374be79	244.74403
37	0x4381287c	258.31628
38	0x43759fd0	245.62427
39	0x436bab3a	235.66885
40	0x43755a8e	245.35373
41	0x43686c03	232.42192
42	0x4327e303	167.88676
43	0x432c13f1	172.0779
44	0x4322a8bc	162.65912
45	0x42851443	66.53957
46	0x42a347a9	81.63996
47	0x42d55a69	106.67658
48	0x42131856	36.773766
49	0x423bd904	46.96193
50	0x4253a7ed	52.91399
51	0x421198b8	36.39914
52	0x41e4e5ec	28.612267
53	0x42324799	44.56992
54	0x43de53ac	444.6537
55	0x43f0da4f	481.70554
56	0x43ebfbbc	471.96667
57	0x43d71058	430.1277
58	0x43e7f788	463.93384
59	0x43e374b6	454.9118
60	0x439e9c5a	317.2215
61	0x43aa8be5	341.09293
62	0x43a5e200	331.76562
63	0x42508ec5	52.139423
64	0x425791eb	53.892498
65	0x427476ba	61.115944
66	0x426391b8	56.892303
67	0x429d10cd	78.532814
68	0x427e4a76	63.572716
69	0x41886261	17.048037
70	0x418f529e	17.91534
71	0x4135fa6f	11.373641

exp_avg f4 [8]
0	0x419fcdc4	19.975471
1	0x4191545e	18.166195
2	0x415526d3	13.321979
3	0xc1ef7f3f	-29.937132
4	0x4136e9b9	11.432061
5	0x40c1d16a	6.0568132
6	0x413f82b2	11.969408
7	0xc199cd71	-19.225313

exp_avg_sq f4 [8]
0	0x46c25ca5	24878.322
1	0x477f31d3	65329.824
2	0x46b3a573	22994.725
3	0x47a630c0	85089.5
4	0x469b3aff	19869.498
5	0x4735b641	46518.254
6	0x46972915	19348.541
7	0x47354132	46401.195

exp_avg f4 [8, 8, 3, 3]
0	0x3f095840	0.53650284
1	0x3e81d191	0.253552
2	0xbea41f93	-0.3205534
3	0x3f038a10	0.5138254
4	0x3c1eb95d	0.009687749
5	0xbf62260f	-0.8833932
6	0x3ed8c8f7	0.42340824
7	0xbe8571b0	-0.260633
8	0xbfa291ba	-1.2700722
9	0x4002724f	2.0382268
10	0x3ff55ef7	1.9169606
11	0x3fe4e0bc	1.7881083
12	0x3fa369da	1.2766678
13	0x3f9af29d	1.210529
14	0x3fa77c9d	1.3084904
15	0x3f2a46f3	0.6651451
16	0x3f3160c8	0.692883
17	0x3f7a4b00	0.9777069
18	0x4002d38e	2.0441623
19	0x3ff9db2b	1.952001
20	0x3fe6f671	1.8043958
21	0x3fb17e84	1.3866735
22	0x3fad0750	1.3517857
23	0x3fb74ea1	1.4320871
24	0x3f470bd9	0.77752453
25	0x3f523ab0	0.821208
26	0x3f8bfd30	1.0936642
27	0x4095540d	4.66651
28	0x40875a35	4.2297616
29	0x404b6006	3.1777358
30	0x402153f4	2.520749
31	0x3ff13ba8	1.8846331
32	0x3f68d7a0	0.9095402
33	0x3f5139e4	0.8172896
34	0x3e0f9259	0.14020671
35	0xbf1a38c7	-0.60242885
36	0xbe828421	-0.2549143
37	0x3f073dfe	0.5282897
38	0x3f5e3255	0.8679555
39	0xbef96f4e	-0.4871773
40	0x3ebfe1d8	0.37476993
41	0x3f4a461d	0.79013234
42	0xbf25420f	-0.6455392
43	0x3e27318d	0.16327496
44	0x3f116796	0.56798685
45	0x40082732	2.1273923
46	0x40000fe3	2.0009696
47	0x3ff11aa0	1.883625
48	0x3f9981f0	1.1992779
49	0x3f88b98b	1.0681623
50	0x3f903cb7	1.1268529
51	0x3f3cfc80	0.73822784
52	0x3f25dce1	0.6479016
53	0x3f51a5f8	0.81893873
54	0x3d267701	0.040640835
55	0x3f246f74	0.64232564
56	0x3f8db08c	1.1069503
57	0xbef7196a	-0.48261577
58	0x3e136d81	0.14397241
59	0x3f2101a1	0.6289311
60	0xbeebcce7	-0.46054766
61	0x3d4ce477	0.05002257
62	0x3eba820e	0.3642735
63	0x40149473	2.3215606
64	0x3ff9c7dd	1.9514118
65	0x3fae68e0	1.3625755
66	0x3f329c06	0.6976932
67	0x3e48d625	0.1961294
68	0xbe7fe94b	-0.24991338
69	0x3f42fc0f	0.7616586
70	0x3e361fc3	0.17785554
71	0xbe765c00	-0.24058533
72	0x3f08e598	0.5347533
73	0x3e185430	0.14875865
74	0xbf106c30	-0.5641508
75	0x3f02dd0b	0.51118535
76	0xbdf34528	-0.11878425
77	0xbf971aa5	-1.1805006
78	0x3eef0abb	0.46687874
79	0xbea44a0c	-0.32087743
80	0xbfbe6a3c	-1.487617
81	0x40195fbb	2.396468
82	0x4014fb3e	2.3278346
83	0x40148e0f	2.3211706
84	0x3fbc1d9b	1.4696535
85	0x3fba456a	1.4552433
86	0x3fda9d59	1.7079269
87	0x3f3f5a77	0.74747413
88	0x3f48e8da	0.78480303
89	0x3f972ba6	1.1810195
90	0x401a49a5	2.410745
91	0x4017a2f8	2.3693218
92	0x4014bdca	2.3240838
93	0x3fce07ae	1.6096094
94	0x3fd1276b	1.6340154
95	0x3feca3db	1.8487505
96	0x3f5f9136	0.8733095
97	0x3f712720	0.94200325
98	0x3fa834d5	1.3141123
99	0x40ad1f5f	5.4100795
100	0x40a016d5	5.002787
101	0x407ec375	3.9806798
102	0x40365943	2.849198
103	0x400d9a14	2.2125292
104	0x3fa241f2	1.2676375
105	0x3f4af9ee	0.7928761
106	0x3d3f0df8	0.04664418
107	0xbf36c96a	-0.71401083
108	0xbe049640	-0.12947941
109	0x3f3ff6ee	0.7498616
110	0x3fa1cd03	1.264069
111	0xbed58762	-0.4170485
112	0x3f0aef64	0.5427153
113	0x3f92134a	1.1412137
114	0xbf269c82	-0.6508256
115	0x3e74bbb1	0.23899724
116	0x3f4dbd30	0.803668
117	0x401df234	2.467908
118	0x4019a0e5	2.4004452
119	0x401af31f	2.421089
120	0x3faa55f0	1.3307476
121	0x3f9ce1fb	1.2256464
122	0x3fb85e80	1.4403839
123	0x3f51453f	0.81746286
124	0x3f31fc78	0.6952586
125	0x3f73af45	0.95189315
126	0x3e17a243	0.14807992
127	0x3f57a713	0.8423931
128	0x3fc28770	1.5197582
129	0xbf020c74	-0.5080025
130	0x3e2bca2b	0.1677634
131	0x3f55b762	0.83482945
132	0xbf00b09e	-0.50269496
133	0x3c915bfd	0.017744059
134	0x3edfd416	0.43716496
135	0x4026e5de	2.60778
136	0x401204e2	2.281548
137	0x3fe33ea4	1.7753491
138	0x3f1c544b	0.6106612
139	0x3da95aef	0.08269297
140	0xbea34762	-0.31890398
141	0x3f42b88c	0.76062846
142	0x3d932796	0.07185285
143	0xbec731d3	-0.389052
144	0xbf3e4889	-0.7432943
145	0x3e53372f	0.2062652
146	0x3fd0c0c1	1.6308824
147	0xbfbed0af	-1.4907435
148	0xbf3ab9da	-0.72939837
149	0x3f411059	0.7541557
150	0xbfe06204	-1.7529912
151	0xbfa29a2d	-1.2703301
152	0xbe17aaed	-0.14811297
153	0xbe52f862	-0.20602563
154	0xbf2905a6	-0.66024244
155	0xbf862123	-1.0478863
156	0x3e84b95f	0.25922677
157	0x3e23697e	0.15958211
158	0xbd5a2535	-0.05325814
159	0x3eea48a3	0.45758542
160	0x3ebbca1b	0.36677632
161	0x3e321235	0.17389758
162	0xbe1239ea	-0.14279905
163	0xbf09650b	-0.53669804
164	0xbf723123	-0.94606227
165	0x3e5ee06c	0.21765298
166	0x3e09b6c1	0.13448621
167	0xbde0d675	-0.109784044
168	0x3eb4e455	0.35330454
169	0x3ea04b61	0.3130751
170	0x3dae087a	0.084977105
171	0x3e23fc5d	0.16014238
172	0x3ec49d50	0.3840127
173	0x3e2714ed	0.16316576
174	0xb617a2f3	-2.2595602e-06
175	0x3f256e7b	0.64621705
176	0x3f362e60	0.7116451
177	0xb582f6e3	-9.757608e-07
178	0x3ecf28b9	0.40460756
179	0x3e893ebc	0.26805675
180	0x4006816b	2.101649
181	0x3e7b7139	0.2455491
182	0xbe5d5527	-0.21614514
183	0x400c1243	2.1886146
184	0xbde2f27c	-0.110814065
185	0xbf01a7e4	-0.50646806
186	0x3fcc9067	1.5981568
187	0xbf54995b	-0.830465
188	0xbf8a979e	-1.082752
189	0x3d948cce	0.07253419
190	0xbea48e8c	-0.32140005
191	0xbf1f3c13	-0.6220104
192	0x3eb39115	0.35071626
193	0x3ea05cb8	0.3132074
194	0x3ea70e20	0.32627964
195	0x3f0e71bd	0.556423
196	0x3ed8ebdc	0.42367446
197	0x3ed87dce	0.4228348
198	0x40147243	2.319474
199	0x3f7f8da4	0.998255
200	0x3ecef8dc	0.4042424
201	0x4010a68f	2.260166
202	0x3f4454da	0.76691973
203	0x3ee6aabb	0.45052132
204	0x3fa1be64	1.2636228
205	0xbeaa98ee	-0.333198
206	0xbeec6309	-0.46169308
207	0xbc1f6796	-0.009729287
208	0x3f265644	0.6497538
209	0x3f31e6f5	0.6949304
210	0x3b79ed87	0.0038135962
211	0x3ef719f2	0.48261982
212	0x3ecdc17c	0.4018668
213	0x3ef10da5	0.47080722
214	0x3ed06dc8	0.40708756
215	0x3e1d0915	0.15335496
216	0x3f27cc24	0.6554587
217	0xbe134cb2	-0.14384726
218	0xbfb16385	-1.3858496
219	0x3f0652fa	0.5247036
220	0xbf0f081b	-0.5587174
221	0xc00841a6	-2.1290069
222	0x3da78630	0.08179891
223	0xbf84fb17	-1.0389127
224	0xc01c76eb	-2.4447582
225	0x40269ecf	2.603443
226	0x40263db6	2.5975165
227	0x403a0284	2.9064035
228	0x3fdb383f	1.712654
229	0x3fe9038d	1.8204209
230	0x401da93d	2.4634545
231	0x3fa20367	1.2657288
232	0x3fbabb11	1.4588338
233	0x400cfd54	2.202962
234	0x402b8bef	2.6804159
235	0x402cc2f2	2.6993985
236	0x403cc9f9	2.9498274
237	0x3feffc84	1.8748937
238	0x4000e418	2.0139217
239	0x40269ea4	2.6034327
240	0x3fb4f26d	1.4136482
241	0x3fd058ec	1.6277137
242	0x401590ea	2.3369699
243	0x40b1cf74	5.556574
244	0x40996992	4.794137
245	0x40649bf2	3.5720181
246	0x402e2cbd	2.7214806
247	0x3fe2e9f2	1.7727644
248	0x3f4d5c42	0.802189
249	0x3fa00a8d	1.250322
250	0x3e82e70f	0.2556691
251	0xbefa03c8	-0.4883101
252	0xbe3c6317	-0.18397175
253	0x3f739c83	0.9516069
254	0x3fe9c841	1.8264238
255	0xbf0c0f84	-0.54711175

exp_avg_sq f4 [8, 8, 3, 3]
0	0x4201300c	32.29692
1	0x4206ba3e	33.681877
2	0x42098a99	34.38535
3	0x421aff0d	38.749073
4	0x421c4f9b	39.07774
5	0x421d41a9	39.31412
6	0x420a0b5f	34.511105
7	0x4208a955	34.165363
8	0x420ae008	34.71878
9	0x41d13f29	26.15584
10	0x42256158	41.345062
11	0x42347b4a	45.1204
12	0x41de62e2	27.798283
13	0x423e82b9	47.62766
14	0x42549f03	53.155285
15	0x41c079d8	24.059494
16	0x42285cd6	42.09066
17	0x423d0ed9	47.2645
18	0x41ca83e9	25.31441
19	0x421fee3c	39.98265
20	0x422dc121	43.438602
21	0x41d894a9	27.072588
22	0x42380c56	46.012047
23	0x424c841a	51.129005
24	0x41bc2681	23.5188
25	0x4223a609	40.912144
26	0x42377417	45.86337
27	0x4292fd67	73.49493
28	0x429fcc01	79.898445
29	0x428e82f1	71.255745
30	0x426bb277	58.924282
31	0x428eca53	71.395164
32	0x428fdc99	71.930855
33	0x423b2b75	46.79244
34	0x42747ab4	61.119827
35	0x4283d673	65.918846
36	0x41a53da8	20.655106
37	0x42b215ad	89.042336
38	0x42e395db	113.79269
39	0x41d6c4e9	26.846148
40	0x42e29b23	113.303
41	0x430f7a3c	143.47748
42	0x41d8d0c0	27.101929
43	0x42d8ea57	108.457695
44	0x43090ae0	137.04248
45	0x41d77033	26.929785
46	0x42285202	42.080086
47	0x42385453	46.082348
48	0x41da35f6	27.276348
49	0x423a77e7	46.617092
50	0x4251ba22	52.43177
51	0x41b6f385	22.868906
52	0x421f44b9	39.817112
53	0x4234af48	45.171173
54	0x418b1e8c	17.389915
55	0x4273c18e	60.93902
56	0x4297491d	75.6428
57	0x41a7f97d	20.99682
58	0x428c9a00	70.30078
59	0x42ad755b	86.72921
60	0x4189c4b5	17.221048
61	0x42684603	58.06837
62	0x42914a25	72.64481
63	0x422097fa	40.148415
64	0x424605ff	49.505856
65	0x42442057	49.03158
66	0x420d0036	35.250206
67	0x423de302	47.471687
68	0x424a10db	50.51646
69	0x41d844f9	27.033678
70	0x420f2250	35.78351
71	0x4218f841	38.242435
72	0x422d16bb	43.272198
73	0x42336081	44.844242
74	0x42364ef1	45.57709
75	0x42508536	52.13009
76	0x4251bd09	52.434605
77	0x425279d1	52.61896
78	0x423a84b7	46.629604
79	0x4238a2fb	46.15916
80	0x423a2922	46.54017
81	0x42189395	38.144123
82	0x42693b72	58.308052
83	0x42824a6f	65.14538
84	0x422499d5	41.150227
85	0x4286dd22	67.4319
86	0x42999908	76.79889
87	0x420dd48a	35.457558
88	0x426f2515	59.786213
89	0x42894577	68.63567
90	0x421396e3	36.89735
91	0x426144b5	56.317097
92	0x427a5606	62.584007
93	0x421febc5	39.980244
94	0x42822548	65.072815
95	0x4293acf3	73.83779
96	0x420a5b18	34.58896
97	0x42682008	58.03128
98	0x42850d16	66.52556
99	0x42cb5498	101.66522
100	0x42dc8a75	110.270424
101	0x42c6d7b7	99.42132
102	0x42a55264	82.66092
103	0x42c6af2d	99.34214
104	0x42c8230c	100.06845
105	0x4284937e	66.28807
106	0x42ac0779	86.014595
107	0x42b9a58b	92.823326
108	0x41fe3e4c	31.780418
109	0x4300757a	128.4589
110	0x43305cc9	176.36244
111	0x422bd82b	42.9611
112	0x4323e9cd	163.91328
113	0x435d74e2	221.45657
114	0x42263802	41.554695
115	0x431baeb4	155.68243
116	0x43520a20	210.03955
117	0x421c8941	39.134037
118	0x426d7b90	59.370667
119	0x42853740	66.60791
120	0x4221862e	40.381035
121	0x42845295	66.16129
122	0x4297b771	75.858284
123	0x4206b8d9	33.680515
124	0x4262c1e2	56.68934
125	0x42837b97	65.74139
126	0x41e1bee4	28.218208
127	0x42b05add	88.17747
128	0x42e73ff7	115.62493
129	0x4208dc86	34.215355
130	0x42cc96a5	102.29423
131	0x4304d8d8	132.84705
132	0x41d72453	26.892736
133	0x42a80d2c	84.02573
134	0x42de4314	111.13101
135	0x4260f174	56.235794
136	0x4289a8b4	68.8295
137	0x42897d25	68.74442
138	0x42495f19	50.34287
139	0x4285e6e5	66.950966
140	0x428ee2a7	71.44268
141	0x421976d2	38.366035
142	0x424a62ef	50.596615
143	0x425a8bd8	54.636566
144	0x42e01f8a	112.0616
145	0x42d88181	108.25294
146	0x42e01ea6	112.05986
147	0x42f12152	120.56508
148	0x42e8e286	116.44243
149	0x42eaa451	117.32093
150	0x42c5dfda	98.93721
151	0x42c050ce	96.15782
152	0x42bef008	95.46881
153	0x3f275e1c	0.65377975
154	0x40819cee	4.0504065
155	0x40cbe2fb	6.3714576
156	0x3eb5c252	0.35499817
157	0x40698901	3.648987
158	0x40aebe40	5.460724
159	0x3f36f12b	0.71461743
160	0x402cd0a0	2.7002335
161	0x4080a47f	4.02008
162	0x3f178c75	0.59198695
163	0x4078216b	3.8770397
164	0x40bd82d5	5.9222207
165	0x3e8756d8	0.26433444
166	0x40660a1e	3.5943675
167	0x40a7f52b	5.2486777
168	0x3ef33a8e	0.4750561
169	0x402b856c	2.6800184
170	0x407ebb1f	3.980171
171	0x3e495e2c	0.1966483
172	0x3ef42f19	0.47692183
173	0x3f0bd8d4	0.5462773
174	0x365306a5	3.1445318e-06
175	0x3f5af607	0.8553166
176	0x3f8d6c8f	1.1048754
177	0x36b9a350	5.5324417e-06
178	0x3ec349a8	0.38142133
179	0x3e9ddfc0	0.3083477
180	0x43eceaf4	473.83557
181	0x438ea5b4	285.29456
182	0x438fbdbf	287.4824
183	0x43fddd57	507.72922
184	0x4397b7f4	303.43713
185	0x4398fc33	305.9703
186	0x43dfce5e	447.61224
187	0x4388c081	273.50394
188	0x4389e193	275.7623
189	0x3ead4e1b	0.33848652
190	0x404a3151	3.15926
191	0x4099f144	4.8107014
192	0x3ea18812	0.31549126
193	0x404cb6b6	3.1986518
194	0x4099e7af	4.8095317
195	0x3f4f4672	0.80966866
196	0x400d4de7	2.2078798
197	0x40582f72	3.3778958
198	0x431437d5	148.2181
199	0x42a51683	82.54397
200	0x42a5bc4c	82.86777
201	0x432d5c4f	173.36058
202	0x42be194e	95.04942
203	0x42be7fbc	95.24948
204	0x43209024	160.56305
205	0x42b527d0	90.57776
206	0x42b56ccf	90.71252
207	0x396c8bef	0.00022558843
208	0x3f7a2676	0.97714937
209	0x3fa228fc	1.2668757
210	0x3a291172	0.0006449438
211	0x3f2b5b5a	0.66936266
212	0x3f340058	0.70313025
213	0x3e57e2f2	0.21082667
214	0x3ebccb80	0.36874008
215	0x3ebb146d	0.3653902
216	0x42b0430f	88.130974
217	0x42b2db95	89.42887
218	0x42b358bb	89.6733
219	0x42c21e3e	97.05907
220	0x42c08c34	96.273834
221	0x42c0aaa3	96.333275
222	0x429dd6a6	78.919235
223	0x429d5b49	78.67829
224	0x42a02f51	80.092415
225	0x42ac0074	86.000885
226	0x42ff4c19	127.64863
227	0x43131d44	147.11432
228	0x42b7d5a8	91.9173
229	0x430be245	139.88387
230	0x43222641	162.14943
231	0x4294dbb3	74.4291
232	0x42e48bc4	114.27298
233	0x430621f5	134.13264
234	0x42a6b2b3	83.34902
235	0x42f66484	123.19632
236	0x430d431d	141.26216
237	0x42b20de1	89.02711
238	0x4306ef5b	134.93498
239	0x431c0960	156.03662
240	0x4291450f	72.63488
241	0x42de6e62	111.21559
242	0x43025cb2	130.36209
243	0x43327381	178.45119
244	0x43457c67	197.48595
245	0x433bf5d3	187.96025
246	0x431c54d8	156.33142
247	0x433bebc3	187.92094
248	0x4341dba7	193.85802
249	0x42f5722a	122.72298
250	0x431825ed	152.14815
251	0x4321fc6c	161.98602
252	0x42f51c64	122.55545
253	0x43ac919d	345.1376
254	0x43f4d2e8	489.6477
255	0x4314ba54	148.72784

exp_avg f4 [8]
0	0xbdad79fe	-0.08470534
1	0x3c25ea3d	0.010126648
2	0xbf137189	-0.57595116
3	0xbd8b7306	-0.06809048
4	0x3e734a2c	0.23758763
5	0x410b6102	8.711184
6	0xc1890497	-17.127241
7	0xbe0c8fa8	-0.13726676

exp_avg_sq f4 [8]
0	0x42f24e6f	121.15319
1	0x432cce2b	172.80534
2	0x44317f69	709.9908
3	0x43e45428	456.65747
4	0x4375adf9	245.67958
5	0x457b696f	4022.5896
6	0x461bff6f	9983.858
7	0x42dddc48	110.93024

exp_avg f4 [1, 8, 3, 3]
0	0x40348a77	2.8209512
1	0x409e395a	4.944501
2	0x41040dbe	8.253355
3	0xbdc4a55b	-0.096018516
4	0x3ffd1cab	1.9774374
5	0x40bd94a3	5.924394
6	0x4025c1ad	2.589946
7	0x408077e8	4.014637
8	0x40df0c11	6.970223
9	0x3f6e6fe0	0.9313946
10	0x408a3608	4.3190956
11	0x410ff488	8.9972
12	0xbf74c624	-0.9561484
13	0x401bdbe1	2.4352953
14	0x40ecdc80	7.4019165
15	0x4020262e	2.5023303
16	0x40a1631a	5.0433474
17	0x4108d978	8.553093
18	0x404029c7	3.00255
19	0x3ef6113b	0.4806002
20	0xc09d4335	-4.914454
21	0x4062d91d	3.5445015
22	0x3f1063f1	0.564025
23	0xc0a5a2a3	-5.176103
24	0x4075e229	3.8419287
25	0x3f934a84	1.1507115
26	0xc038b47e	-2.8860164
27	0x40ffe798	7.9970207
28	0x413da386	11.852423
29	0x4184c766	16.597363
30	0x3f9161ee	1.1358011
31	0x40a493d5	5.143046
32	0x41345948	11.271797
33	0x402577a6	2.5854278
34	0x40b7887c	5.7354107
35	0x412be8ce	10.744337
36	0x41176a71	9.463487
37	0x411d328d	9.8248415
38	0x4130d0c8	11.050972
39	0x404a2813	3.158696
40	0x4059aa88	3.4010334
41	0x40abd14d	5.3692994
42	0x40592766	3.3930297
43	0x4057b7c2	3.3705907
44	0x40a0dd1e	5.026992
45	0x409949cb	4.790258
46	0x40c95d06	6.2926054
47	0x40a84928	5.25893
48	0x410e7f7a	8.906122
49	0x412a5e95	10.648091
50	0x410d39b9	8.826592
51	0x406110f9	3.516661
52	0x40a959c3	5.2922072
53	0x407ba11a	3.9317079
54	0x406fe4d7	3.7483423
55	0x40b4e67f	5.6531367
56	0x40f11d1b	7.534803
57	0x402bbc5c	2.6833715
58	0x4095d6f8	4.6824913
59	0x40d50609	6.6569867
60	0x3ffe347e	1.9859769
61	0x4050bc19	3.2614806
62	0x40956fe3	4.669908
63	0x4180f780	16.12085
64	0x418da08e	17.703396
65	0x419937b7	19.152205
66	0x40947bcc	4.640112
67	0x40c2f49b	6.092359
68	0x410f1471	8.942491
69	0x401c19d7	2.4390771
70	0x405ea7ac	3.4789839
71	0x40cb608d	6.355536

exp_avg_sq f4 [1, 8, 3, 3]
0	0x45036673	2102.403
1	0x455257f4	3365.497
2	0x4580ebb7	4125.4644
3	0x4504d8e2	2125.5552
4	0x4557c2f0	3452.1836
5	0x4584dc67	4251.5503
6	0x44cf0adb	1656.3392
7	0x45280faf	2688.9802
8	0x4552d165	3373.0872
9	0x45177544	2423.329
10	0x4592d59f	4698.7026
11	0x45ca4c4c	6473.537
12	0x45166232	2406.1372
13	0x459332fd	4710.3735
14	0x45cb7435	6510.526
15	0x44dfacf3	1789.4047
16	0x455ac853	3500.5203
17	0x459a7c90	4943.5703
18	0x42ed2d0f	118.588005
19	0x43111550	145.08325
20	0x43434c8d	195.29903
21	0x42f7a5ec	123.824066
22	0x4310a34d	144.6379
23	0x43429643	194.58696
24	0x42b07212	88.22279
25	0x42c03970	96.11218
26	0x42f61582	123.04201
27	0x457948c2	3988.5474
28	0x45de31f0	7110.242
29	0x4611aaef	9322.733
30	0x45842676	4228.8076
31	0x45edbf32	7607.8994
32	0x461bc02d	9968.044
33	0x45530b89	3376.721
34	0x45bebcd4	6103.6035
35	0x45fdd13c	8122.1543
36	0x44c80261	1600.0743
37	0x45223977	2595.5916
38	0x4554b235	3403.138
39	0x44cccf9e	1638.488
40	0x452c0bb4	2752.7314
41	0x45633948	3635.58
42	0x44a4418e	1314.0486
43	0x4509a053	2202.0203
44	0x45386c61	2950.7737
45	0x43b8315b	368.3856
46	0x43a7140e	334.15668
47	0x43846e55	264.86197
48	0x4407d160	543.2715
49	0x43f7ea6f	495.8315
50	0x43b32f5e	358.37006
51	0x43a64f28	332.6184
52	0x438b4ed5	278.61588
53	0x433f5181	191.31837
54	0x42ed5c38	118.680115
55	0x43241efd	164.12105
56	0x435327f2	211.15604
57	0x42cb22da	101.56807
58	0x430c51c0	140.31934
59	0x433aba07	186.72667
60	0x42ab1cf3	85.55654
61	0x42cdf5f2	102.98036
62	0x42fa645f	125.19604
63	0x45052a21	2130.633
64	0x4560c0a6	3596.0405
65	0x4593ac1d	4725.514
66	0x450a0a98	2208.662
67	0x45791856	3985.521
68	0x45a717f9	5346.9966
69	0x44f4e444	1959.1333
70	0x455d2812	3538.5044
71	0x45954cc2	4777.5947

exp_avg f4 [18, 1062]
0	0xbecde9c2	-0.40217406
1	0xbf2df30d	-0.6794899
2	0xbf261e21	-0.64889723
3	0xbebf3544	-0.37345326
4	0xbdc29f63	-0.09503057
5	0xbd53fae7	-0.05175295
6	0xbe8042aa	-0.2505086
7	0xbed3deeb	-0.4138101
8	0xbeb4049e	-0.35159773
9	0xbdc4f81a	-0.09617634
10	0x3deb2325	0.11481313
11	0x3e3a19fe	0.18173978
12	0x3e1707b8	0.14749038
13	0x3d5cc380	0.05389738
14	0xbd549e51	-0.051908795
15	0xbe18b229	-0.14911713
16	0xbe71b93c	-0.23605818
17	0xbe8b5697	-0.272145
18	0xbe739aa3	-0.23789458
19	0xbe320313	-0.17383985
20	0xbdcfb31d	-0.10141585
21	0xbc962a68	-0.018330768
22	0x3d9679a8	0.07347423
23	0x3e3fe898	0.18741071
24	0x3e8eeb1e	0.27913755
25	0x3e8984ae	0.2685904
26	0x3e3c1a6c	0.18369454
27	0x3e01e0e5	0.12683447
28	0x3dcbef4e	0.09957753
29	0xbd68a5f2	-0.056798883
30	0xbdf6c0da	-0.12048502
31	0xbe425b6f	-0.18980192
32	0xbe67ddff	-0.22643279
33	0xbdb99baf	-0.090628974
34	0x3dc1a677	0.09455579
35	0x3e04010d	0.12891026
36	0xbca426ca	-0.020038027
37	0xbe1a64f2	-0.1507757
38	0xbe11713b	-0.1420335
39	0x3d92ed82	0.07174207
40	0x3e91580b	0.28387484
41	0x3e624013	0.22094755
42	0x3e1fa470	0.15590072
43	0x3d4d7a4d	0.050165463
44	0xbd9c4ab3	-0.07631435
45	0xbdad1a29	-0.08452255
46	0xb90ef38e	-0.00013632906
47	0x3cff716d	0.031182015
48	0xbcb809d2	-0.02246562
49	0xbd8624b7	-0.065499716
50	0xbd1cefce	-0.038314633
51	0x3b9f14b7	0.0048547643
52	0x3cb150b0	0.02164492
53	0x3c964c12	0.01834682
54	0x3c8f2786	0.0174749
55	0x3c8f27ac	0.017474972
56	0x3c8f27f7	0.017475111
57	0x3c8c14d0	0.017099768
58	0x3c383072	0.011242019
59	0x3e0459e9	0.12924923
60	0x3db60560	0.08887744
61	0x3dff34ff	0.1246128
62	0x3ec214fb	0.37906632
63	0x3f17bca8	0.5927224
64	0x3f0cfaea	0.55070364
65	0x3e7345f0	0.23757148
66	0xbc59206a	-0.013252357
67	0x3c2c592a	0.010519305
68	0x3e98cb78	0.29842734
69	0x3f02ffb7	0.5117144
70	0x3f01113e	0.50416934
71	0x3ea9ccb1	0.3316398
72	0x3d879ba2	0.066214815
73	0xbe274ab8	-0.16337097
74	0xbeaf76d7	-0.34270355
75	0xbefcca55	-0.49373117
76	0xbf11c9d5	-0.56948596
77	0xbf0e56b8	-0.5560107
78	0xbf013605	-0.5047305
79	0xbee23b96	-0.44186085
80	0xbeb98053	-0.36230716
81	0xbe73099e	-0.23734137
82	0xbd8b82ac	-0.06812033
83	0x3dbdbbd2	0.092643395
84	0x3ddbd2dd	0.10733578
85	0xbd14bd47	-0.03631332
86	0xbe30a5fa	-0.17250815
87	0xbeb32a91	-0.34993413
88	0xbf10b518	-0.5652633
89	0xbf2b3c32	-0.66888726
90	0xbf3a4c8f	-0.7277307
91	0xbf3ba2b5	-0.73295146
92	0xbeeb751e	-0.4598779
93	0xbd9468a3	-0.0724652
94	0x3dc835c1	0.09775878
95	0x3ca48438	0.020082578
96	0xbde2892d	-0.110613205
97	0xbdc3a580	-0.09553051
98	0x3e401f55	0.18761952
99	0x3ecf5a53	0.404986
100	0x3e5459d9	0.20737399
101	0x3cf1e4eb	0.029528102
102	0xbe191c92	-0.14952305
103	0xbea45d8f	-0.3210263
104	0xbe8a5fb7	-0.2702615
105	0xbd849ab5	-0.064748205
106	0x3d0025ec	0.031286165
107	0xbd5590af	-0.052139934
108	0xbe031c1e	-0.12803695
109	0xbda92609	-0.08259208
110	0xbb4e1fb1	-0.0031451995
111	0x3d051fdf	0.032501098
112	0x3d0593a2	0.032611497
113	0x3d03c6b3	0.032171916
114	0x3d03c6b7	0.03217193
115	0x3d03c705	0.03217222
116	0x3d00b5be	0.031423323
117	0x3cb39cff	0.021925448
118	0x3f18bf17	0.5966658
119	0x3f5bc202	0.8584291
120	0x3f6930bb	0.9108998
121	0x3f7db10d	0.99098283
122	0x3f85397a	1.0408165
123	0x3f76a261	0.9634152
124	0x3f373bc5	0.71575576
125	0x3eead5e5	0.45866314
126	0x3ec0c175	0.37647596
127	0x3ef38614	0.4756323
128	0x3f062be7	0.5241074
129	0x3ed46b92	0.4148832
130	0x3e2f12b7	0.17096983
131	0xbe2a8301	-0.16651537
132	0xbec9c163	-0.39405355
133	0xbf04457d	-0.5166853
134	0xbf16cb93	-0.5890438
135	0xbf1619ba	-0.58633006
136	0xbf08a8fe	-0.5338286
137	0xbeeebb63	-0.4662734
138	0xbecee188	-0.40406442
139	0xbeab2aea	-0.33431178
140	0xbe4f4aaa	-0.20243326
141	0xba3ae9e4	-0.00071301893
142	0x3e70d639	0.2351922
143	0x3e90737a	0.28213102
144	0x3e2925d8	0.16518342
145	0x3a38c03f	0.000704769
146	0xbe8851ae	-0.26624817
147	0xbef6a3c8	-0.4817183
148	0xbf0e6320	-0.5562
149	0xbf144e46	-0.57931936
150	0xbf114e95	-0.5676053
151	0xbe88fdf4	-0.2675625
152	0x3e27264c	0.16323203
153	0x3ed86f97	0.42272636
154	0x3ed148c8	0.4087584
155	0x3e82a841	0.25518993
156	0x3db9892e	0.09059368
157	0x3ddf6a81	0.10908986
158	0x3e20f7b2	0.15719488
159	0xbde6c636	-0.112682745
160	0xbe9a99b4	-0.3019539
161	0xbed9fb71	-0.42574647
162	0xbf0bcfc6	-0.5461391
163	0xbec887d1	-0.3916612
164	0xbdbab3f8	-0.091163576
165	0x3d35e582	0.04440833
166	0xbd6e35e2	-0.058156855
167	0xbe202d1a	-0.15642205
168	0xbdeb1d0f	-0.11480152
169	0xbcb6b5c1	-0.022303464
170	0x3cc7889f	0.024357138
171	0x3d03fb8f	0.032222327
172	0x3d09c530	0.03363532
173	0x3d09c584	0.03363563
174	0x3d09c67d	0.03363656
175	0x3d0635af	0.03276604
176	0x3cbcb7d4	0.023036875
177	0x3e71be7b	0.23607819
178	0x3ecb5699	0.39714506
179	0x3ebe5e28	0.3718121
180	0x3e6c2531	0.23061062
181	0x3da4e6b5	0.080518164
182	0xbb47f068	-0.0030508284
183	0xbd2db38b	-0.042407554
184	0xbe1d0c22	-0.1533666
185	0xbe546790	-0.20742631
186	0xbe421094	-0.18951637
187	0xbe280ac9	-0.16410364
188	0xbe5d1dcd	-0.215934
189	0xbec7ef2f	-0.3904967
190	0xbf2bc682	-0.67099774
191	0xbf55edeb	-0.8356616
192	0xbf59f037	-0.85132164
193	0xbf43a336	-0.76420915
194	0xbf1d4ae4	-0.614424
195	0xbef48c66	-0.47763366
196	0xbec947fe	-0.39312738
197	0xbeb001ac	-0.34376276
198	0xbe9609ed	-0.29304448
199	0xbe3bddd0	-0.18346334
200	0xbc90472f	-0.017612068
201	0x3e3017f4	0.17196637
202	0x3e5e2a68	0.21695864
203	0x3e3ef253	0.18647127
204	0x3e1301e5	0.14356191
205	0xbbe0bf20	-0.0068587214
206	0xbd6d433e	-0.057925455
207	0xbc2f1fb1	-0.010688708
208	0x3cd7d1a4	0.026345082
209	0x3d65ea3f	0.056131598
210	0x3e952797	0.29131767
211	0x3f14f9d2	0.58193696
212	0x3f33ec0f	0.7028207
213	0x3f145b9a	0.5795227
214	0x3ebda8da	0.37042886
215	0x3dd9d31d	0.1063597
216	0xbd1a85fc	-0.037725434
217	0xbdabda81	-0.08391286
218	0xbe9c010c	-0.3046955
219	0xbede0521	-0.43363288
220	0xbefda0e6	-0.49536818
221	0xbf0cbdee	-0.5497731
222	0xbea10c78	-0.31454825
223	0x3cb47a13	0.022030866
224	0x3e19215b	0.1495413
225	0x3ce5b1e3	0.028038925
226	0xbdbd5159	-0.092440315
227	0xbda75eb6	-0.081723616
228	0xbc57d423	-0.013173136
229	0x3cba980b	0.022777578
230	0x3d0046bb	0.031317454
231	0x3d09c5a7	0.03363576
232	0x3d09c539	0.03363535
233	0x3d09c547	0.033635404
234	0x3d06359b	0.032765966
235	0x3cbcb8d1	0.023037346
236	0xbdff6de0	-0.12472129
237	0xbe1788d8	-0.14798295
238	0xbe1f5d77	-0.15562998
239	0xbea1f182	-0.31629568
240	0xbeeff97f	-0.46870038
241	0xbee38c75	-0.44443098
242	0xbec59ebe	-0.38597673
243	0xbeed8574	-0.4639088
244	0xbf095aa6	-0.53653944
245	0xbf08944b	-0.5335128
246	0xbee5c6a4	-0.44878113
247	0xbeb87a9c	-0.36031044
248	0xbececa13	-0.40388545
249	0xbf1d8a32	-0.61538994
250	0xbf4a4811	-0.79016215
251	0xbf4c680e	-0.79846275
252	0xbf23ac92	-0.63935196
253	0xbed57d07	-0.4169695
254	0xbe7c4e1f	-0.24639176
255	0xbe399e01	-0.1812668
