temp/idx-1-strainMat-AugNone-LR1.00E-04-CV5-Ch4-net.pth (torch_old, 241625 bytes, 33 tensors)

layers.0.weight f4 [4, 1, 3, 3]
0	0x3a5f3b34	0.0008515597
1	0x80075f16	-6.76959e-40
2	0x3a0aa0ca	0.00052882417
3	0x329a3e65	1.7956333e-08
4	0x320158bc	7.528964e-09
5	0x28c059f2	2.135529e-14
6	0xba9a5797	-0.0011775371
7	0x3a2e0f43	0.00066398474
8	0xb8b15d9d	-8.4574545e-05
9	0xacab32b0	-4.8657398e-12
10	0x277d8d12	3.5187278e-15
11	0x3b845d90	0.004039474
12	0x3b8ad8f7	0.00423729
13	0x8003503d	-3.0429e-40
14	0x00043f8a	3.90136e-40
15	0x34960d29	2.7949253e-07
16	0x9bc51110	-3.2601943e-22
17	0x10d557a2	8.4148706e-29
18	0x078fb29d	2.1621228e-34
19	0x310e8b7f	2.0743014e-09
20	0xaab2043b	-3.1622087e-13
21	0x3608a723	2.0362866e-06
22	0x39cd25ba	0.00039128755
23	0x30ed9796	1.7287103e-09
24	0x3927bdd3	0.00015997076
25	0x80058de5	-5.1008e-40
26	0xba6607a4	-0.0008774942
27	0x00078a31	6.92422e-40
28	0x3706da8c	8.037907e-06
29	0x3b26a9d0	0.0025430806
30	0x80002bd8	-1.5728e-41
31	0x2d219403	9.184656e-12
32	0x3b41b927	0.0029559822
33	0x3b39d7c5	0.0028357368
34	0x339fefe2	7.447649e-08
35	0x2c2d6b5d	2.4644377e-12

layers.0.bias f4 [4]
0	0xb1db3afa	-6.3804437e-09
1	0x039d307b	9.238761e-37
2	0xa90ae892	-3.0843878e-14
3	0x000478c1	4.1066e-40

layers.2.weight f4 [4, 4, 3, 3]
0	0x0fe27262	2.2329379e-29
1	0xa4b99f54	-8.050087e-17
2	0xb83b1b70	-4.4609827e-05
3	0x8003e46b	-3.57447e-40
4	0x80016a06	-1.2987e-40
5	0x0001824a	1.38574e-40
6	0xb411aec8	-1.3567762e-07
7	0x39a113a8	0.00030722958
8	0x1d860f25	3.5485164e-21
9	0x00072361	6.5554e-40
10	0x2047a03a	1.690897e-19
11	0x38b7695a	8.745743e-05
12	0xb5acb94f	-1.286893e-06
13	0x2f93bfac	2.6875335e-10
14	0xb98be6d6	-0.00026684132
15	0x000706d0	6.45292e-40
16	0x1a145a22	3.067849e-23
17	0x800191f7	-1.44198e-40
18	0xb957f466	-0.00020595043
19	0x800024a2	-1.3141e-41
20	0xa503d514	-1.1434632e-16
21	0x80075cc2	-6.76124e-40
22	0xabccb34e	-1.4544839e-12
23	0xaf0745e2	-1.2303006e-10
24	0xa1a166c2	-1.0936984e-18
25	0xb227c737	-9.765976e-09
26	0x13fc9fa3	6.3771157e-27
27	0x2603077d	4.5459904e-16
28	0x81c42757	-7.205548e-38
29	0x00017ac7	1.3588e-40
30	0x390edc7f	0.00013624316
31	0x80034b8f	-3.02612e-40
32	0x91a4faaf	-2.6029133e-28
33	0x355d1f07	8.2374066e-07
34	0x2f9e1de5	2.8761274e-10
35	0x2b9f20ff	1.1306788e-12
36	0xb30c64a9	-3.268784e-08
37	0xb847d563	-4.764403e-05
38	0x0004be11	4.35525e-40
39	0x3699b965	4.581338e-06
40	0x800553cc	-4.89238e-40
41	0x370c3d8c	8.35898e-06
42	0xb9ab3125	-0.00032652277
43	0x39a5b0e8	0.00031603058
44	0x00079074	6.94668e-40
45	0x000562f2	4.94672e-40
46	0x2ebb1ded	8.5090913e-11
47	0xab086e5c	-4.847006e-13
48	0x0004d977	4.45354e-40
49	0x00009cbd	5.6227e-41
50	0x00049345	4.20172e-40
51	0xa9bdbeea	-8.4264044e-14
52	0x26835ee9	9.115676e-16
53	0xa9748d89	-5.4301646e-14
54	0x00058e8d	5.10315e-40
55	0xad284b5b	-9.566427e-12
56	0xa10f7943	-4.8610773e-19
57	0xb4014085	-1.2037533e-07
58	0xb5a33174	-1.2158839e-06
59	0x31c6667b	5.774209e-09
60	0x800038db	-2.0396e-41
61	0x0005cb69	5.32147e-40
62	0x3616a827	2.244962e-06
63	0x33b3f981	8.3807215e-08
64	0x0001661b	1.28464e-40
65	0xac0d451b	-2.0075666e-12
66	0x2761ab44	3.1317866e-15
67	0xb019da94	-5.5971694e-10
68	0xb000f304	-4.6911475e-10
69	0x0005e760	5.42179e-40
70	0x374f2ee9	1.2349084e-05
71	0x80034826	-3.01388e-40
72	0xb8dbc299	-0.000104789804
73	0x1090b0d3	5.7070426e-29
74	0x37cbee7b	2.4310537e-05
75	0xaa148cea	-1.319393e-13
76	0x8004a242	-4.25549e-40
77	0x8003927b	-3.28054e-40
78	0x9d3300d4	-2.369088e-21
79	0x3132cb69	2.6018034e-09
80	0xa7c72d3e	-5.5282647e-15
81	0x36095148	2.0461903e-06
82	0xb4de3a47	-4.1393125e-07
83	0x80012a7c	-1.07076e-40
84	0x370a2025	8.232925e-06
85	0x800663f6	-5.86872e-40
86	0x157bd423	5.0856393e-26
87	0x80061e06	-5.61783e-40
88	0xb29c995e	-1.8230534e-08
89	0x8006af4d	-6.13899e-40
90	0xb0c31135	-1.4193008e-09
91	0x278c297e	3.890279e-15
92	0x80058a84	-5.08868e-40
93	0x8868e959	-7.008926e-34
94	0x26dcfed0	1.5334634e-15
95	0xa87fa003	-1.41900406e-14
96	0x37961a7c	1.7893726e-05
97	0x80021003	-1.89415e-40
98	0xaf3344a5	-1.6304343e-10
99	0xb850c011	-4.976994e-05
100	0xa76779c7	-3.2123705e-15
101	0xaf9035ba	-2.6231622e-10
102	0x08c03b53	1.1569527e-33
103	0x99359498	-9.387489e-24
104	0x2ca12f14	4.581122e-12
105	0xb41f79b1	-1.48523e-07
106	0x00054de8	4.87125e-40
107	0x35b385f7	1.3375528e-06
108	0x0003f86a	3.6462e-40
109	0x8e34a4c9	-2.2266054e-30
110	0xb085ba63	-9.729998e-10
111	0xa19c7e08	-1.0604331e-18
112	0x21168c6e	5.1007834e-19
113	0x0003aa10	3.36513e-40
114	0x379ef54f	1.8949298e-05
115	0x2f04e686	1.2087228e-10
116	0x8b334a58	-3.4530076e-32
117	0x34845571	2.4649083e-07
118	0x8006ade9	-6.134e-40
119	0x11730059	1.9169427e-28
120	0x21e6cfb3	1.5640384e-18
121	0xb95e5568	-0.00021203386
122	0x15feaca3	1.02862156e-25
123	0x82e7d599	-3.4064998e-37
124	0x9408650b	-6.8861725e-27
125	0xb5bc4a61	-1.4028739e-06
126	0xb7fb8f99	-2.99884e-05
127	0xb982e793	-0.00024968068
128	0xb6c3b64e	-5.832676e-06
129	0x0004ca36	4.39882e-40
130	0x31db5d31	6.3843335e-09
131	0x80031bb7	-2.85449e-40
132	0x33c89ec8	9.342108e-08
133	0xb4869df0	-2.507436e-07
134	0x800726b9	-6.5674e-40
135	0x8001774b	-1.3463e-40
136	0xb7099f20	-8.2028855e-06
137	0x8007e7d4	-7.26013e-40
138	0x1c1ef5ba	5.259541e-22
139	0xb8d4d955	-0.00010149429
140	0xa910900a	-3.2099357e-14
141	0x38d82bf8	0.000103078724
142	0x00043aba	3.88409e-40
143	0xa790e12e	-4.021217e-15

layers.2.bias f4 [4]
0	0x800743df	-6.67196e-40
1	0x21249c93	5.5772586e-19
2	0x903ff02d	-3.7853133e-29
3	0x8006f216	-6.37857e-40

layers.4.weight f4 [4, 4, 3, 3]
0	0x3908e358	0.00013054663
1	0x0006279f	5.65226e-40
2	0x1e9bfd3a	1.6515995e-20
3	0x19bb3002	1.9354737e-23
4	0xb954a59c	-0.0002027959
5	0x3225feae	9.6621715e-09
6	0xb5b14f95	-1.3210689e-06
7	0x0006691e	5.88722e-40
8	0x888e743e	-8.5736425e-34
9	0xb1affc18	-5.12183e-09
10	0x000263af	2.19431e-40
11	0x2b8a6d2d	9.835792e-13
12	0xb7bcaf88	-2.2493085e-05
13	0x24c9b911	8.748337e-17
14	0xb58ceb83	-1.0499356e-06
15	0x354b3a0d	7.570787e-07
16	0xb7cd256d	-2.4455332e-05
17	0x00050f6d	4.64711e-40
18	0xb83126b7	-4.2236145e-05
19	0x352aa124	6.3564426e-07
20	0x29771a2e	5.4867725e-14
21	0xb656ad3e	-3.1989325e-06
22	0xb6c7a767	-5.9501504e-06
23	0x13915022	3.6682163e-27
24	0xb698b492	-4.550974e-06
25	0x37cdfcaf	2.455557e-05
26	0x310be086	2.035479e-09
27	0x0001cca8	1.65252e-40
28	0x35b55279	1.3509554e-06
29	0xa526c0f3	-1.4463579e-16
30	0x0f0f70d8	7.072177e-30
31	0xb6083cb5	-2.0300915e-06
32	0x000175b9	1.34066e-40
33	0x0003b65a	3.40922e-40
34	0xb99693bc	-0.000287203
35	0xa4a56e5d	-7.1744306e-17
36	0xb3a08172	-7.4741266e-08
37	0xb8e16d8c	-0.00010749241
38	0x3728864f	1.00448515e-05
39	0x80079766	-6.9716e-40
40	0xb8f89649	-0.00011853554
41	0x8b69bc37	-4.5015765e-32
42	0xa49918a9	-6.639495e-17
43	0x36c9557c	6.0002185e-06
44	0x8001aa5a	-1.52946e-40
45	0x80069c90	-6.07177e-40
46	0x36782e01	3.6981658e-06
47	0x983c6769	-2.435064e-24
48	0x800235e8	-2.03009e-40
49	0x144dd872	1.03925414e-26
50	0x3666952c	3.43595e-06
51	0xb38e2f2c	-6.620971e-08
52	0xb83a85f7	-4.447062e-05
53	0xb6d6c43f	-6.400543e-06
54	0xb072480e	-8.8141483e-10
55	0x80010af2	-9.5762e-41
56	0x34aa8109	3.1758853e-07
57	0x8002203b	-1.95233e-40
58	0x0000bfc2	6.879e-41
59	0xb5d8b6fd	-1.6146511e-06
60	0x24d610f1	9.2836406e-17
61	0x0006d314	6.26734e-40
62	0xb88d7a10	-6.74614e-05
63	0x00030f22	2.80935e-40
64	0x80077b0c	-6.8699e-40
65	0xa8672ed6	-1.2833232e-14
66	0xb1197c37	-2.2335038e-09
67	0x0000c274	6.9757e-41
68	0x1bd91899	3.5915534e-22
69	0xb224d6ba	-9.59488e-09
70	0x00066297	5.8638e-40
71	0x00046058	4.01904e-40
72	0x8005d6d1	-5.36239e-40
73	0x0004405b	3.90428e-40
74	0x00046ee2	4.07119e-40
75	0x0003d50f	3.51938e-40
76	0x0000c952	7.222e-41
77	0x3328f5d4	3.9339128e-08
78	0x306d0c83	8.623788e-10
79	0x384a3127	4.820633e-05
80	0x0005456d	4.84083e-40
81	0xb937376b	-0.00017472885
82	0x991f34d4	-8.230776e-24
83	0x00031cde	2.85862e-40
84	0x000328a0	2.9008e-40
85	0x80025a1e	-2.15999e-40
86	0x2df577ac	2.790642e-11
87	0xb2b67f07	-2.1245354e-08
88	0x35a14cc9	1.2017782e-06
89	0x80059ff1	-5.16554e-40
90	0x23048d37	7.185638e-18
91	0x2e7c9d6f	5.7437995e-11
92	0x80d93590	-1.9947517e-38
93	0x282b4c0c	9.508897e-15
94	0xa54f634a	-1.7988028e-16
95	0xb58b4c74	-1.0378558e-06
96	0x36969702	4.487928e-06
97	0x00023a7b	2.0465e-40
98	0x344cdbfb	1.9079009e-07
99	0xae99e3d6	-6.998106e-11
100	0x00013793	1.11772e-40
101	0xb5870b6a	-1.0061606e-06
102	0xaffcc052	-4.5975185e-10
103	0x9986dfd4	-1.3945679e-23
104	0x8003c334	-3.45532e-40
105	0x37569824	1.2790817e-05
106	0x0002019e	1.84251e-40
107	0x38badea0	8.910638e-05
108	0x00006dcd	3.9389e-41
109	0x259a480a	2.6763557e-16
110	0x019b8b92	5.713828e-38
111	0x0b5dab07	4.2691718e-32
112	0xb94804dd	-0.00019075298
113	0xb1c3ed22	-5.702206e-09
114	0x377a247d	1.4909657e-05
115	0x8002a991	-2.445e-40
116	0xb70848af	-8.123155e-06
117	0x2b22212e	5.760001e-13
118	0x83f0136b	-1.411039e-36
119	0x1d909d5f	3.82792e-21
120	0x3483faa4	2.4583017e-07
121	0xb3e92e74	-1.0858358e-07
122	0xb2850ac8	-1.548814e-08
123	0x32d7e97c	2.513547e-08
124	0xa95aa7ae	-4.8551163e-14
125	0xb0b0ed74	-1.2873174e-09
126	0x3195dc0e	4.361488e-09
127	0x8007918b	-6.9506e-40
128	0x3589619d	1.0235705e-06
129	0x36e613e7	6.856851e-06
130	0x345f4066	2.0791921e-07
131	0x80044c98	-3.94819e-40
132	0x38a04992	7.643098e-05
133	0xb6c0965e	-5.739551e-06
134	0x1f549b31	4.5021118e-20
135	0xb3d2e23e	-9.82004e-08
136	0xb0dc527c	-1.603055e-09
137	0x2cd5075a	6.0546403e-12
138	0xa9290ae8	-3.7534998e-14
139	0x39a27ecd	0.00030993522
140	0x01be0f6c	6.9817106e-38
141	0x00055f2d	4.9332e-40
142	0xb9a1dae5	-0.00030871402
143	0x28730928	1.3491195e-14

layers.4.bias f4 [4]
0	0x8005aa50	-5.20274e-40
1	0x8c65176f	-1.764857e-31
2	0xa32e1cc6	-9.438652e-18
3	0x88a7e9b7	-1.0105893e-33

layers.6.weight f4 [4, 4, 3, 3]
0	0x37b4de95	2.156132e-05
1	0x39abc18f	0.00032759874
2	0xb6391dc4	-2.7584474e-06
3	0x21d9d508	1.4760881e-18
4	0x2848697d	1.1125104e-14
5	0xb65eced9	-3.320098e-06
6	0xad394b5e	-1.0532767e-11
7	0x2e37cf36	4.1793423e-11
8	0xb005bd5a	-4.8654203e-10
9	0xb48453ec	-2.4647977e-07
10	0x80079e16	-6.99559e-40
11	0x0004fd69	4.58248e-40
12	0x36b0d2d1	5.269751e-06
13	0x2f11222d	1.3199815e-10
14	0x8003b3cd	-3.40007e-40
15	0xb7376631	-1.0931443e-05
16	0xb707d8d4	-8.097111e-06
17	0x36a9a2d1	5.055547e-06
18	0xb8269a1c	-3.972101e-05
19	0x24900393	6.24561e-17
20	0x361d47f1	2.3436698e-06
21	0x9fd1c7dd	-8.884559e-20
22	0x2b68e844	8.274529e-13
23	0x39809b11	0.00024529596
24	0x9da7d799	-4.4427455e-21
25	0x35adba39	1.2943702e-06
26	0x366bb4f8	3.5123066e-06
27	0x21d7c87b	1.4622033e-18
28	0x0005a04b	5.1668e-40
29	0x88d86f8c	-1.3026252e-33
30	0xb81a64c0	-3.6810292e-05
31	0x3590fe4c	1.0802846e-06
32	0x33db29c8	1.0205582e-07
33	0xb7bd0fc3	-2.2537895e-05
34	0x37649b3f	1.3626005e-05
35	0xb89cb550	-7.472432e-05
36	0x27ba325f	5.1679983e-15
37	0xa20961b8	-1.8618694e-18
38	0x344ca945	1.906056e-07
39	0xb70efa6b	-8.5221645e-06
40	0x80036701	-3.12457e-40
41	0x368357ec	3.9143397e-06
42	0x01ab58e5	6.2943037e-38
43	0xa11d3782	-5.3267133e-19
44	0x8000e69f	-8.2731e-41
45	0xa33fbf0f	-1.0394589e-17
46	0xb9ad371c	-0.0003303819
47	0x36fbc365	7.50313e-06
48	0x37a33dfa	1.9459974e-05
49	0x31ab0640	4.9774656e-09
50	0x1c863f45	8.883731e-22
51	0x36196b57	2.2861257e-06
52	0x34adbe22	3.23621e-07
53	0x80058cfb	-5.09752e-40
54	0x80055b76	-4.91987e-40
55	0x8001995a	-1.46848e-40
56	0x39afc3cd	0.00033524484
57	0x311ab320	2.251177e-09
58	0x15b90f52	7.4745076e-26
59	0xb8e61522	-0.00010971191
60	0x362ead2c	2.602882e-06
61	0x8f985d3b	-1.5024268e-29
62	0x8003c4b8	-3.46076e-40
63	0x38984baf	7.262022e-05
64	0x2022eb35	1.3799757e-19
65	0xb626c26d	-2.4849098e-06
66	0x13219a54	2.0397147e-27
67	0x88d78656	-1.2971424e-33
68	0xb93df40a	-0.00018115356
69	0x393aa244	0.00017798791
70	0xb771895b	-1.43967e-05
71	0x358c56c7	1.0456068e-06
72	0x38c8fac2	9.5834504e-05
73	0xb1078649	-1.9721418e-09
74	0xb7e6d6d1	-2.7518168e-05
75	0x00066154	5.85928e-40
76	0xb8ee2866	-0.00011356249
77	0x8a127f49	-7.053584e-33
78	0x0473f3e8	2.8676509e-36
79	0xb31a706a	-3.595816e-08
80	0x83ca491e	-1.188928e-36
81	0x0005f6f1	5.47763e-40
82	0xb74a800c	-1.20699515e-05
83	0x3684cfbf	3.9580914e-06
84	0xb2b0903d	-2.0554689e-08
85	0x37a3b4cc	1.9515304e-05
86	0x28f82bc0	2.7552505e-14
87	0x80053545	-4.78287e-40
88	0x249631f2	6.513674e-17
89	0x3880adb4	6.13587e-05
90	0x8002150b	-1.9122e-40
91	0x0e654638	2.8260238e-30
92	0xa88583ab	-1.4823068e-14
93	0xb9b1f51d	-0.00033942694
94	0xb43119f8	-1.6493857e-07
95	0x2e9d63f6	7.15729e-11
96	0x93a0efd7	-4.062618e-27
97	0x3956f6f4	0.00020500628
98	0x19a4ed35	1.705301e-23
99	0x3523eb44	6.106459e-07
100	0x333eba43	4.4407226e-08
101	0x0004f518	4.55265e-40
102	0x32b70f83	2.1311058e-08
103	0xb55ac4dd	-8.14978e-07
104	0x00013c19	1.13394e-40
105	0xaa02d097	-1.1618689e-13
106	0xb70f0a47	-8.525857e-06
107	0x8aab87a1	-1.6517719e-32
108	0xb993214d	-0.00028062836
109	0x2d557de8	1.2135605e-11
110	0x3506fa69	5.0283285e-07
111	0x3310cd38	3.3714258e-08
112	0x1e8f5115	1.5174249e-20
113	0x37402d7c	1.1454682e-05
114	0x80065885	-5.82768e-40
115	0x2889dabb	1.5304915e-14
116	0x32c31ae8	2.2713223e-08
117	0x38a43e06	7.831682e-05
118	0x384171de	4.6120833e-05
119	0x2d9db859	1.79307e-11
120	0x28d28180	2.3370845e-14
121	0xab9e319d	-1.1240346e-12
122	0xb5693ae7	-8.688498e-07
123	0x309eec6d	1.1563209e-09
124	0xb6fc2355	-7.5142984e-06
125	0xaad17f24	-3.721408e-13
126	0x30950d0e	1.0844887e-09
127	0x99330b3a	-9.25635e-24
128	0xb88be737	-6.6711036e-05
129	0x0002353a	2.02765e-40
130	0xb92cc233	-0.00016475543
131	0xb5ac1106	-1.2819953e-06
132	0x2f6e8ce7	2.1696032e-10
133	0x96a77e72	-2.7060103e-25
134	0xb7c70c55	-2.3728391e-05
135	0xb50fe539	-5.3605214e-07
136	0x9073eb30	-4.8104482e-29
137	0x1c1040d3	4.7729387e-22
138	0x9022d3b8	-3.211197e-29
139	0x80008aa7	-4.9739e-41
140	0xb8392a59	-4.4146876e-05
141	0x8006aa52	-6.12112e-40
142	0xa9cf0ace	-9.194521e-14
143	0x3786eec8	1.6085236e-05

layers.6.bias f4 [4]
0	0x2ce70475	6.5659097e-12
1	0x1736575d	5.891764e-25
2	0xacd48bd3	-6.040926e-12
3	0x00038544	3.23313e-40

layers.8.weight f4 [1, 4, 3, 3]
0	0x0000b6d4	6.5586e-41
1	0x3770015d	1.4305432e-05
2	0x8dc9e251	-1.2442065e-30
3	0x3b5a81c4	0.0033341506
4	0xbb32dfbe	-0.0027294005
5	0xbb13d34a	-0.0022556358
6	0xab02d67d	-4.648294e-13
7	0xbaec96c9	-0.0018050309
8	0x25db33cd	3.8025546e-16
9	0x80038020	-3.21469e-40
10	0xb85ed229	-5.312465e-05
11	0xaec30d33	-8.869918e-11
12	0xb4ba343b	-3.4683202e-07
13	0x2396c162	1.6344933e-17
14	0xb6e5681e	-6.8368527e-06
15	0xa89fbdd8	-1.7734878e-14
16	0xaf6f3944	-2.1757268e-10
17	0xb5058f8d	-4.9755255e-07
18	0x38dae981	0.000104385435
19	0xbb55f825	-0.0032649126
20	0x3407a8e0	1.2634291e-07
21	0xb6ddb547	-6.6074167e-06
22	0x2e8f16d7	6.506944e-11
23	0x3b63f7f9	0.0034785254
24	0x0002ad4c	2.45838e-40
25	0xb393a5e0	-6.8753934e-08
26	0x39611ba4	0.00021467969
27	0xb431a715	-1.6545194e-07
28	0xb81e6269	-3.7761787e-05
29	0x393c53cb	0.00017960292
30	0x378e796c	1.698426e-05
31	0x0afa147f	2.4081834e-32
32	0x329235f3	1.702117e-08
33	0x9be8a72e	-3.8489218e-22
34	0x800383dc	-3.22809e-40
35	0x1f13c202	3.128894e-20

layers.11.weight f4 [18, 1062]
0	0x000716c8	6.51021e-40
1	0x000130d7	1.09356e-40
2	0x8005fd07	-5.49947e-40
3	0x000837fa	7.54765e-40
4	0x80009578	-5.3619e-41
5	0x8006ac89	-6.12907e-40
6	0x000368b9	3.13074e-40
7	0x0005ff45	5.50751e-40
8	0x00027836	2.26795e-40
9	0x8002a83f	-2.44026e-40
10	0x0004d11e	4.42359e-40
11	0x000837da	7.5472e-40
12	0x800665f8	-5.87592e-40
13	0x8000c111	-6.9259e-41
14	0x00054565	4.84072e-40
15	0x00048721	4.15817e-40
16	0x8003a0e6	-3.33226e-40
17	0x80034dd3	-3.03425e-40
18	0x00053894	4.79474e-40
19	0x8000fd48	-9.086e-41
20	0x0001bc37	1.59354e-40
21	0x000377c2	3.18467e-40
22	0x80074db5	-6.70725e-40
23	0x8006ca19	-6.23512e-40
24	0x80049efc	-4.24375e-40
25	0x0005e2f2	5.4059e-40
26	0x8006026a	-5.51879e-40
27	0x8001ad57	-1.54018e-40
28	0x8006800d	-5.96949e-40
29	0x8006bd55	-6.18933e-40
30	0x0001b471	1.56566e-40
31	0x80074e09	-6.70842e-40
32	0x80061413	-5.58214e-40
33	0x00031b69	2.8534e-40
34	0x80023fc4	-2.06546e-40
35	0x0001662e	1.2849e-40
36	0x80071352	-6.49779e-40
37	0x800775ff	-6.85177e-40
38	0x80031bcc	-2.85478e-40
39	0x00066b29	5.89455e-40
40	0x800689d1	-6.00452e-40
41	0x00020984	1.87085e-40
42	0x0000f79b	8.8824e-41
43	0x0004efb4	4.53331e-40
44	0x8005ad47	-5.21338e-40
45	0x80075ab5	-6.75388e-40
46	0x000724c5	6.56039e-40
47	0x0004744e	4.09064e-40
48	0x80061557	-5.58668e-40
49	0x8000aaa5	-6.1216e-41
50	0x0001cfd9	1.66397e-40
51	0x00078d46	6.93528e-40
52	0x8005c837	-5.31001e-40
53	0x0004c413	4.3768e-40
54	0x000452df	3.9707e-40
55	0x800209d3	-1.87195e-40
56	0x0000d905	7.7852e-41
57	0x8005243c	-4.72176e-40
58	0x800705d6	-6.44942e-40
59	0x000196d3	1.45941e-40
60	0x0006f3f2	6.38524e-40
61	0x80022cf0	-1.99792e-40
62	0x8000a462	-5.897e-41
63	0x00010f76	9.7382e-41
64	0x8003d9ba	-3.53612e-40
65	0x000641ec	5.74661e-40
66	0x80027df3	-2.28853e-40
67	0x8005b5f9	-5.24457e-40
68	0x800398ad	-3.30276e-40
69	0x8002a760	-2.43714e-40
70	0x80004235	-2.375e-41
71	0x80033501	-2.94521e-40
72	0x80018857	-1.40745e-40
73	0x0007abef	7.04527e-40
74	0x8001cf99	-1.66308e-40
75	0x0002177f	1.921e-40
76	0x0004064c	3.69601e-40
77	0x0000fdcf	9.105e-41
78	0x800581e7	-5.05778e-40
79	0x8005cf44	-5.3353e-40
80	0x0007ff8a	7.34519e-40
81	0x0002b5eb	2.48931e-40
82	0x80006dec	-3.9433e-41
83	0x80048b9c	-4.17424e-40
84	0x0003e26b	3.5673e-40
85	0x0004ccc8	4.40804e-40
86	0x80061699	-5.5912e-40
87	0x8008f607	-8.22942e-40
88	0x00067ccb	5.9578e-40
89	0x8003b193	-3.39208e-40
90	0x8007ac6c	-7.04702e-40
91	0x00058720	5.07651e-40
92	0x8001ec83	-1.7668e-40
93	0x80013184	-1.09598e-40
94	0x00041e85	3.7829e-40
95	0x80039595	-3.29166e-40
96	0x00074467	6.67387e-40
97	0x80037e6e	-3.20861e-40
98	0x80079341	-6.95673e-40
99	0x8005ae55	-5.21716e-40
100	0x80014214	-1.1554e-40
101	0x8006feea	-6.42459e-40
102	0x00017bf9	1.36309e-40
103	0x00029823	2.38247e-40
104	0x80034b64	-3.02552e-40
105	0x8002e452	-2.65577e-40
106	0x00000d40	4.753e-42
107	0x0041be23	6.037515e-39
108	0x8005d3d2	-5.35164e-40
109	0x00002f73	1.7022e-41
110	0x8002598c	-2.15794e-40
111	0x0004689f	4.04873e-40
112	0x80028616	-2.31772e-40
113	0x80072cd1	-6.58926e-40
114	0x80009311	-5.2757e-41
115	0x80013b15	-1.1303e-40
116	0x80066905	-5.88687e-40
117	0x00061d30	5.61483e-40
118	0x0006f91d	6.40378e-40
119	0x8007a91c	-7.03513e-40
120	0x8004c174	-4.3674e-40
121	0x00071940	6.51906e-40
122	0x00003ab6	2.1062e-41
123	0x00046cb8	4.06343e-40
124	0x8005e36a	-5.40758e-40
125	0x8000d657	-7.689e-41
126	0x80058082	-5.05277e-40
127	0x000730f3	6.60408e-40
128	0x8002ad09	-2.45744e-40
129	0x800736dd	-6.6253e-40
130	0x8003064a	-2.77763e-40
131	0x00073912	6.63321e-40
132	0x800098c9	-5.4809e-41
133	0x8006ae66	-6.13575e-40
134	0x0003a8ef	3.36108e-40
135	0x00079ddd	6.99479e-40
136	0x00024b6b	2.10726e-40
137	0x80001897	-8.821e-42
138	0x80015949	-1.23865e-40
139	0x800636f0	-5.70721e-40
140	0x00044865	3.93312e-40
141	0x00037ad3	3.19568e-40
142	0x800458aa	-3.99149e-40
143	0x80031e6e	-2.86423e-40
144	0x00074f07	6.71198e-40
145	0x8005b7a1	-5.25051e-40
146	0x000068e9	3.7635e-41
147	0x8001e4c5	-1.73903e-40
148	0x0007dc70	7.21927e-40
149	0x800077ad	-4.2932e-41
150	0x0006b788	6.16852e-40
151	0x800103c5	-9.3188e-41
152	0x0002266f	1.97458e-40
153	0x80072385	-6.5559e-40
154	0x00039cb2	3.31718e-40
155	0x000314f7	2.83027e-40
156	0x00037031	3.15753e-40
157	0x80041e5b	-3.78231e-40
158	0x0002657d	2.20078e-40
159	0x80064c8c	-5.78473e-40
160	0x0002538c	2.13642e-40
161	0x8002eeb7	-2.69306e-40
162	0x80055750	-4.905e-40
163	0x0001b15e	1.55463e-40
164	0x00062bdb	5.66745e-40
165	0x00010571	9.3788e-41
166	0x80058391	-5.06375e-40
167	0x0007efa5	7.28817e-40
168	0x00015ca5	1.2507e-40
169	0x0003a5fc	3.3505e-40
170	0x80075596	-6.73551e-40
171	0x80053979	-4.79795e-40
172	0x00044b09	3.9426e-40
173	0x80056db9	-4.98539e-40
174	0x00053680	4.78728e-40
175	0x800198f5	-1.46706e-40
176	0x80037b11	-3.19654e-40
177	0x8003c2a8	-3.45336e-40
178	0x0006a3be	6.09753e-40
179	0x0006822d	5.97711e-40
180	0x8001fbb8	-1.82135e-40
181	0x80041733	-3.75664e-40
182	0x00075ac2	6.75406e-40
183	0x00054162	4.82632e-40
184	0x0001d68f	1.68805e-40
185	0x000644a0	5.75631e-40
186	0x8000a2cd	-5.8402e-41
187	0x0006babb	6.17999e-40
188	0x8004ae0b	-4.29777e-40
189	0x00078c02	6.93074e-40
190	0x80007fcb	-4.5843e-41
191	0x00072cb9	6.58892e-40
192	0x000110df	9.7888e-41
193	0x80011385	-9.8838e-41
194	0x00023657	2.03164e-40
195	0x800378bb	-3.18816e-40
196	0x00007e6a	4.5349e-41
197	0x8003e0b7	-3.56119e-40
198	0x0002a668	2.43366e-40
199	0x0007973d	6.97103e-40
200	0x001cbc84	2.63902e-39
201	0x00050150	4.59648e-40
202	0x80037a5e	-3.19404e-40
203	0x000688bc	6.00064e-40
204	0x00072174	6.54849e-40
205	0x00075d16	6.76241e-40
206	0x8006f845	-6.40075e-40
207	0x0004e0ad	4.4794e-40
208	0x80039481	-3.2878e-40
209	0x0007dce9	7.22096e-40
210	0x80037583	-3.17662e-40
211	0x800435f4	-3.86697e-40
212	0x80072bb4	-6.58526e-40
213	0x0000f519	8.7924e-41
214	0x00006703	3.6954e-41
215	0x8007d02d	-7.17528e-40
216	0x00072b89	6.58466e-40
217	0x80074d52	-6.70586e-40
218	0x00045e8d	4.0126e-40
219	0x00027ce5	2.28475e-40
220	0x00033325	2.93854e-40
221	0x00002e5d	1.6632e-41
222	0x000249dd	2.10168e-40
223	0x80024902	-2.09861e-40
224	0x0000155a	7.66e-42
225	0x0001f6c3	1.80357e-40
226	0x0002d7fb	2.6115e-40
227	0x0004ab4a	4.28789e-40
228	0x800067a0	-3.7174e-41
229	0x80031f3b	-2.8671e-40
230	0x80016493	-1.27915e-40
231	0x8000f5f7	-8.8236e-41
232	0x000193c6	1.44847e-40
233	0x00020fb9	1.89311e-40
234	0x0007394c	6.63403e-40
235	0x8004c397	-4.37506e-40
236	0x0003402a	2.98524e-40
237	0x80067a60	-5.94913e-40
238	0x8005b60d	-5.24485e-40
239	0x800574b8	-5.01048e-40
240	0x80019999	-1.46936e-40
241	0x800658d9	-5.82886e-40
242	0x8003d872	-3.53152e-40
243	0x8002eae6	-2.67937e-40
244	0x0006575e	5.82354e-40
245	0x000202b0	1.84635e-40
246	0x000463f9	4.03205e-40
247	0x80068407	-5.98375e-40
248	0x000447f6	3.93157e-40
249	0x0001ee80	1.77393e-40
250	0x80040744	-3.69948e-40
251	0x8006d0f5	-6.25973e-40
252	0x00049bbf	4.23213e-40
253	0x8007443a	-6.67324e-40
254	0x000026a4	1.3862e-41
255	0x000128bc	1.06448e-40

layers.11.bias f4 [18]
0	0x3f0b1b4e	0.5433854
1	0x3f09b408	0.5379033
2	0x3efe6600	0.49687195
3	0x3f16967b	0.58823365
4	0x3f11deef	0.56980795
5	0x3f1069e8	0.564116
6	0x3f16ebac	0.58953357
7	0x3f1a8236	0.60354936
8	0x3f1cb0f6	0.6120752
9	0x3f1850c9	0.5949827
10	0x3f10e231	0.5659514
11	0x3f15624f	0.5835313
12	0x3f150e1f	0.5822467
13	0x3f11d038	0.5695834
14	0x3f14764b	0.57993
15	0x3f0f7e91	0.560525
16	0x3f06d7c6	0.52672994
17	0x3f01831d	0.5059069

exp_avg f4 [4, 1, 3, 3]
0	0x32168f28	8.763699e-09
1	0x80000001	-1e-45
2	0x31bb781a	5.4560703e-09
3	0x2a5cc9f8	1.9609997e-13
4	0x29ba1482	8.263617e-14
5	0x20959673	2.534114e-19
6	0xb24fd660	-1.2097729e-08
7	0x31eb198e	6.8423054e-09
8	0xb07237d5	-8.811843e-10
9	0xa480a74b	-5.5794557e-17
10	0x1f47859c	4.2250408e-20
11	0x333118f9	4.1233736e-08
12	0x3339b961	4.324227e-08
13	0x00000004	6e-45
14	0x00000004	6e-45
15	0x2c53769f	3.0050751e-12
16	0x93aeaf49	-4.409662e-27
17	0x08dc4684	1.32573465e-33
18	0x003023c5	4.420936e-39
19	0x28ce9c03	2.2938254e-14
20	0xa2881316	-3.688308e-18
21	0x2dbe7541	2.165257e-11
22	0x318aef3a	4.0435255e-09
23	0x28ac5ede	1.9136978e-14
24	0x30e44aa2	1.6610395e-09
25	0x80000004	-6e-45
26	0xb21b1eb6	-9.02917e-09
27	0x00000001	1e-45
28	0x2eba8886	8.482552e-11
29	0x32df8622	2.6021613e-08
30	0x80000004	-6e-45
31	0x24f1e781	1.0490927e-16
32	0x3301ce57	3.0222818e-08
33	0x32f91af2	2.8999668e-08
34	0x2b631602	8.067714e-13
35	0x2402def0	2.8378092e-17

exp_avg_sq f4 [4, 1, 3, 3]
0	0x2a0a364b	1.2275699e-13
1	0x24de5a42	9.6430056e-17
2	0x29ea1535	1.03953663e-13
3	0x2879356f	1.3833863e-14
4	0x28605ad7	1.2454196e-14
5	0x27926a3c	4.063832e-15
6	0x2a1c0b8e	1.3859592e-13
7	0x29fd020c	1.1235812e-13
8	0x2988d224	6.076067e-14
9	0x27dab7fb	6.0706627e-15
10	0x278246c1	3.615896e-15
11	0x2a85ec88	2.3789672e-13
12	0x2a892ee5	2.4368628e-13
13	0x238efb31	1.5502055e-17
14	0x250b826d	1.2100518e-16
15	0x28b4f5ce	2.0090615e-14
16	0x26e7c828	1.6083097e-15
17	0x268aca61	9.630528e-16
18	0x264bc644	7.0698473e-16
19	0x2841cf63	1.0758622e-14
20	0x27b0dcea	4.908933e-15
21	0x28f95b28	2.7684086e-14
22	0x29d41df0	9.4198846e-14
23	0x283e0015	1.05471365e-14
24	0x29a25ba6	7.210144e-14
25	0x255a28f9	1.8922368e-16
26	0x2a0bbb44	1.2410651e-13
27	0x24b3fe4c	7.805967e-17
28	0x2920fd72	3.5746966e-14
29	0x2a570b3d	1.9099735e-13
30	0x23e54949	2.4859267e-17
31	0x27e69670	6.400093e-15
32	0x2a666238	2.046218e-13
33	0x2a61fdf4	2.0072122e-13
34	0x2895e34e	1.66409e-14
35	0x27cf00da	5.7454965e-15

exp_avg f4 [4]
0	0xa99dd861	-7.0097364e-14
1	0x00005458	3.0257e-41
2	0xa0d78a0f	-3.6513776e-19
3	0x80000004	-6e-45

exp_avg_sq f4 [4]
0	0x285c0b70	1.2214933e-14
1	0x263a9360	6.4731444e-16
2	0x279613e7	4.165494e-15
3	0x1f2111d9	3.410784e-20

exp_avg f4 [4, 4, 3, 3]
0	0x07ede394	3.5793555e-34
1	0x9c95d739	-9.915627e-22
2	0xb00033f3	-4.6639953e-10
3	0x00000004	6e-45
4	0x80000004	-6e-45
5	0x80000004	-6e-45
6	0xabce2527	-1.4647492e-12
7	0x315a7514	3.1789726e-09
8	0x1569179b	4.7072597e-26
9	0x80000003	-4e-45
10	0x1828717d	2.1770788e-24
11	0x307a6de9	9.110566e-10
12	0xad71586f	-1.37189e-11
13	0x2758bec6	3.007944e-15
14	0xb13de1be	-2.763144e-09
15	0x80000004	-6e-45
16	0x12062cd6	4.233821e-28
17	0x00000004	6e-45
18	0xb112c166	-2.135573e-09
19	0x80000004	-6e-45
20	0x9cd45347	-1.405051e-21
21	0x00000003	4e-45
22	0xa39afbb0	-1.6803307e-17
23	0xa6c75e9b	-1.3834042e-15
24	0x99865287	-1.3888608e-23
25	0xa9f10186	-1.0702814e-13
26	0x0bf7f988	9.551639e-32
27	0x1dd10e60	5.5336703e-21
28	0x80000087	-1.89e-43
29	0x80000004	-6e-45
30	0x30c2990a	1.4158854e-09
31	0x80000004	-6e-45
32	0x89a7f984	-4.043843e-33
33	0x2d1ade9d	8.803317e-12
34	0x2767dc91	3.217726e-15
35	0x23715687	1.3082959e-17
36	0xaac84637	-3.5575858e-13
37	0xb008dfc3	-4.9794496e-10
38	0x00000004	6e-45
39	0x2e554b20	4.8497317e-11
40	0x00000004	6e-45
41	0x2ec1f153	8.819492e-11
42	0xb16819b8	-3.3775063e-09
43	0x3160ae75	3.2695457e-09
44	0x00000001	1e-45
45	0x00000004	6e-45
46	0x268a31b5	9.589147e-16
47	0xa2d00388	-5.638225e-18
48	0x80000004	-6e-45
49	0x80000004	-6e-45
50	0x80000004	-6e-45
51	0xa1924373	-9.911198e-19
52	0x1e509f0c	1.10443184e-20
53	0xa13d0ad1	-6.4050006e-19
54	0x00000004	6e-45
55	0xa4fbe587	-1.0924273e-16
56	0x98f03af3	-6.209807e-24
57	0xabb704e4	-1.300429e-12
58	0xad6419ae	-1.29660015e-11
59	0x298eee25	6.347378e-14
60	0x00000004	6e-45
61	0x00000004	6e-45
62	0x2dd1dccc	2.3858603e-11
63	0x2b7f5d71	9.0723875e-13
64	0x00000004	6e-45
65	0xa3d57d50	-2.3146578e-17
66	0x1f31b7d6	3.7633273e-20
67	0xa7e0b912	-6.2373143e-15
68	0xa7bc8b16	-5.233128e-15
69	0x80000004	-6e-45
70	0x2f0ef446	1.3001608e-10
71	0x00000004	6e-45
72	0xb095e243	-1.0905484e-09
73	0x089622d6	9.0359865e-34
74	0x2f8c311a	2.550074e-10
75	0xa1e45cee	-1.5474479e-18
76	0x00000004	6e-45
77	0x00000004	6e-45
78	0x951c1f5f	-3.1528697e-26
79	0x2901677b	2.873351e-14
80	0x9f9c44aa	-6.6182165e-20
81	0x2dbf6117	2.1757303e-11
82	0xac9c3ea5	-4.4407416e-12
83	0x80000004	-6e-45
84	0x2ebf08ac	8.687215e-11
85	0x80000004	-6e-45
86	0x0d71ded5	7.4532083e-31
87	0x00000004	6e-45
88	0xaa602416	-1.9907716e-13
89	0x80000004	-6e-45
90	0xa88daec3	-1.5729935e-14
91	0x1f5c7199	4.6680778e-20
92	0x00000004	6e-45
93	0x8095d266	-1.3758966e-38
94	0x1eaedd65	1.8514533e-20
95	0xa04752a8	-1.6883304e-19
96	0x2f4eb876	1.8801125e-10
97	0x00000004	6e-45
98	0xa703e230	-1.8302519e-15
99	0xb00ef29d	-5.2004073e-10
100	0x9f3642a4	-3.8595123e-20
101	0xa753958e	-2.9363206e-15
102	0x00f39151	2.2368155e-38
103	0x9125f40f	-1.3091411e-28
104	0x2472588c	5.2550387e-17
105	0xabe18bf5	-1.6026057e-12
106	0x80000004	-6e-45
107	0x2d7acad8	1.4255895e-11
108	0x00000004	6e-45
109	0x86441b6c	-3.688365e-35
110	0xa842b10b	-1.0807553e-14
111	0x99824428	-1.3469213e-23
112	0x18fbfca7	6.5137093e-24
113	0x80000004	-6e-45
114	0x2f5ad8c8	1.9904e-10
115	0x26c3e4c6	1.3592852e-15
116	0x8351430b	-6.149654e-37
117	0x2c3aa053	2.6521188e-12
118	0x00000004	6e-45
119	0x0978564a	2.9892487e-33
120	0x19bf9668	1.9809686e-23
121	0xb117111c	-2.1983118e-09
122	0x0df2dfd9	1.4968291e-30
123	0x8000281e	-1.4391e-41
124	0x8c05c60c	-1.0305545e-31
125	0xad837c37	-1.4948138e-11
126	0xafacbcb9	-3.1420713e-10
127	0xb131bbca	-2.5863636e-09
128	0xae879880	-6.166179e-11
129	0x00000004	6e-45
130	0x299df0e1	7.0139864e-14
131	0x00000004	6e-45
132	0x2b8e3dea	1.0106891e-12
133	0xac3dd3ef	-2.6976162e-12
134	0x00000004	6e-45
135	0x80000004	-6e-45
136	0xaebe5736	-8.6556914e-11
137	0x80000001	-1e-45
138	0x140c5959	7.0858144e-27
139	0xb09131f5	-1.0564337e-09
140	0xa0e04140	-3.7990255e-19
141	0x30937311	1.0728362e-09
142	0x00000004	6e-45
143	0x9f63d04c	-4.824142e-20

exp_avg_sq f4 [4, 4, 3, 3]
0	0x2685c255	9.281403e-16
1	0x27505978	2.89143e-15
2	0x29698dfc	5.1859545e-14
3	0x2475b573	5.32796e-17
4	0x260fe271	4.9919977e-16
5	0x2115ff1c	5.08208e-19
6	0x28a2e746	1.8085912e-14
7	0x29c4a151	8.7321324e-14
8	0x26ffcc41	1.7749543e-15
9	0x24e0be71	9.7467135e-17
10	0x2717fed8	2.109361e-15
11	0x298a0264	6.128846e-14
12	0x28e67ad6	2.5588401e-14
13	0x281cc63b	8.702724e-15
14	0x29bc5ee3	8.3653374e-14
15	0x225ddc61	3.0067753e-18
16	0x26d35fac	1.4666998e-15
17	0x2587ea4d	2.3577535e-16
18	0x29ae7bb9	7.748615e-14
19	0x22699135	3.165426e-18
20	0x27547dfb	2.9489204e-15
21	0x244e2f58	4.470923e-17
22	0x27c68fb3	5.511184e-15
23	0x281160a0	8.070069e-15
24	0x272648f1	2.307667e-15
25	0x286763ae	1.28446905e-14
26	0x269dd8a7	1.0952787e-15
27	0x276612ed	3.1929172e-15
28	0x2631d381	6.169585e-16
29	0x260d5748	4.903749e-16
30	0x299b4b63	6.89646e-14
31	0x24992cbe	6.642897e-17
32	0x268f5a5c	9.94711e-16
33	0x28d61a79	2.3770253e-14
34	0x281dd393	8.761129e-15
35	0x27c2b64f	5.4043476e-15
36	0x288668c6	1.4922427e-14
37	0x296d4252	5.2682095e-14
38	0x2578f134	2.1592294e-16
39	0x29106d27	3.2069098e-14
40	0x25bb2470	3.246402e-16
41	0x29223f96	3.6026378e-14
42	0x29c85e28	8.898118e-14
43	0x29c659c3	8.8085375e-14
44	0x239ca2ac	1.6982448e-17
45	0x24b1f736	7.7180305e-17
46	0x280c6d5a	7.795273e-15
47	0x27b68f49	5.0670498e-15
48	0x260abc85	4.813386e-16
49	0x2508ec3d	1.187616e-16
50	0x2467bc70	5.0249753e-17
51	0x27a0d4ff	4.463985e-15
52	0x276fcb83	3.3278237e-15
53	0x279bfdae	4.3296182e-15
54	0x2344a2ff	1.0659697e-17
55	0x27e761a7	6.4221255e-15
56	0x271fd4e1	2.2181085e-15
57	0x28a02cd0	1.7783003e-14
58	0x28e44b61	2.5345775e-14
59	0x28598129	1.2073927e-14
60	0x250102d0	1.1189919e-16
61	0x261344fd	5.1094367e-16
62	0x28fdaa7e	2.8162582e-14
63	0x289852bd	1.6911272e-14
64	0x2604211a	4.584156e-16
65	0x27cba861	5.6526375e-15
66	0x278153f1	3.58957e-15
67	0x2828be1f	9.367099e-15
68	0x2825bd62	9.200406e-15
69	0x25eacd20	4.0731527e-16
70	0x292fa100	3.899745e-14
71	0x23ccedfd	2.2218516e-17
72	0x2990b1eb	6.4257485e-14
73	0x26894845	9.525873e-16
74	0x294b19f7	4.5097576e-14
75	0x27a602f3	4.6077453e-15
76	0x260b4a6e	4.8326184e-16
77	0x257e275e	2.2044326e-16
78	0x26fb7670	1.7448726e-15
79	0x2846b56c	1.10305475e-14
80	0x27860e37	3.7207883e-15
81	0x28f9917b	2.7707645e-14
82	0x28c00df8	2.132234e-14
83	0x25477dce	1.7303123e-16
84	0x2921c250	3.591772e-14
85	0x2402952c	2.831561e-17
86	0x26a8ada7	1.170441e-15
87	0x252ce4a2	1.4996086e-16
88	0x2879ad8a	1.3859907e-14
89	0x25b8f534	3.2085068e-16
90	0x283a00b0	1.0325223e-14
91	0x27831a17	3.638809e-15
92	0x23e11685	2.4404086e-17
93	0x2650982d	7.2370733e-16
94	0x27777aa2	3.4344615e-15
95	0x278e7fea	3.95516e-15
96	0x293dee59	4.2173164e-14
97	0x25a57ad4	2.870617e-16
98	0x28155637	8.289856e-15
99	0x296fc3c9	5.3238477e-14
100	0x278188b6	3.5952915e-15
101	0x281c66a1	8.681994e-15
102	0x2652c171	7.312055e-16
103	0x26ca379e	1.4031641e-15
104	0x27d9a403	6.040742e-15
105	0x28a5033d	1.8320084e-14
106	0x25ff8ae7	4.4329573e-16
107	0x28e7fc11	2.5755468e-14
108	0x2281a8f2	3.5144398e-18
109	0x267b931e	8.72825e-16
110	0x2832b1a4	9.919505e-15
111	0x2726080c	2.304149e-15
112	0x27203413	2.223269e-15
113	0x21bd4829	1.2826239e-18
114	0x29404b9c	4.2698145e-14
115	0x28112240	8.056544e-15
116	0x26631b62	7.8793556e-16
117	0x28b19cbc	1.971892e-14
118	0x226e44f4	3.2291518e-18
119	0x268e1734	9.859519e-16
120	0x272942de	2.348971e-15
121	0x29aff76f	7.814484e-14
122	0x26aca4df	1.1979586e-15
123	0x2638a94a	6.4067253e-16
124	0x269e39b9	1.0979098e-15
125	0x28e9dcc1	2.5963933e-14
126	0x2954ec8e	4.7278635e-14
127	0x29b8a756	8.2002696e-14
128	0x291736e1	3.3576335e-14
129	0x24f86629	1.0772592e-16
130	0x285c0f63	1.221579e-14
131	0x260c8145	4.874745e-16
132	0x289a9df3	1.7165934e-14
133	0x28b21017	1.9768948e-14
134	0x24012e66	2.8011717e-17
135	0x2453b481	4.5906224e-17
136	0x2921a420	3.5891537e-14
137	0x21c305f4	1.321529e-18
138	0x26ec4c0f	1.6396405e-15
139	0x298f7a89	6.371732e-14
140	0x27967bcc	4.1767584e-15
141	0x29901107	6.3978384e-14
142	0x26124413	5.0746183e-16
143	0x27836039	3.646413e-15

exp_avg f4 [4]
0	0x80000001	-1e-45
1	0x1909ac10	7.117482e-24
2	0x88483a63	-6.0253944e-34
3	0x00000004	6e-45

exp_avg_sq f4 [4]
0	0x25968cef	2.6116352e-16
1	0x2720e5c6	2.232902e-15
2	0x2687b845	9.417453e-16
3	0x25c73eb6	3.4563492e-16

exp_avg f4 [4, 4, 3, 3]
0	0x30ba8110	1.3569963e-09
1	0x00000004	6e-45
2	0x1685fadf	2.164563e-25
3	0x11a9fbd6	2.6818704e-28
4	0xb1108500	-2.103036e-09
5	0x29ee757f	1.05897055e-13
6	0xad77b7ff	-1.408118e-11
7	0x80000004	-6e-45
8	0x80b62002	-1.6725543e-38
9	0xa97dbd68	-5.634157e-14
10	0x80000004	-6e-45
11	0x23521f78	1.13907866e-17
12	0xaf81c415	-2.3604288e-10
13	0x1ca2be83	1.0769507e-21
14	0xad452114	-1.1205498e-11
15	0x2d0e6757	8.0947115e-12
16	0xaf8d05b2	-2.5651797e-10
17	0x00000004	6e-45
18	0xaff2d59a	-4.4171317e-10
19	0x2cef5bb9	6.802972e-12
20	0x213f000e	6.471339e-19
21	0xae153a63	-3.3930535e-11
22	0xae8a4fc3	-6.289682e-11
23	0x0b8f80bd	5.52753e-32
24	0xae53e336	-4.817765e-11
25	0x2f8d98db	2.575636e-10
26	0x28cac3d0	2.2511425e-14
27	0x00000004	6e-45
28	0x2d7d4a96	1.4397946e-11
29	0x9d061168	-1.7743751e-21
30	0x07191a4f	1.1518172e-34
31	0xadbde1bf	-2.1587064e-11
32	0x80000004	-6e-45
33	0x80000004	-6e-45
34	0xb14c4a70	-2.972822e-09
35	0x9c85a5d9	-8.844072e-22
36	0xab63e381	-8.0962326e-13
37	0xb099ba7a	-1.1185215e-09
38	0x2ee8d2bf	1.05875746e-10
39	0x00000002	3e-45
40	0xb0a96eb7	-1.2327835e-09
41	0x8387ae71	-7.974637e-37
42	0x9c777f8f	-8.189031e-22
43	0x2e8b780d	6.3423135e-11
44	0x00000004	6e-45
45	0x00000004	6e-45
46	0x2e2c6101	3.919443e-11
47	0x902e4f8a	-3.4376724e-29
48	0x80000004	-6e-45
49	0x0c49001e	1.5484512e-31
50	0x2e2038b7	3.643016e-11
51	0xab4a03c7	-7.177006e-13
52	0xafff9c2c	-4.6495197e-10
53	0xae94b8a7	-6.7630616e-11
54	0xa83077ef	-9.795969e-15
55	0x00000004	6e-45
56	0x2c701d3a	3.4122275e-12
57	0x80000004	-6e-45
58	0x80000003	-4e-45
59	0xad973752	-1.719128e-11
60	0x1caca1b8	1.1423809e-21
61	0x80000004	-6e-45
62	0xb0417145	-7.0373957e-10
63	0x00000004	6e-45
64	0x00000001	1e-45
65	0xa03461db	-1.5278971e-19
66	0xa8de5ee4	-2.4688103e-14
67	0x80000004	-6e-45
68	0x13c048d9	4.8539447e-27
69	0xa9ecceca	-1.05163775e-13
70	0x00000004	6e-45
71	0x80000004	-6e-45
72	0x80000004	-6e-45
73	0x00000004	6e-45
74	0x80000003	-4e-45
75	0x00000004	6e-45
76	0x80000004	-6e-45
77	0x2af0c562	4.2769526e-13
78	0x282cadf2	9.585636e-15
79	0x300a7b0d	5.0378973e-10
80	0x00000004	6e-45
81	0xb0f93c13	-1.8134209e-09
82	0x9111ad18	-1.1491822e-28
83	0x00000004	6e-45
84	0x00000003	4e-45
85	0x00000004	6e-45
86	0x25b682b9	3.1660548e-16
87	0xaa827d38	-2.3179527e-13
88	0x2d6177fd	1.2816412e-11
89	0x80000004	-6e-45
90	0x1ad9a74f	9.00194e-23
91	0x263b0224	6.488156e-16
92	0x800000de	-3.11e-43
93	0x2005eaea	1.1343265e-19
94	0x9d267d1a	-2.2034593e-21
95	0xad42dfae	-1.107729e-11
96	0x2e50f7df	4.7513878e-11
97	0x00000004	6e-45
98	0x2c10a979	2.0557707e-12
99	0xa6639377	-7.89563e-16
100	0x80000004	-6e-45
101	0xad3cf485	-1.0740857e-11
102	0xa7b8cd61	-5.129293e-15
103	0x9175aabf	-1.9379707e-28
104	0x80000004	-6e-45
105	0x2f140a0f	1.3464095e-10
106	0x80000004	-6e-45
107	0x307f2016	9.2814056e-10
108	0x80000004	-6e-45
109	0x1d770a6b	3.2695564e-21
110	0x00000185	5.45e-43
111	0x0380cfe0	7.57089e-37
112	0xb107fb5c	-1.9787967e-09
113	0xa98d2881	-6.268684e-14
114	0x2f2c6b06	1.5681331e-10
115	0x80000004	-6e-45
116	0xaebc802b	-8.5720174e-11
117	0x22f6ed9d	6.6930016e-18
118	0x8000773b	-4.2772e-41
119	0x157b4b28	5.0748334e-26
120	0x2c3a20fd	2.6450502e-12
121	0xaba52fef	-1.1737259e-12
122	0xaa3e9a29	-1.6928875e-13
123	0x2a9a3bcb	2.7397385e-13
124	0xa12924fe	-5.7308386e-19
125	0xa88094b5	-1.4275346e-14
126	0x295845ff	4.8022347e-14
127	0x80000002	-3e-45
128	0x2d4034d1	1.0925664e-11
129	0x2e9f4380	7.242473e-11
130	0x2c1d92ca	2.2392526e-12
131	0x00000004	6e-45
132	0x305b03c5	7.967709e-10
133	0xae85714d	-6.068266e-11
134	0x173533d4	5.854967e-25
135	0xab9579fd	-1.0620945e-12
136	0xa89fe97a	-1.77538e-14
137	0x249fdfbc	6.933428e-17
138	0xa102fb92	-4.4378664e-19
139	0x315c5ef1	3.2068181e-09
140	0x000000fa	3.5e-43
141	0x00000004	6e-45
142	0xb15b81d8	-3.1942502e-09
143	0x203d919a	1.6057098e-19

exp_avg_sq f4 [4, 4, 3, 3]
0	0x29997e02	6.816424e-14
1	0x2414ed8a	3.2293588e-17
2	0x2708b74c	1.8973157e-15
3	0x26cfbbc6	1.4414406e-15
4	0x29adb45b	7.71403e-14
5	0x2867180c	1.282829e-14
6	0x28e77ffc	2.5701656e-14
7	0x23d5917b	2.315512e-17
8	0x265174b6	7.2669614e-16
9	0x285682f4	1.1907782e-14
10	0x2208c6d4	1.8536696e-18
11	0x27c0a13e	5.3465524e-15
12	0x2947a2c9	4.432807e-14
13	0x275151ea	2.9048982e-15
14	0x28dec917	2.473416e-14
15	0x28d333a8	2.3448108e-14
16	0x294b5ec3	4.5157247e-14
17	0x239fa6c4	1.7309443e-17
18	0x29668aa8	5.1190524e-14
19	0x28cd5faa	2.280106e-14
20	0x279c1a4c	4.332721e-15
21	0x2907243f	3.000746e-14
22	0x2917cbc8	3.3705487e-14
23	0x269b293d	1.0766463e-15
24	0x29103eee	3.2029006e-14
25	0x294b8e0e	4.5198268e-14
26	0x284168fd	1.0736418e-14
27	0x2449d4d0	4.3765187e-17
28	0x28e8600d	2.579883e-14
29	0x2757563a	2.9883987e-15
30	0x2681aa9f	8.99742e-16
31	0x28f93938	2.7669368e-14
32	0x25b1cd99	3.0843924e-16
33	0x24107b18	3.1329287e-17
34	0x29c09d3b	8.553788e-14
35	0x274f0479	2.8729445e-15
36	0x2895f5de	1.6648951e-14
37	0x2991acdf	6.469282e-14
38	0x292859f0	3.7381502e-14
39	0x24ab452e	7.4276624e-17
40	0x29958881	6.640609e-14
41	0x26648367	7.9281474e-16
42	0x274e20d8	2.8606048e-15
43	0x29180a9f	3.3759992e-14
44	0x24d7400d	9.334989e-17
45	0x230ba343	7.569777e-18
46	0x290ac7a9	3.0815333e-14
47	0x26c08c37	1.3360682e-15
48	0x24ce3e37	8.9443655e-17
49	0x26a048f2	1.1122002e-15
50	0x2908ea99	3.0401547e-14
51	0x2893848f	1.6377767e-14
52	0x2969618d	5.1821005e-14
53	0x2919f402	3.4184468e-14
54	0x2830d9e2	9.817208e-15
55	0x234ae011	1.099789e-17
56	0x28b8766f	2.0479466e-14
57	0x245fd544	4.853606e-17
58	0x24803ab5	5.5610605e-17
59	0x28ef8914	2.6593778e-14
60	0x2752046b	2.914575e-15
61	0x24eeebf6	1.0361578e-16
62	0x2981302d	5.737108e-14
63	0x24a7bb64	7.274216e-17
64	0x24398d66	4.023525e-17
65	0x278d8fc0	3.9291216e-15
66	0x2843637f	1.0846249e-14
67	0x247e6f1d	5.5171587e-17
68	0x26e8af39	1.6145728e-15
69	0x2866e6c4	1.2817604e-14
70	0x25200020	1.387783e-16
71	0x25cada7e	3.518947e-16
72	0x25ab4e24	2.9716722e-16
73	0x2375ad84	1.331822e-17
74	0x1f517d43	4.4361086e-20
75	0x255a282e	1.8922099e-16
76	0x1dfbf653	6.669384e-21
77	0x2889acd4	1.5285008e-14
78	0x283072b1	9.794832e-15
79	0x296dedd5	5.2830858e-14
80	0x2529241d	1.4670649e-16
81	0x29a67241	7.391701e-14
82	0x26c93d91	1.3963864e-15
83	0x2294b1d8	4.030378e-18
84	0x22bcfbee	5.1224243e-18
85	0x23a3c38c	1.7755313e-17
86	0x27fdd1a8	7.0448916e-15
87	0x287e7e27	1.4127187e-14
88	0x28e3d953	2.5296312e-14
89	0x2515c1d1	1.2989357e-16
90	0x2736ec8a	2.5385802e-15
91	0x28076cc3	7.517589e-15
92	0x262a1c0e	5.901862e-16
93	0x278ad148	3.8529598e-15
94	0x275a0793	3.0257683e-15
95	0x28de5c18	2.468689e-14
96	0x290fde51	3.1945207e-14
97	0x2575289f	2.1264126e-16
98	0x28ab1178	1.899239e-14
99	0x2809e78a	7.655235e-15
100	0x24895ab0	5.956791e-17
101	0x28dd393c	2.456075e-14
102	0x282566ce	9.181632e-15
103	0x26cd3454	1.4238916e-15
104	0x23854a3c	1.4451328e-17
105	0x2930ea08	3.928284e-14
106	0x2563147d	1.9696053e-16
107	0x298aadb4	6.158564e-14
108	0x26030c7c	4.5466675e-16
109	0x275f1203	3.095723e-15
110	0x262f620b	6.0848195e-16
111	0x26643b06	7.918338e-16
112	0x29aaaa5f	7.579071e-14
113	0x2859302a	1.2056364e-14
114	0x2936afc0	4.0564557e-14
115	0x211ff31a	5.419304e-19
116	0x292153ee	3.582198e-14
117	0x27b8f0d8	5.1331382e-15
118	0x263b8937	6.506462e-16
119	0x27004ffc	1.7806928e-15
120	0x28b18ac2	1.9711124e-14
121	0x289de117	1.7528119e-14
122	0x2874b2da	1.3583503e-14
123	0x2881f8e4	1.4429816e-14
124	0x279acb06	4.2963705e-15
125	0x28381222	1.0217984e-14
126	0x285298a0	1.1690437e-14
127	0x2159dac8	7.3812014e-19
128	0x28ddd9c7	2.4630375e-14
129	0x291c081b	3.464599e-14
130	0x28ad394e	1.923171e-14
131	0x25cb6413	3.52827e-16
132	0x2985525f	5.9206756e-14
133	0x2916bf45	3.347259e-14
134	0x270efe5c	1.9844347e-15
135	0x289bb013	1.7284817e-14
136	0x283c7496	1.0461377e-14
137	0x27deb248	6.181067e-15
138	0x27981753	4.2213763e-15
139	0x29c5296b	8.755742e-14
140	0x2631397d	6.148712e-16
141	0x22e4e7f2	6.2045105e-18
142	0x29c4ec2a	8.7451164e-14
143	0x278e06e8	3.9420405e-15

exp_avg f4 [4]
0	0x80000004	-6e-45
1	0x84819f12	-3.0473837e-36
2	0x9b0eac13	-1.1801565e-22
3	0x80d59bc8	-1.9616844e-38

exp_avg_sq f4 [4]
0	0x2528afde	1.4631263e-16
1	0x266c125e	8.190384e-16
2	0x27398c1a	2.5749857e-15
3	0x26522a85	7.291601e-16

exp_avg f4 [4, 4, 3, 3]
0	0x2f78d692	2.2631699e-10
1	0x3168dc78	3.3885765e-09
2	0xae00c8fe	-2.9282347e-11
3	0x19b4e3db	1.8703594e-23
4	0x201c84d1	1.3257659e-19
5	0xae1ad93a	-3.5208482e-11
6	0xa50a96dd	-1.2020706e-16
7	0x26085551	4.7300104e-16
8	0xa7c38161	-5.4263645e-15
9	0xac3a9e32	-2.6520006e-12
10	0x80000002	-3e-45
11	0x80000003	-4e-45
12	0x2e7527a5	5.5741762e-11
13	0x26d5cffa	1.4836216e-15
14	0x80000004	-6e-45
15	0xaefd4176	-1.1516736e-10
16	0xaebbe64d	-8.544685e-11
17	0x2e6b3e5b	5.3488197e-11
18	0xafe47325	-4.1554774e-10
19	0x1c68ea09	7.7064844e-22
20	0x2ddb09a1	2.4901694e-11
21	0x97b1df3b	-1.1494708e-24
22	0x2330f5e2	9.593047e-18
23	0x312ea0fc	2.5411842e-09
24	0x9591a7b4	-5.882962e-26
25	0x2d72bd68	1.3798164e-11
26	0x2e23c322	3.7235222e-11
27	0x19b3336e	1.8528938e-23
28	0x80000004	-6e-45
29	0x8108a51f	-2.5097724e-38
30	0xafd3cbe9	-3.8525563e-10
31	0x2d4acb93	1.1527573e-11
32	0x2b9b4fa9	1.1035523e-12
33	0xaf8205e6	-2.3651053e-10
34	0x2f1da6b1	1.4338288e-10
35	0xb056267b	-7.790743e-10
36	0x1f922638	6.189663e-20
37	0x99e3c845	-2.3552138e-23
38	0x2c1085de	2.0537942e-12
39	0xaec5b535	-8.9907116e-11
40	0x00000004	6e-45
41	0x2e3665e6	4.1472513e-11
42	0x80000297	-9.29e-43
43	0x99038836	-6.800049e-24
44	0x00000004	6e-45
45	0x9b1d03b3	-1.2987931e-22
46	0xb16ad436	-3.417211e-09
47	0x2eae3049	7.921181e-11
48	0x2f60b64e	2.0437449e-10
49	0x2976a0fb	5.47626e-14
50	0x146c0aa5	1.1917054e-26
51	0x2dd5b064	2.429363e-11
52	0x2c74a635	3.476675e-12
53	0x80000004	-6e-45
54	0x00000004	6e-45
55	0x00000004	6e-45
56	0x316e4452	3.4672394e-09
57	0x28e01eb1	2.4882306e-14
58	0x0db10d06	1.09116025e-30
59	0xb09ce2a7	-1.1414912e-09
60	0x2df31f4d	2.7639802e-11
61	0x87a0ed0e	-2.4213453e-34
62	0x00000003	4e-45
63	0x30502700	7.572538e-10
64	0x1809ae11	1.7794716e-24
65	0xade829a3	-2.6393837e-11
66	0x0b20a299	3.0937204e-32
67	0x8108161a	-2.4995112e-38
68	0xb1012caa	-1.879736e-09
69	0x30fddbb8	1.8470621e-09
70	0xaf268496	-1.5144716e-10
71	0x2d44522e	1.1159558e-11
72	0x30892409	9.978304e-10
73	0xa8c47dec	-2.1814981e-14
74	0xaf9e9519	-2.8845973e-10
75	0x00000004	6e-45
76	0xb0a25c89	-1.1813351e-09
77	0x823104a8	-1.3005243e-37
78	0x0000dadd	7.8513e-41
79	0xaadc30ec	-3.9113797e-13
80	0x80006778	-3.7118e-41
81	0x80000004	-6e-45
82	0xaf0bbd8a	-1.2709314e-10
83	0x2e386ced	4.1933502e-11
84	0xaa7c8ac0	-2.2430235e-13
85	0x2f6158f8	2.0495239e-10
86	0x20c0adec	3.2641157e-19
87	0x00000004	6e-45
88	0x1c72d719	8.034909e-22
89	0x3030088a	6.404056e-10
90	0x00000004	6e-45
91	0x067802ab	4.6645576e-35
92	0xa05027de	-1.7631476e-19
93	0xb1713927	-3.5102603e-09
94	0xabfa53ba	-1.7786807e-12
95	0x2668b8a3	8.07414e-16
96	0x8b9ec0ed	-6.114967e-32
97	0x31121615	2.1258348e-09
98	0x1195ef96	2.3655711e-28
99	0x2ce5ff15	6.5368913e-12
100	0x2b07cd0c	4.8246194e-13
101	0x80000004	-6e-45
102	0x2a82e3ef	2.32508e-13
103	0xad193b37	-8.710191e-12
104	0x80000004	-6e-45
105	0xa1c942e4	-1.3637996e-18
106	0xaec5cb04	-8.9945856e-11
107	0x82cb51bd	-2.9875085e-37
108	0xb147a38a	-2.9051272e-09
109	0x251f8a97	1.3838008e-16
110	0x2cbd985f	5.3886197e-12
111	0x2ace86cc	3.6686485e-13
112	0x16765a75	1.9900265e-25
113	0x2f04a7b0	1.2064905e-10
114	0x80000004	-6e-45
115	0x2056e09c	1.8200822e-19
116	0x2a8b738f	2.4771545e-13
117	0x306063a0	8.16323e-10
118	0x3004857f	4.821103e-10
119	0x256b2acf	2.0397505e-16
120	0x20a39c49	2.7716695e-19
121	0xa36fedbd	-1.3006559e-17
122	0xad234d48	-9.282637e-12
123	0x28672380	1.2830774e-14
124	0xaeae724c	-7.932907e-11
125	0xa29ff933	-4.3360886e-18
126	0x2858dc94	1.2038239e-14
127	0x9123a7db	-1.2910157e-28
128	0xb03f4d67	-6.959539e-10
129	0x80000004	-6e-45
130	0xb0eb1521	-1.7104506e-09
131	0xad706e98	-1.3666977e-11
132	0x272f32a3	2.4313579e-15
133	0x8e9e382a	-3.900409e-30
134	0xaf88da4f	-2.4893373e-10
135	0xacca0c5d	-5.742558e-12
136	0x887da8b2	-7.633272e-34
137	0x13feeeb5	6.4353998e-27
138	0x882a3a5e	-5.1226124e-34
139	0x00000004	6e-45
140	0xaffdc25f	-4.615854e-10
141	0x80000004	-6e-45
142	0xa19f81e0	-1.0808637e-18
143	0x2f39ef84	1.6910745e-10

exp_avg_sq f4 [4, 4, 3, 3]
0	0x2945c943	4.3917354e-14
1	0x29c8928a	8.907205e-14
2	0x290391cd	2.9214305e-14
3	0x2728c625	2.3422098e-15
4	0x278c3e68	3.8925467e-15
5	0x29080f86	3.021153e-14
6	0x27e945fd	6.4746373e-15
7	0x2803921f	7.303646e-15
8	0x28265a70	9.234462e-15
9	0x28b19c70	1.9718791e-14
10	0x22781a88	3.3624313e-18
11	0x22353c1e	2.45619e-18
12	0x29144e05	3.2930273e-14
13	0x28125a0c	8.124154e-15
14	0x24c3d86a	8.493439e-17
15	0x292b46e4	3.8031115e-14
16	0x292139a9	3.5799194e-14
17	0x29132395	3.267142e-14
18	0x29633a0f	5.0454483e-14
19	0x274d6e3c	2.8509223e-15
20	0x28ff9a5d	2.8377632e-14
21	0x271382a8	2.0471177e-15
22	0x27be1808	5.276165e-15
23	0x29b7ae60	8.157082e-14
24	0x27012176	1.7920485e-15
25	0x28e6b45e	2.5613351e-14
26	0x29097840	3.052441e-14
27	0x2728b1c5	2.3411053e-15
28	0x255fde1b	1.9417419e-16
29	0x265346b8	7.330117e-16
30	0x295f374b	4.9563906e-14
31	0x28dfd6f5	2.4851196e-14
32	0x289c85a2	1.7377433e-14
33	0x2947b931	4.4347504e-14
34	0x2933434a	3.9804348e-14
35	0x29848f35	5.88682e-14
36	0x27857b3a	3.704852e-15
37	0x272abdd5	2.3695147e-15
38	0x28ab0b45	1.8989701e-14
39	0x2922e004	3.616553e-14
40	0x2510588c	1.252001e-16
41	0x290c3eb4	3.114063e-14
42	0x2633cb5c	6.2378704e-16
43	0x27208a2a	2.227936e-15
44	0x261a7087	5.3581986e-16
45	0x273a7d47	2.5880598e-15
46	0x29c919d7	8.9306756e-14
47	0x291ed045	3.5263693e-14
48	0x2941684c	4.2945072e-14
49	0x2855cea6	1.1868685e-14
50	0x26f168fe	1.6751192e-15
51	0x28fe7b2c	2.8253082e-14
52	0x28b8fc9c	2.0537656e-14
53	0x25ab8a81	2.9757625e-16
54	0x25eacc47	4.0730953e-16
55	0x2590b1cf	2.5100506e-16
56	0x29ca04ba	8.971422e-14
57	0x28438ee2	1.0855657e-14
58	0x26aad3b9	1.1853507e-15
59	0x29927815	6.5045334e-14
60	0x29023559	2.891207e-14
61	0x26845249	9.181643e-16
62	0x22a3aae8	4.4362193e-18
63	0x29839ac7	5.844418e-14
64	0x27168e6b	2.0893887e-15
65	0x290122c3	2.8673905e-14
66	0x269865b7	1.0574689e-15
67	0x265341ff	7.329477e-16
68	0x29a829e9	7.467969e-14
69	0x29a75273	7.4305925e-14
70	0x293557f8	4.0266374e-14
71	0x28dea202	2.471721e-14
72	0x298d552f	6.276435e-14
73	0x2840be1c	1.06993644e-14
74	0x2950d14c	4.6366814e-14
75	0x22f3bd5e	6.6065782e-18
76	0x2993d2df	6.564692e-14
77	0x265b157a	7.6009994e-16
78	0x263d514c	6.5682725e-16
79	0x2888137b	1.5107481e-14
80	0x263b233f	6.4926425e-16
81	0x2277ea46	3.3598765e-18
82	0x292eccf8	3.8813543e-14
83	0x290c88e7	3.120499e-14
84	0x287d7106	1.4068829e-14
85	0x294186e7	4.2971618e-14
86	0x2794f052	4.1338808e-15
87	0x229d5a5a	4.26506e-18
88	0x274de8f3	2.8575747e-15
89	0x297c5988	5.6032896e-14
90	0x2553ca7d	1.8369938e-16
91	0x267d2347	8.782482e-16
92	0x278ee8eb	3.9665448e-15
93	0x29cacd1e	9.006184e-14
94	0x28a78205	1.8597111e-14
95	0x280a3109	7.671172e-15
96	0x269ba6ab	1.0800461e-15
97	0x29ae4036	7.738291e-14
98	0x26cec02c	1.434621e-15
99	0x28cc120a	2.2656373e-14
100	0x288be066	1.5529417e-14
101	0x1c833836	8.683383e-22
102	0x287e975b	1.4132652e-14
103	0x28d5bb64	2.3729018e-14
104	0x24cbb045	8.833583e-17
105	0x27a48477	4.5662763e-15
106	0x2922e3ad	3.6168703e-14
107	0x265f4c3f	7.7472e-16
108	0x29bf434e	8.4937794e-14
109	0x27ec19f9	6.553132e-15
110	0x28c5ee62	2.1974776e-14
111	0x2886f245	1.4982056e-14
112	0x270834a5	1.890233e-15
113	0x292ced17	3.8397315e-14
114	0x208363da	2.225834e-19
115	0x278f364d	3.9749346e-15
116	0x288051a4	1.424626e-14
117	0x298626dd	5.957537e-14
118	0x296b6b3f	5.2273503e-14
119	0x27f42ac1	6.776996e-15
120	0x27934d02	4.088419e-15
121	0x27c29f87	5.4018777e-15
122	0x28d7f7a3	2.397719e-14
123	0x2835fb1a	1.0101967e-14
124	0x291edc3c	3.527407e-14
125	0x27b300a3	4.968317e-15
126	0x2834bfcc	1.00335965e-14
127	0x26ca1cb3	1.4024345e-15
128	0x2980d3ba	5.7210706e-14
129	0x24343ea2	3.908433e-17
130	0x29a3b4e0	7.270031e-14
131	0x28e654f0	2.5571965e-14
132	0x2819859b	8.522177e-15
133	0x26b259bf	1.2375557e-15
134	0x294a02ce	4.4855443e-14
135	0x28c7ec0a	2.2195804e-14
136	0x2688a0ad	9.480447e-16
137	0x26eb5e8b	1.6332027e-15
138	0x26871a61	9.374657e-16
139	0x23b55993	1.9661995e-17
140	0x2968f9a9	5.1730894e-14
141	0x2463ad15	4.9369385e-17
142	0x27a1d204	4.4914176e-15
143	0x2939a629	4.1222373e-14

exp_avg f4 [4]
0	0x24ad49b5	7.5151655e-17
1	0x0f2af59c	8.42895e-30
2	0xa49f8399	-6.917819e-17
3	0x80000004	-6e-45

exp_avg_sq f4 [4]
0	0x27e03312	6.222786e-15
1	0x26b72c86	1.2710244e-15
2	0x27dea78f	6.1799045e-15
3	0x235c1f93	1.193291e-17

exp_avg f4 [1, 4, 3, 3]
0	0x80000004	-6e-45
1	0x2f2577d2	1.5049231e-10
2	0x85dd2330	-2.0795666e-35
3	0x3312521d	3.4067956e-08
4	0xb2efcfdc	-2.7917785e-08
5	0xb2c66226	-2.3094866e-08
6	0xa2c789d4	-5.408499e-18
7	0xb29ef029	-1.8502833e-08
8	0x1daf1447	4.634308e-21
9	0x80000004	-6e-45
10	0xb018877b	-5.5489807e-10
11	0xa69004b3	-9.993281e-16
12	0xac830c0d	-3.724582e-12
13	0x1b761bf2	2.0357673e-22
14	0xae9ecd3c	-7.221465e-11
15	0xa078c150	-2.1070379e-19
16	0xa72fb077	-2.438179e-15
17	0xacbb9d8a	-5.33235e-12
18	0x30954efe	1.0863628e-09
19	0xb30f4c3f	-3.3364127e-08
20	0x2bc00a23	1.3645234e-12
21	0xae998057	-6.980432e-11
22	0x2653b23b	7.344688e-16
23	0x33189f7f	3.553532e-08
24	0x00000004	6e-45
25	0xab51bb8b	-7.4511984e-13
26	0x3118f116	2.2255953e-09
27	0xabfb1a0f	-1.7841855e-12
28	0xafd93db8	-3.9515924e-10
29	0x3100131c	1.8637314e-09
30	0x2f444503	1.7850614e-10
31	0x03130768	4.320792e-37
32	0x2a515ac4	1.859442e-13
33	0x93cdf1fb	-5.1987887e-27
34	0x00000004	6e-45
35	0x16fc91c9	4.08048e-25

exp_avg_sq f4 [1, 4, 3, 3]
0	0x24f25547	1.05095236e-16
1	0x293519fb	4.0212608e-14
2	0x2677d633	8.5985634e-16
3	0x2a73da26	2.1658421e-13
4	0x2a5e0f13	1.9722791e-13
5	0x2a4bdf82	1.8107567e-13
6	0x27b5fd34	5.0512115e-15
7	0x2a394872	1.6456435e-13
8	0x2763ad1a	3.1596417e-15
9	0x24996287	6.6520085e-17
10	0x2973959e	5.408661e-14
11	0x280cf8d1	7.825515e-15
12	0x28baefa4	2.0754076e-14
13	0x273f0223	2.6507733e-15
14	0x291bf159	3.462625e-14
15	0x27909d96	4.0138884e-15
16	0x28199068	8.524519e-15
17	0x28c59aef	2.1938585e-14
18	0x29908c05	6.419174e-14
19	0x2a716be8	2.1442537e-13
20	0x28a14522	1.7904572e-14
21	0x291ae889	3.439656e-14
22	0x2808fbad	7.60409e-15
23	0x2a78df49	2.2104292e-13
24	0x258a6d81	2.4013387e-16
25	0x2894456e	1.6461411e-14
26	0x29b09ab2	7.8428055e-14
27	0x28a7951f	1.8605395e-14
28	0x29608c9f	4.985996e-14
29	0x29a7c0a9	7.449711e-14
30	0x293bd106	4.170364e-14
31	0x26613a21	7.8141336e-16
32	0x2877901b	1.3742502e-14
33	0x26e9555d	1.6190761e-15
34	0x2561330e	1.9532937e-16
35	0x270caa08	1.9521077e-15
