temp/idx-15-LR1.00E-03-AugNone-CV2D-2-Ch3D24-CV3D2-Ch3D24-net.pth (torch_old, 170276 bytes, 18 tensors)

conv3Ds.0.weight f4 [16, 1, 3, 3, 3]
000000 58 4c a4 3d e9 c4 ad 3e 83 10 8b 3e 22 80 13 3a
       0.08022374 0.33939293 0.27161035 0.0005626698
000010 f0 a1 af 3b 3d 6f 7a 3e a7 43 67 3e 10 b5 09 3e
       0.0053598806 0.24456497 0.22584401 0.13447976
000020 6b df 5f 3c ee e5 39 3d ba 49 07 3d d1 cd 3c 3e
       0.013664107 0.045385294 0.033029296 0.18437888
000030 ae d9 a3 bd ed 9d 90 3d be ed 10 be fd 55 c1 bc
       -0.080005035 0.07061372 -0.14153191 -0.023600573
000040 4d 38 41 3e e2 27 89 bd c8 c3 2e be f2 ad 96 be
       0.18869133 -0.0669706 -0.17066872 -0.29429585
000050 43 ff 5a bd 71 9e 4d be f9 86 c2 be c0 27 2c be
       -0.053466093 -0.20079972 -0.379936 -0.16812038
000060 15 4b 24 3b 2e e3 36 be 0f 2c 8d bd a7 32 6c be
       0.0025069166 -0.178601 -0.06893169 -0.23066197
000070 a1 a7 bd be df 91 d1 bc 5f 98 2b 3d d3 1f 2f be
       -0.37041953 -0.025582252 0.04189336 -0.17101984
000080 31 aa 74 be 23 73 7b 3e 47 60 13 3d 34 91 8a 3e
       -0.23893048 0.2455564 0.03598049 0.27063906
000090 b7 09 98 be ca d4 1f be bb a1 88 be bc 7e 18 3e
       -0.29694912 -0.15608516 -0.2668589 0.14892095
0000a0 ca 9c 80 3d 68 29 77 be bb fa d2 3d e2 1e 75 3e
       0.06279905 -0.24136889 0.10301729 0.23937562
0000b0 de 88 51 bd 9e 8e 35 be b2 a4 e1 be c3 42 92 be
       -0.051155917 -0.17730185 -0.44070965 -0.2856656
0000c0 d3 73 1f 3e bc 23 6c 3d 77 be 11 3e 4c c8 09 3f
       0.15571527 0.057651266 0.14232813 0.53821254
0000d0 95 68 8d 3e f6 1a 93 3e 8c b4 4a 3e dd 49 c0 bd
       0.27618852 0.28731507 0.19795436 -0.09389088
0000e0 d9 73 95 bd f4 74 7d 3e 4d f9 b7 3d e2 19 1c be
       -0.07297487 0.24751645 0.08983097 -0.15244249
0000f0 20 42 c2 3e c6 6e 01 3c 0d 2e 17 3e 3f cf fe 3d
       0.37941074 0.007899946 0.1476366 0.12441873
000100 1e 30 f7 ba 96 1b 84 be 02 ab b3 3d 11 30 b8 3d
       -0.0018858945 -0.25802296 0.087728515 0.08993543
000110 04 e6 f3 bd cb 0b b4 3e bf 21 7d 3e 7d 4e 7e bd
       -0.119091064 0.35165247 0.24719904 -0.06208657
000120 a4 8d 28 3e 61 ea 90 be 39 44 ca be c5 ce bb bc
       0.16460282 -0.28303817 -0.39505175 -0.022925744
000130 45 95 03 bd ea f7 af be f8 8e 6b 3e 0f 81 0a 3e
       -0.032124776 -0.3436883 0.23003757 0.13525794
000140 9b b6 89 ba 8c b4 c4 be a1 ba 01 bf 18 74 a4 be
       -0.0010506691 -0.38418996 -0.506754 -0.32119823
000150 5a 89 21 be cf f1 03 3e 78 d0 50 be b2 37 60 3f
       -0.15775052 0.12885211 -0.20392025 0.87584984
000160 4f 53 28 3f 1a 2a d7 3e 34 da ea 3c 5b 9c 31 be
       0.6575212 0.42024308 0.0286685 -0.17344801
000170 e0 da b4 be 7f 7c 0b 3f 30 ca ec 3e 48 ff 72 3e
       -0.35323238 0.5448684 0.46248007 0.23730195
000180 e7 c6 56 3f 7a 46 2e 3f 72 12 0c 3f f2 7b ea be
       0.8389725 0.6807629 0.54715645 -0.45797688
000190 a4 aa 43 be 69 73 1a bf 43 09 6c be 60 79 cc bc
       -0.19108063 -0.6033235 -0.23050408 -0.02496022
0001a0 bc 58 08 be f9 85 66 3d 63 cc 22 3d fc 10 c2 bc
       -0.133151 0.05628011 0.0397457 -0.02368974
0001b0 db 70 8d 3d 2d 61 16 be 3a 5f 9c bc 34 d4 ae 3d
       0.06906291 -0.14685507 -0.019088376 0.08536568
0001c0 2b 23 02 be 6a 66 ab 3d 1b 0e a1 bc 2c e4 3c 3d
       -0.12708728 0.08369143 -0.019660046 0.04611604
0001d0 c5 e7 b4 bd 14 60 2e be de af a1 bc 4d 98 88 3d
       -0.08833269 -0.17028838 -0.01973718 0.06669674
0001e0 76 d2 07 3d f4 72 0f be f0 99 1a 3e b5 a7 6d 3e
       0.033159696 -0.14008695 0.15097785 0.23208506
0001f0 4f c3 0c be 3e 7e 14 be 2e 75 81 be 3b 9c 8e bd
       -0.1374638 -0.14501283 -0.25284714 -0.06963392
000200 35 10 1f be c0 8a 87 bd 38 41 81 be 22 42 02 3e
       -0.15533526 -0.06618261 -0.2524507 0.1272054
000210 9b 71 97 bc 44 ef 1c 3e 2c 9e e1 bb 8d 08 b9 bd
       -0.018486788 0.15325648 -0.0068853106 -0.09034834
000220 d7 ec fe bd 59 d6 d5 3d d3 da 31 be 71 b9 42 be
       -0.12447517 0.10441274 -0.17368631 -0.19016053
000230 f3 c1 1d 3e ef be fb 3c 14 91 38 be 9d ed e0 3c
       0.15406017 0.030730693 -0.18024093 0.027457053
000240 6c aa ab be 82 6c 30 be 11 59 06 3e 46 8e f0 bd
       -0.3352846 -0.17228892 0.13119914 -0.117458865
000250 72 46 87 bd 49 01 21 3e 39 24 63 3e 92 d0 ad bd
       -0.06605233 0.15723146 0.22181787 -0.08487047
000260 6d 56 f8 bd 6c a8 34 bd 10 5c 84 3d f4 e1 ca 3d
       -0.121258594 -0.044105932 0.06462872 0.099063784
000270 8a c4 4f be 72 89 80 3d ff 11 20 3e 23 91 b5 bd
       -0.20289817 0.062762156 0.15631865 -0.08865573
000280 b1 b5 d3 3d 53 b3 e3 bd 4d 61 00 3f 1e c6 ac 3e
       0.10337389 -0.11118188 0.5014847 0.337449
000290 c4 3e 1a 3f 37 4a 0d 3f 9a c9 95 3c dc f4 5c be
       0.6025202 0.5519137 0.018284608 -0.21577781
0002a0 f7 b7 6f 3f 35 9a 45 3e 6a 47 dd 3d 27 9f e9 3e
       0.93640083 0.19297107 0.10804637 0.45629236
0002b0 a8 ed a9 3e 38 2c eb 3e a0 69 9b 3e 62 32 3d 3d
       0.3318913 0.45932174 0.30354023 0.046190627
0002c0 ce 3e 98 be 60 a4 52 3f 00 70 87 3e 95 98 a3 be
       -0.29735416 0.82282066 0.26452637 -0.31952348
0002d0 ed 3e 0e 3f ce 07 dd 3e 0a 38 40 3e ae 91 b2 3e
       0.5556477 0.43170017 0.18771377 0.3487677
0002e0 0a 46 3b 3d fc 3a 25 be 13 6b 54 3e b4 0b ae be
       0.04572109 -0.16135782 0.2074397 -0.33993304
0002f0 c6 6d 19 bf 0b fb 8f bd c7 1d 20 bf c1 d2 4b bf
       -0.59933126 -0.070303045 -0.62545437 -0.7961846
000300 07 2b d4 bd 4c cf d2 be e8 c1 13 bf 27 b7 26 be
       -0.10359769 -0.4117378 -0.5771775 -0.16280805
000310 6c 73 da 3c 90 a2 c7 be 4f 8f 4c be cf d6 39 bf
       0.026666366 -0.38991213 -0.19976543 -0.72593397
000320 d1 5a 52 bf 18 af f8 3d 4a 50 95 bd b7 f7 14 bf
       -0.82169825 0.121427715 -0.072907045 -0.5819048
000330 06 a1 4f be 24 eb 89 be 2c 32 af be 15 5a d3 be
       -0.2027627 -0.2693721 -0.34217966 -0.41279665
000340 6a 7b e5 be af 48 c4 be 0d 8a e5 bd d5 d3 18 be
       -0.4482072 -0.38336703 -0.11207972 -0.14924558
000350 d1 9b 28 be 24 e1 5b 3d d4 2b f2 3d 11 1b 19 be
       -0.16465689 0.053681508 0.11824766 -0.14951731
000360 16 f2 06 3f 99 81 00 3f 3a 48 88 3e ea 76 42 3e
       0.52713144 0.5019775 0.26617604 0.18990675
000370 cc 52 82 3e 26 bb 48 3e e9 a6 78 3e 1f d0 d1 3d
       0.25453794 0.19602641 0.24282421 0.10244774
000380 83 87 ae 3e d9 66 07 3f e2 25 2f 3d a4 c7 b3 3a
       0.34087762 0.5289131 0.042760737 0.0013716114
000390 34 b6 e6 3e b8 3d 9d 3e f5 6f 1b bd 54 d9 e4 3e
       0.45060885 0.3071115 -0.037948567 0.44697058
0003a0 ba aa 02 3f 99 38 f0 3e 22 a8 85 bd 2e 48 95 be
       0.5104176 0.4691818 -0.065262094 -0.2915663
0003b0 bb bb 84 be e8 8f 83 bc d4 82 5d 3d f1 93 0b be
       -0.25924477 -0.01605983 0.054079846 -0.13630654
0003c0 4f fd 2b 3e 6d c7 28 3e 63 7e 8a 3e 02 56 9c be
       0.16795848 0.16482325 0.2704955 -0.3053437
0003d0 16 e7 67 3d 5c c8 1c 3e 21 fa 2f 3e 81 55 6f bd
       0.056616865 0.15310806 0.1718526 -0.058431152
0003e0 c2 19 08 3e e4 75 4a 3d ca 23 91 3e 9c 38 d8 3e
       0.13291076 0.049428836 0.28347617 0.4223069
0003f0 40 ea c1 be 08 73 83 be 0f 53 85 bd 80 95 8b be
       -0.3787403 -0.256737 -0.06509983 -0.27262497

conv3Ds.0.bias f4 [16]
000000 49 10 07 3d 29 9e 1f 3e e9 3b 75 3e 6a 73 b8 3b
       0.032974515 0.15587677 0.23948635 0.005628993
000010 12 5e 34 3e 33 fd 1d 3e 0a 20 25 3e 66 0e 2a be
       0.1761401 0.15428619 0.16125503 -0.16607055
000020 9f d3 48 bd ef 57 09 3d ff 2b ee bd 82 b1 9d 3d
       -0.049029943 0.033531126 -0.11629485 0.076998726
000030 ae 7d 9a 3d 50 7e 68 be c2 3e d2 3c d4 a3 e4 3d
       0.07543503 -0.22704434 0.02566469 0.1116406

conv3Ds.2.weight f4 [1, 16, 3, 3, 3]
000000 a6 45 e0 3d 8f d9 26 3c ac 99 64 bb bd 43 f9 bd
       0.109507844 0.010183706 -0.0034881635 -0.12171123
000010 45 6c bf bd c5 e0 02 be 1f 9b 75 be 13 7c 22 be
       -0.09346823 -0.12781055 -0.23984955 -0.15867643
000020 b3 ac 0d be 3b 7f 4c 3d d7 45 34 3d 51 24 4c bc
       -0.13835411 0.049926024 0.044011917 -0.01245983
000030 77 33 47 bc ce 40 0f bd 92 ff 9b bc e4 94 32 3d
       -0.012158266 -0.034973912 -0.019042764 0.043599024
000040 3b 18 60 3d 2a 94 bb 3c 34 d6 c3 bd 23 97 c3 bd
       0.054710608 0.022897799 -0.095623404 -0.095503114
000050 78 73 07 be 1f c7 92 bd 3a 22 96 bd 16 55 91 bd
       -0.13227642 -0.071668856 -0.07330747 -0.07096307
000060 0b 92 9f 3c 8d ea 41 bd 98 7c 29 3b e1 42 42 3e
       0.019478818 -0.047342826 0.0025861617 0.18970825
000070 21 0b a5 bd eb 23 a3 be eb 48 74 3e 26 02 05 3e
       -0.08058763 -0.3186334 0.23855941 0.12989101
000080 55 ca 44 bb b3 63 a0 3e 0b a1 98 3e 76 7e 38 3e
       -0.0030027826 0.31326064 0.29810366 0.18016991
000090 10 d6 34 3e 6a 5d c2 bc f8 23 8a be fa 51 68 3e
       0.17659783 -0.023726184 -0.26980567 0.22687522
0000a0 80 38 3b 3e b5 55 1b bc 91 50 89 3e 5d 00 77 3e
       0.18283272 -0.009480883 0.2681928 0.24121232
0000b0 85 93 43 3e 00 30 a6 3e 90 3c 6f 3e 6b a1 45 3d
       0.19099243 0.32458496 0.23362947 0.048249643
0000c0 e4 fc 9b 3e 4c 92 8c 3e 78 ea 40 3e c8 8d ab 3e
       0.30466378 0.27455366 0.18839443 0.33506608
0000d0 4e c9 91 3e 57 98 6e 3e d6 9a d2 3d 4a 27 8e bd
       0.28473896 0.233003 0.10283439 -0.069410875
0000e0 91 37 11 be 57 1f d0 3d 91 74 fb 3b bb a7 bf bc
       -0.14181353 0.101622276 0.007673808 -0.02339541
0000f0 85 58 9f 3d a3 a0 a8 3c 43 24 9f ba 51 98 e3 3b
       0.07780556 0.02058441 -0.0012141544 0.0069456478
000100 bd 95 34 3b e0 ef 1f be 92 15 16 3d 5d 7f b1 3c
       0.0027555071 -0.15618849 0.036641665 0.021667177
000110 52 47 24 bd 63 5f d7 3d 4c d5 90 3d 1f 2c 21 3d
       -0.04010708 0.105162404 0.07071933 0.039348718
000120 64 ab 5f bd ff bc 0a be 08 90 02 be 1f ce 51 bb
       -0.05460681 -0.13548659 -0.12750256 -0.0032013727
000130 3a 49 2d 3b 29 14 de bd b5 06 d8 3d 0e 26 a3 3d
       0.0026441352 -0.10843689 0.10548154 0.07966243
000140 bf f1 1c bd ce b1 e3 be a7 93 0a bf 6a 33 19 bf
       -0.038316485 -0.44471592 -0.5413155 -0.59844077
000150 85 40 28 bf 88 2e 22 bf df 23 f8 be 53 7d 2d bf
       -0.6572345 -0.6335225 -0.48464867 -0.67769355
000160 3b 51 28 bf 0e 9f 04 bf b5 a2 14 be eb 22 84 be
       -0.6574895 -0.518052 -0.14515193 -0.2580789
000170 69 0a ba be f3 51 a7 be 7c f0 b1 be 1f f8 9f be
       -0.36336067 -0.3267971 -0.34753788 -0.3124399
000180 f5 87 a6 be 6b c7 e5 be b1 2d d6 be 7c 04 ba be
       -0.32525602 -0.44878706 -0.41831735 -0.36331546
000190 0e eb d7 be 1c 9d e2 be 69 18 ba be 49 3f 06 bf
       -0.4217152 -0.4426049 -0.36346748 -0.52440315
0001a0 a9 de 0e bf 89 94 80 be 45 63 e1 be 19 ac fc be
       -0.558085 -0.25113323 -0.4402105 -0.4935005
0001b0 66 b5 86 3d 56 3d 5f 3d c7 7d 32 3c 1e f3 26 bb
       0.06577568 0.054501854 0.0108942455 -0.00254745
0001c0 69 47 50 3d 9e 9b ed bc 44 c6 82 3b a5 c3 32 3d
       0.050849352 -0.029004868 0.0039909203 0.043643612
0001d0 8a ec 68 3d 09 d1 81 3d 80 86 8e 3d 8d 79 1c bd
       0.056866206 0.063386984 0.069592476 -0.038201857
0001e0 22 32 be 3c 9d 7e 21 3d d4 3a cd 3c b2 20 9f 3c
       0.023217265 0.03942739 0.025052465 0.01942477
0001f0 01 41 b4 3c e9 14 7f 3d fe ac 4e 3d cf e8 fa 3c
       0.022003653 0.0622758 0.050457947 0.03062859
000200 23 d5 0d bc e2 74 95 3d 70 e1 55 3c 44 25 65 bc
       -0.008656773 0.07297684 0.013054237 -0.013985936
000210 54 00 3a 3d 0c b5 75 3d 01 cd e9 bb d3 3a 59 bd
       0.04541047 0.059987113 -0.007135034 -0.053034615
000220 dc 30 96 3d 01 25 f5 3c 82 a7 36 bc 85 f6 b8 bc
       0.07333538 0.029924871 -0.011148335 -0.022578487
000230 cc ed b9 3a fe 58 e5 bb 1d 07 48 3d 63 df 42 3d
       0.0014185249 -0.006999134 0.04883491 0.04757632
000240 ab 96 8b 3d 48 64 b3 3d e4 b7 00 3d 7e ce 7a bc
       0.06815847 0.087593615 0.03142537 -0.015308021
000250 31 2a 1b 3d 10 a8 b0 3c c5 87 80 3c 1e c9 61 3d
       0.037882034 0.021564513 0.01568974 0.05512344
000260 5a 23 4f 3d e2 cc 1f 3d 47 3c c6 3d 6c f2 4f 3d
       0.050570823 0.03901375 0.09679466 0.0507683
000270 10 de 75 3a c8 1b 7b 3d eb fa c9 3d ae 25 98 3c
       0.0009379098 0.06130579 0.09862312 0.018572655
000280 80 75 90 3d 89 18 b7 3d d1 1f fe 3e d9 bc cd 3e
       0.07053661 0.089402266 0.4963365 0.40183142
000290 4c 07 b3 3e 00 f6 f1 3e 0d 32 06 3e 71 2c 82 bd
       0.34966505 0.47257996 0.1310503 -0.06356133
0002a0 c0 8b 27 3f 7c 31 e0 3d 1a 74 a4 be 96 7e ca 3e
       0.65447617 0.109469384 -0.32119828 0.39549702
0002b0 f5 98 aa 3e 02 b7 6e 3e 14 41 03 3f 14 51 01 3e
       0.33319822 0.23312 0.51271176 0.12628585
0002c0 d6 07 db bc d4 e3 3c 3f 51 4a 18 3e d3 f6 b8 be
       -0.026737135 0.7378514 0.148721 -0.36125812
0002d0 a9 c3 bc 3e 56 37 8c 3e 10 d0 9b 3e 80 76 e0 3e
       0.36868027 0.27385968 0.30432177 0.43840408
0002e0 1f 36 1a 3e f0 d5 ed bc 7c 08 17 3f c4 17 61 bd
       0.15059708 -0.029032677 0.5899732 -0.054954305
0002f0 2a 44 e0 be d7 dd 30 3e 03 09 74 3d 99 19 38 be
       -0.43802005 0.17272125 0.059578907 -0.17978515
000300 b6 15 6b 3d 95 e8 ce 3a dc cf 07 be aa 3f 0a 3d
       0.057393752 0.0015785868 -0.13262886 0.03375212
000310 88 68 13 3c c7 50 f7 bd 05 43 4b 3e 55 a1 aa 3d
       0.00899709 -0.12075954 0.19849785 0.08331553
000320 06 26 01 be 2b a1 b9 3d 72 1c 15 3d 32 c2 d7 bd
       -0.12612161 0.090639435 0.03640408 -0.10535087
000330 39 bd 02 3c a6 5a bc 3a 45 4f b9 bd 84 99 35 3e
       0.0079796845 0.0014370277 -0.090483226 0.17734343
000340 2a f1 c5 3d 15 09 1f be 08 09 8a 3d 18 76 cc bc
       0.09665139 -0.15530808 0.06740004 -0.024958655
000350 e2 56 f5 bd a0 30 60 bb d2 60 39 bd 2f 94 7d bd
       -0.11979462 -0.003420867 -0.04525835 -0.061908897
000360 75 13 6d 3e 17 f4 03 bd a8 eb 09 be 74 92 a1 3e
       0.23151954 -0.032215204 -0.13468802 0.31557047
000370 64 c7 19 3e 3f 3c 55 b9 92 05 d8 3e b6 c0 9d 3e
       0.15017468 -0.00020335706 0.4219175 0.3081109
000380 ad 6e 9a 3e 81 54 95 3e 8c de af 3d dd f2 c6 bd
       0.30162564 0.29166034 0.08587369 -0.09714291
000390 64 4a d8 3e 0f fe 67 3e f4 ce cc 3c 7c 2a 25 3f
       0.42244256 0.2265551 0.025001027 0.6451795
0003a0 bb f2 ee 3e 3e 69 d8 3e fe a8 6e bc b6 17 94 bc
       0.46669564 0.42267793 -0.014566658 -0.018077713
0003b0 e0 c5 0a be 12 75 ca 3c b1 86 c7 bd 0d 47 68 be
       -0.13552046 0.024714027 -0.09742487 -0.22683354
0003c0 b3 1a 61 3e a3 9a ba bb d6 7f 26 be 0d f7 27 be
       0.21982841 -0.0056947037 -0.16259703 -0.16402836
0003d0 a4 38 f3 3e 82 27 28 3f 13 78 da be 05 ee a1 3e
       0.4750415 0.65685284 -0.42669734 0.31626907
0003e0 5e d2 25 3f 7c 21 00 bf f8 5c b0 3d 7f 26 1d 3f
       0.6477412 -0.50051093 0.086114824 0.61386865
0003f0 c8 db 88 3d cb 41 17 3f 23 38 22 3f 88 6b e2 be
       0.06682545 0.5908477 0.6336691 -0.44222665

conv2Ds.0.weight f4 [24, 59, 3, 3]
000000 60 1e 00 3d c3 e3 2a 3d 7b cf 36 bd 14 9f 2d 3d
       0.031278968 0.041721117 -0.044631463 0.042388037
000010 ea 70 98 3d e2 c7 ed bc 47 6a a4 bc 83 76 73 3d
       0.07443412 -0.029025976 -0.020070208 0.059439193
000020 05 c0 e5 3b ff 14 45 3c 86 38 0e bd cc b6 2a 3d
       0.007011416 0.012028932 -0.034721874 0.041678235
000030 87 12 ab 3c c1 49 1d 3d 2a 8d 40 bd 35 30 8c 3d
       0.020882858 0.038400415 -0.047009625 0.06845132
000040 13 9d bf 3c a6 7a 8b bd cd 32 41 bd ea 74 4c bd
       0.023390329 -0.06810503 -0.047167588 -0.049916185
000050 d7 fe 29 3d 99 2e 93 bd 96 bf 5c 3d 2b 6d 9a 3d
       0.0415028 -0.07186622 0.053893648 0.075403534
000060 74 e4 20 3c 8d c4 af bc 5e 52 18 bd 5a b3 a0 bd
       0.0098200925 -0.021456027 -0.037187926 -0.078467086
000070 bd b3 99 bc 7d f8 9c bd 92 e5 a4 3d e3 3e 68 bd
       -0.018762464 -0.07664583 0.080515996 -0.0567006
000080 c3 62 9c bb 95 0c 8b bd 8b 94 be 3c de ea 38 bd
       -0.0047725155 -0.06789509 0.02326419 -0.04514586
000090 2e 24 83 3d 3b 4f 2c bc 04 2f 21 3b 5a 24 81 3d
       0.06403385 -0.010516937 0.0024594674 0.06305762
0000a0 c7 8a 0c 3b dd 96 08 3d 19 68 2f bd 9e 31 1a 3d
       0.0021445022 0.033347 -0.042823885 0.037644975
0000b0 34 2e 32 3c 6a 19 39 bb ec fe 47 bd 8d e7 33 3d
       0.0108752735 -0.0028243908 -0.048827097 0.043921996
0000c0 33 a5 67 bd d9 a1 36 3c 91 52 2e 3d be b9 9f 3c
       -0.05655403 0.011146986 0.04255921 0.019497748
0000d0 a4 f3 93 bc 62 38 4b 3c 08 b5 8e 3b ae 14 6b ba
       -0.018060513 0.012403579 0.0043550767 -0.000896762
0000e0 1c 5f 4d bc ec 15 63 3d 49 26 57 3d 47 48 96 3d
       -0.012534883 0.05544083 0.052526746 0.073380046
0000f0 83 b2 c4 ba fb 4e 68 3d e4 d0 4b bd b2 42 49 ba
       -0.0015006814 0.056715947 -0.04975976 -0.000767748
000100 5c 84 16 bb 95 48 93 3d a8 ce 41 bc 67 bd 58 3b
       -0.0022967076 0.07191578 -0.011829056 0.0033071877
000110 ab a5 6c bd b2 a1 83 3d 00 29 9e bd 14 25 27 3d
       -0.05777518 0.06427325 -0.07722664 0.040806845
000120 bf eb 50 3d e8 11 09 bc 73 92 82 bb fc 33 67 3c
       0.051006075 -0.008366086 -0.0039847433 0.014111515
000130 b4 cd d5 3c 68 f0 ab bc de fc cc 3c f8 52 82 3d
       0.026099063 -0.020988658 0.02502292 0.06363481
000140 1f 52 98 bc 24 b5 1c bb bf 35 52 bb 6c c0 a0 3d
       -0.018593846 -0.002391168 -0.0032075492 0.078492016
000150 73 51 68 3d 25 49 de bc b9 47 71 3d 62 d3 85 bc
       0.0567183 -0.027134487 0.05890629 -0.016336147
000160 57 f9 04 3d dd a0 69 3d f2 03 18 bd 5a 35 da 3c
       0.03246435 0.057038177 -0.037113138 0.026636768
000170 3f 49 a5 3a 81 c1 60 3c 2c 28 92 3d 86 11 8b 3c
       0.001261033 0.01371801 0.071365684 0.01697613
000180 44 1a 45 bc 05 e9 a8 3d 6a 70 54 bd f3 fd 17 3d
       -0.012030188 0.0824757 -0.05186502 0.03710742
000190 27 09 1f bd 82 e3 22 3d 3f c5 43 3d 9f b9 f1 bc
       -0.038827088 0.03976775 0.04779553 -0.029507456
0001a0 6d ab 36 3d 6c 8a 3b 3c 9f a7 24 3c 26 25 d4 b9
       0.044597078 0.011446577 0.01004973 -0.0004046347
0001b0 8c 65 26 bd 0d c8 37 bd a4 81 34 bd b2 c5 17 bd
       -0.040624186 -0.044868518 -0.044068947 -0.03705377
0001c0 b1 6f 89 bd 34 eb 9a 3d f7 4c 82 3d 21 b0 9e 3c
       -0.067107566 0.07564393 0.06362336 0.019371094
0001d0 77 64 58 bd 9d 38 58 3c 54 79 e1 bb 03 9c 91 bd
       -0.052830186 0.013197091 -0.0068809185 -0.07109835
0001e0 d4 fc 7c 3d c6 86 af bb 69 e4 2a 3c f2 4a e2 bc
       0.061764553 -0.0053566424 0.010430434 -0.027623627
0001f0 85 42 b7 3b c1 16 13 bd 09 16 43 3d f4 50 a9 bd
       0.0055926465 -0.03591037 0.047628436 -0.08267394
000200 20 b9 71 bd c0 6e 9c bd d4 65 ae bb 3f 8f 89 bd
       -0.05901444 -0.076383114 -0.0053221975 -0.06716775
000210 02 f3 0f bc 50 51 99 3d d6 2f 3b 3b d2 41 2b 3d
       -0.008785965 0.07486212 0.0028562448 0.041810818
000220 29 c3 2b 3d ae ce a8 bd b8 bb 35 3b 52 cb 29 bd
       0.041934166 -0.08242546 0.0027730297 -0.041453667
000230 6a d4 a8 3d 10 04 64 bd 01 d5 73 bd db 55 5c 3c
       0.0824364 -0.055667937 -0.05952931 0.013448204
000240 16 75 50 bd bb 85 30 3d d5 66 a1 3c ba 57 a8 3d
       -0.05089291 0.043096285 0.019702354 0.082198575
000250 d8 99 78 3b f8 80 b3 3c 78 98 8b ba d0 bb 7d 3b
       0.0037933495 0.021912083 -0.0010650298 0.0038716681
000260 53 94 c3 3c a1 dc 5d 3d c2 e5 59 bb 37 e4 00 bd
       0.023874437 0.054165486 -0.0033248519 -0.031467643
000270 49 92 f4 3c a9 a9 94 bd fa 5d e2 3c 97 ea 0e bb
       0.02985491 -0.072589226 0.027632702 -0.0021807307
000280 2d 71 a6 bc 12 a4 ea bc a6 09 b6 bd b3 ed 98 3d
       -0.020317638 -0.028642688 -0.08888559 0.074672125
000290 97 18 69 3d a7 5e cf bc 5f 34 fc 3c 6a 29 2d bd
       0.056908216 -0.025313688 0.030786691 -0.042275824
0002a0 83 c0 b6 bc 95 8e 50 bd e2 b9 9d bd 79 ed b6 bc
       -0.022308594 -0.050917227 -0.0770147 -0.022330033
0002b0 ff 4e 55 bd 0e 46 a5 3c 28 38 9f 3b e6 d6 b0 3d
       -0.05207729 0.020175006 0.0048589893 0.086347386
0002c0 20 b8 39 bd 5d e1 46 bd 0f 96 30 3c d4 42 be bb
       -0.04534161 -0.048554767 0.010777964 -0.0058063064
0002d0 85 1b 8b 3d 6b d0 2c 3c 04 e6 5e 3d 4f 4e 28 bc
       0.06792358 0.010547738 0.05441858 -0.0102725765
0002e0 4e 5c df bc 4d 86 b5 3c 66 e7 c2 b9 b9 b1 1c bd
       -0.027265694 0.022158766 -0.0003717497 -0.038255427
0002f0 0b 33 1a bd 36 d1 80 bd 06 a1 1b 3d d5 51 48 3d
       -0.037646335 -0.06289904 0.03799536 0.048906166
000300 47 80 4b bc 83 ee f3 bc b1 99 74 bd e4 9d e1 bc
       -0.01242072 -0.029776817 -0.059716884 -0.027541108
000310 a1 c7 a5 3d 98 ce cc 3c d2 78 51 bb ac 89 6e bd
       0.08094717 0.025000855 -0.0031962884 -0.058236763
000320 0d 07 86 bd ca 15 7d bc 3c f5 1f 3d f7 c7 09 3d
       -0.065443136 -0.015447089 0.039052233 0.033637967
000330 31 2f a5 3d 98 69 09 3b 8f d1 1a 3d cc d7 30 3d
       0.08065642 0.002096748 0.037797507 0.04317455
000340 87 ed 90 3d 0d 98 f7 3c 32 bd 93 3c 56 eb 5e bb
       0.07076555 0.03022387 0.018034551 -0.0034014783
000350 a4 e5 e0 bc 07 4f ba bc d5 6f 53 bd f6 d8 05 3c
       -0.027453251 -0.022742761 -0.051620323 0.008169403
000360 06 5f 86 3d b7 6a 2e bc fe 38 11 bd 12 15 9d bc
       0.06561093 -0.01064556 -0.035454743 -0.019175086
000370 0f 8c 68 3b db 0a e1 3a a6 21 46 3c 7c c4 d6 3c
       0.0035483872 0.0017169373 0.012092983 0.026216738
000380 c0 f7 90 bc 37 e0 24 bc f1 ed c7 bc 6d 31 0c 3b
       -0.017696261 -0.010063223 -0.024405451 0.0021391765
000390 5a 8c 3b 3d 8a 4a 9d bd a9 d6 a9 bc 56 6d f5 3c
       0.045788147 -0.07680233 -0.02073224 0.029959362
0003a0 b8 a4 63 3d d1 0f d1 bc e6 a3 8d bd e5 41 91 3c
       0.05557701 -0.025520237 -0.06916027 0.017731616
0003b0 c9 32 9e bc 85 22 8e bd 8d a1 6e 3d ce 7f 86 bc
       -0.019311326 -0.06940178 0.058259536 -0.016418364
0003c0 18 5b d6 bc 46 aa 8c bd ae d1 21 3d 8e a2 0e bc
       -0.026166484 -0.068684146 0.039506607 -0.008705748
0003d0 6d d0 ac 3c 92 b8 2f bd 5b 80 9a bd 55 8f 8a bd
       0.021095479 -0.04290063 -0.07544013 -0.0676562
0003e0 3c 8d e1 3c 36 47 2d bd 2c c8 95 3d 11 24 0b bd
       0.027533166 -0.04230424 0.073135704 -0.033969942
0003f0 eb d1 9b bd 45 6c a4 3d bc 4c 34 bc a4 42 88 bd
       -0.07608398 0.08028463 -0.011004623 -0.06653336

conv2Ds.0.bias f4 [24]
000000 a8 3e c7 bc e1 16 73 3b 37 59 c4 bc ca 08 70 3c
       -0.024321869 0.0037092494 -0.023968322 0.014650533
000010 8d e3 d0 3a 59 85 9f bc 70 ca 81 bc 86 5c c9 bd
       0.0015936956 -0.019472765 -0.0158436 -0.098321006
000020 e4 d4 2d bc 89 42 8b bd 29 45 ef bd 9e 37 7a 3c
       -0.010609839 -0.067998 -0.11683113 0.015272049
000030 21 94 c6 3c 92 c0 8e 3d 56 14 c1 3c b5 4b e7 bd
       0.024240555 0.069703236 0.023569267 -0.11293737
000040 dd 65 05 bd af e0 85 bd 54 3b c8 bc 2b 6b b8 bd
       -0.032567848 -0.065369956 -0.024442352 -0.09004816
000050 a7 37 25 bd 9d 47 a2 3d 4e 65 81 3d 10 29 c6 bb
       -0.040336277 0.079238154 0.063181505 -0.0060473755

conv2Ds.2.weight f4 [1, 24, 3, 3]
000000 2a 8a eb 3d db 5d 12 3e a7 6a 17 be 97 1f 21 3e
       0.11500962 0.14293616 -0.14786778 0.15734707
000010 a6 6d 8e bc be e9 ff bd 34 ab cf bd dd eb 87 bd
       -0.017386269 -0.12495755 -0.10140076 -0.06636784
000020 75 58 b3 3d 99 85 6d bc ed b2 5d 3d 3f 8a 02 be
       0.08757106 -0.014497184 0.054125715 -0.12748049
000030 1b 19 33 3c 89 30 22 bd 9f 08 46 bd 90 98 c3 b9
       0.010931279 -0.039597068 -0.048348065 -0.00037306966
000040 5e a4 e2 bb 4e e3 c7 3d 1f 19 f6 3c df 4d 50 3e
       -0.0069165668 0.09760152 0.030041276 0.20342205
000050 9b 13 28 be 55 13 e4 3e 38 db fb 3e 3d ce ba 3e
       -0.16413729 0.44546 0.49190688 0.36485472
000060 e3 0b fe 3e dc bb c3 3e b3 d0 e4 3d 69 b1 41 3c
       0.49618444 0.38229263 0.11172619 0.011822083
000070 5b 1a 85 3b 8b 63 19 3d 6f b3 f1 3a 48 e6 b7 3d
       0.0040619797 0.037448447 0.0018440316 0.089794695
000080 b6 8a ac bd 81 35 0d 3d 38 a0 dc 3b 69 e1 06 be
       -0.084248945 0.034474853 0.0067329668 -0.13171925
000090 61 1a 70 3d ad 08 e2 bd 2c 2e 1c bd 77 af 72 3b
       0.058618907 -0.11036811 -0.03812997 0.0037030855
0000a0 d3 ae 9f bd 96 d5 9c 3d d0 92 f0 bd 41 a3 14 3e
       -0.07797017 0.07657926 -0.11746752 0.14515401
0000b0 83 d2 d3 3d e3 d2 56 bf 37 cc 85 be 91 36 9d be
       0.10342886 -0.8391554 -0.26132366 -0.30705693
0000c0 79 78 ff be a7 16 3a bf e2 cf 72 3e 60 c8 e8 be
       -0.498966 -0.72690815 0.23712113 -0.45465374
0000d0 5a 3e c3 bd c0 1f 29 3f db 60 c9 3d 99 b7 f4 3d
       -0.09533377 0.6606407 0.09832927 0.11949081
0000e0 a7 58 e9 3d c5 74 11 be 52 60 c5 bd e2 ad 8b bd
       0.11393862 -0.142047 -0.09637512 -0.06820275
0000f0 ed 58 29 bb c6 83 e3 bd 7c df 06 bd e1 76 9f 3d
       -0.0025840357 -0.11109118 -0.032927975 0.07786346
000100 51 ab 93 3e 1c 3d 84 3d 8e 0c 5a 3e 87 e2 ab 3d
       0.28841642 0.06456968 0.21293852 0.08392816
000110 a4 b8 2e 3e 11 19 e6 3e dc 83 1e 3f a9 c0 0d 3f
       0.17062622 0.44941 0.6191995 0.553721
000120 18 31 04 00 b2 a0 ce 94 68 71 85 3b 2d 25 0a 80
       3.84954e-40 -2.0864067e-26 0.004072357 -9.31691e-40
000130 15 56 9f 2e 9a 49 e5 ba a6 b8 05 80 6a bd fe ae
       7.245774e-11 -0.0017493248 -5.25417e-40 -1.15842294e-10
000140 94 6f a6 ba 2e 89 c9 3e 3e b5 e3 3e 45 9c ac 3e
       -0.0012698048 0.39362472 0.44474214 0.33712974
000150 39 f6 88 3e 99 93 7f 3e 58 fb bc 3e ac cf da 3e
       0.26750353 0.24958648 0.3691051 0.42736566
000160 e9 b1 ae 3e c6 f8 07 3f 4a 4a a2 3e 07 ad 42 3e
       0.3412011 0.53113973 0.31697303 0.19011317
000170 b2 e1 bf 3e 73 02 3e bd 81 b7 b7 3d 25 10 b8 3e
       0.3747688 -0.046389055 0.089705475 0.35949817
000180 8f 03 8f 3e d2 30 12 3e 6c 0e 53 3d cf 5a f8 bc
       0.27932402 0.14276436 0.051527426 -0.030316738
000190 01 13 0c 3d 2a ea b0 3d ed 3d 92 bd f7 a0 1c 3e
       0.03419781 0.08638413 -0.07140718 0.15295778
0001a0 81 e0 1c be ac dd 56 3d ae a9 03 be b1 5b e8 bb
       -0.15320016 0.052457497 -0.12857696 -0.0070910086
0001b0 35 eb e8 3e 0a 13 1c 3f 74 7c 8f 3e b6 63 59 3f
       0.4549195 0.6096655 0.28024638 0.8491777
0001c0 a9 33 6b 3f a2 c4 1c 3f e5 90 69 3e 8e d4 84 3d
       0.918757 0.6123754 0.22809179 0.06485854
0001d0 37 5b bf bd 8a 94 82 3e ee dc 76 3e fa 30 1f 3e
       -0.0934357 0.2550395 0.24107715 0.15546027
0001e0 a8 a9 70 3a 13 88 69 3e 95 f1 b3 3d 11 0b 92 bb
       0.0009180554 0.22805814 0.087863125 -0.0044568856
0001f0 e9 f8 16 be 4f cc 9a 3b d6 e9 ec bd ad eb c6 3c
       -0.14743389 0.0047240625 -0.11568038 0.0242823
000200 25 01 11 bd a2 90 1c 3e aa 86 e8 bd db 49 23 3e
       -0.035401482 0.15289548 -0.1135381 0.15946142
000210 99 07 19 be 89 2b 16 3e 26 ea 5f bd 81 de 84 3e
       -0.14944305 0.14665045 -0.05466666 0.25951007
000220 68 35 f6 bd 6d 34 98 bc 31 a6 01 3f 15 06 55 3d
       -0.12021905 -0.018579686 0.5064421 0.052007753
000230 c4 43 06 3e e2 77 e1 3e 0e 02 e9 bd d7 f8 68 bd
       0.13111788 0.44036776 -0.11377345 -0.056877937
000240 5a 8b 7e 3c 75 0f a5 bd 63 bc 6f bc 84 4a b7 3b
       0.015536154 -0.08059589 -0.014632317 0.0055935998
000250 7b e2 85 3c 2c 26 9b bd f9 07 81 3d 8c 3c 06 3e
       0.016343346 -0.0757564 0.06300349 0.13109034
000260 d0 ff b4 bd 1a d9 0a 3f 78 11 0c 3f b8 31 e7 3e
       -0.08837855 0.5423752 0.54714155 0.4515512
000270 cf c5 b3 3e 14 ce e2 3e f9 d0 cb 3e b3 46 2a 3e
       0.35111853 0.4429785 0.3980787 0.16628532
000280 59 1e be 3e 60 b4 9a 3e 62 87 d1 3e 23 04 89 3e
       0.37132528 0.3021574 0.409236 0.2676097
000290 b8 21 99 bd 9f d6 03 3f 01 66 d6 3d 40 8b 17 bd
       -0.074771345 0.5149936 0.104686745 -0.036998034
0002a0 2d 7a 7a 3e 6f 97 ef 3c 4b e6 10 be 83 90 06 bc
       0.24460669 0.029247014 -0.1415035 -0.008213165
0002b0 9d ea 57 3e 72 75 d4 3e 54 5f ab 3e f1 3a 1c 3e
       0.21085592 0.41495854 0.33471167 0.1525686
0002c0 f8 ff e1 3e 90 d2 ca 3e da 16 5c 3e 8a a0 b8 3e
       0.441406 0.3961377 0.21493092 0.36059982
0002d0 bb aa a0 bd e3 8a c0 bd f2 fd 3c 3d fd d4 92 bd
       -0.07845064 -0.094014905 0.04614062 -0.071695305
0002e0 70 85 f7 bd 05 ad ee bd 71 c3 2c 3d 15 66 15 be
       -0.12085998 -0.116540946 0.042178575 -0.14589722
0002f0 71 17 c5 bd 1c 73 05 be 47 2e ce 3d 9c ff f5 3d
       -0.09623612 -0.13032192 0.100674205 0.12011644
000300 9f f5 59 bb b3 75 c4 bc fe eb 52 3e de 9b b7 be
       -0.0033257974 -0.023981905 0.20597836 -0.35861105
000310 10 5d f4 bd 82 25 c3 bd 2f 98 94 bd 05 16 6d be
       -0.11931813 -0.095286384 -0.07255589 -0.23152931
000320 88 b3 06 be 43 c5 ed 3d 0f e8 5f 3e 68 bb 27 3e
       -0.13154423 0.1160989 0.21865867 0.16380084
000330 84 68 a6 3d 3c c6 52 3e e7 da 7d 3e 22 a5 ac 3e
       0.081254035 0.20583433 0.24790536 0.33719736
000340 98 b3 bd 3e 4d c5 61 3e 1f fd bb 3e de fd c0 bd
       0.37051082 0.2204792 0.36716554 -0.09423421
000350 da 5b 98 bd 17 55 af 3e 14 01 ab bd 4c 48 a8 be
       -0.07439394 0.34244606 -0.08349815 -0.32867658

exp_avg f4 [16, 1, 3, 3, 3]
000000 02 04 22 41 64 b2 c8 40 83 f7 82 40 84 d3 b5 41
       10.125978 6.271776 4.092714 22.72828
000010 d5 48 ae 41 73 6c bb 41 ff 99 cd 41 2f 6d cc 41
       21.785563 23.427954 25.700193 25.553312
000020 4a f2 e5 41 99 3c f8 40 7f 62 ec 40 f3 54 ee 40
       28.743305 7.757397 7.3870234 7.44787
000030 73 3f 84 41 a1 33 8d 41 94 0b ad 41 57 77 8c 41
       16.530981 17.65021 21.630653 17.558271
000040 19 cb b0 41 ef fe ef 41 72 1a b3 41 af bc aa 41
       22.099169 29.99948 22.387913 21.34213
000050 61 65 ae 41 ef 90 ed 41 78 b6 e7 41 49 6c f4 41
       21.799501 29.695768 28.964096 30.552874
000060 59 bc f9 41 93 d2 08 42 34 d6 1b 42 b0 00 ca c2
       31.216967 34.20564 38.959183 -101.00134
000070 e5 9b c8 c2 8b b8 d3 c2 6f 16 ba c2 66 4f c8 c2
       -100.30448 -105.860435 -93.043816 -100.155075
000080 1f 7f e2 c2 f1 ba 83 c2 fb e0 a0 c2 ce f3 d7 c2
       -113.24828 -65.86512 -80.439415 -107.97618
000090 7f d1 be c2 3d 29 d6 c2 e2 b6 f7 c2 51 3c 9c c2
       -95.40917 -107.08054 -123.85719 -78.117805
0000a0 0f 6a c2 c2 4f d9 f2 c2 9e 37 6d c2 d1 a1 a4 c2
       -97.207146 -121.42443 -59.304314 -82.31605
0000b0 09 8f e6 c2 0f 01 a2 c2 8e aa b5 c2 aa 9d cf c2
       -115.279366 -81.00207 -90.833115 -103.80794
0000c0 82 70 84 c2 c4 f0 a1 c2 14 db cc c2 95 57 40 c2
       -66.21974 -80.970245 -102.42789 -48.08553
0000d0 61 b2 71 c2 fb f1 ad c2 e5 df 99 c1 07 e4 86 c1
       -60.4242 -86.97262 -19.234324 -16.861341
0000e0 27 b2 27 c1 2c 3e ea c0 f0 20 d9 c0 38 e8 8a c0
       -10.480994 -7.3200893 -6.7852707 -4.340847
0000f0 47 df 76 c0 c1 cc 2d c0 86 34 f4 bf ac 5d 4f c1
       -3.8573778 -2.7156222 -1.9078529 -12.960369
000100 d5 28 1d c1 7d 12 6f c0 f9 61 71 c0 84 e2 44 bf
       -9.822469 -3.7355034 -3.7716048 -0.76908135
000110 c7 3d 95 40 68 94 fb bf 9a e0 9b 3d 47 c3 9c 40
       4.663791 -1.9654665 0.07611199 4.8988376
000120 49 92 70 c1 26 19 5c c1 ac 3f 27 c1 69 1d 69 c0
       -15.035714 -13.75614 -10.453045 -3.64242
000130 91 67 79 bf 78 f4 33 40 5d 72 02 c0 95 06 5a 3e
       -0.97423655 2.8117962 -2.0382302 0.21291573
000140 79 82 66 40 48 41 22 42 66 f6 53 42 85 a9 81 42
       3.6017134 40.56375 52.990623 64.83109
000150 58 25 f0 41 36 74 0a 42 c0 d1 32 42 28 fa cc c1
       30.018234 34.613487 44.704834 -25.622147
000160 0a aa aa 40 f9 56 0f 42 ef 0b 9e c1 46 be 22 41
       5.3332567 35.834934 -19.755827 10.171453
000170 67 63 06 42 75 db bb c1 fc 63 cc bf b2 69 7e 41
       33.597073 -23.482157 -1.5968013 15.9008045
000180 79 69 30 c2 85 63 11 c1 53 83 c9 41 ec cc 69 41
       -44.103 -9.086797 25.189123 14.61253
000190 5c 31 fc 41 4c e9 24 42 5e 56 56 42 3b 2e 89 42
       31.524101 41.22783 53.584343 68.590294
0001a0 13 92 a5 42 68 0b d0 c0 79 f2 bb 41 9a f6 55 42
       82.7853 -6.5013924 23.493395 53.49082
0001b0 d2 b7 74 c1 4c 8f 5f c1 8a 68 53 c1 88 be af c1
       -15.294878 -13.972485 -13.213022 -21.968033
0001c0 d7 9a ad c1 95 82 b3 c1 a3 4d c1 c1 9e cb cf c1
       -21.700605 -22.43876 -24.162909 -25.974422
0001d0 db ad ef c1 19 95 59 c1 c6 e1 6f c1 e2 46 8f c1
       -29.95989 -13.598901 -14.99262 -17.90961
0001e0 1e 6b ad c1 2d 37 b6 c1 89 86 cf c1 3f 4a c3 c1
       -21.677303 -22.776941 -25.940691 -24.411253
0001f0 c9 a2 d5 c1 b4 da fa c1 51 84 56 c1 8b 94 77 c1
       -26.704485 -31.356789 -13.407304 -15.473765
000200 42 66 95 c1 aa e3 a9 c1 98 86 b6 c1 7a 66 d2 c1
       -18.67493 -21.236164 -22.81572 -26.300037
000210 3e a6 b7 c1 5e 4e c5 c1 ad 78 e9 c1 e4 aa 4e c1
       -22.956173 -24.663265 -29.183924 -12.916721
000220 69 29 48 c1 a2 e6 82 c1 b3 e3 be c1 1f 8b bc c1
       -12.51011 -16.362614 -23.861181 -23.56793
000230 d0 32 dd c1 e6 cd d8 c1 1c 0e e8 c1 90 3f 10 c2
       -27.64981 -27.100536 -29.00689 -36.062073
000240 3e e7 89 c1 21 41 aa c1 f5 35 e6 c1 12 79 e3 c1
       -17.237911 -21.281801 -28.776346 -28.434116
000250 52 e4 fb c1 cc 5b 1d c2 17 b6 02 c2 65 8b 0f c2
       -31.486485 -39.339645 -32.677822 -35.886127
000260 2a ce 34 c2 39 3d 6d c1 d7 67 87 c1 bc eb ac c1
       -45.201332 -14.827447 -16.925703 -21.615105
000270 e9 71 cb c1 21 1e d9 c1 74 9c 03 c2 75 69 e6 c1
       -25.43062 -27.139711 -32.902786 -28.801493
000280 4d 06 f7 c1 f7 76 19 c2 23 cf 99 42 08 b6 93 42
       -30.878077 -38.366177 76.904564 73.85553
000290 dd 09 a3 42 a1 4e 03 42 fe fa 18 42 3e da 20 42
       81.519264 32.826786 38.24511 40.213127
0002a0 fb ce e3 c1 e5 59 94 c1 04 00 dc c1 83 10 d4 42
       -28.476065 -18.543894 -27.500008 106.03225
0002b0 53 04 bd 42 6d f4 ae 42 de ef 4c 42 0a c2 25 42
       94.508446 87.477394 51.234245 41.43949
0002c0 2a 5e ef 41 b3 6a 81 c1 e0 47 c5 c1 e9 b5 12 c2
       29.920979 -16.1771 -24.660095 -36.677647
0002d0 a1 07 9e 42 80 ea 93 42 e9 8c 8f 42 63 ba 81 41
       79.0149 73.95801 71.775215 16.21601
0002e0 81 03 63 41 a5 58 3b 41 b9 50 8f c1 ac e6 a0 c1
       14.188355 11.709142 -17.914415 -20.112633
0002f0 77 bb da c1 5c ca 9a 3f fd ff a9 40 92 66 46 41
       -27.341536 1.2093005 5.3124986 12.400042
000300 96 b3 46 40 f3 6a b8 40 78 a3 47 41 f7 00 0c 41
       3.104711 5.7630553 12.477409 8.750236
000310 bd a0 1f 41 8b be 8f 41 26 d7 5d 40 18 84 e8 40
       9.976743 17.968039 3.4662566 7.2661247
000320 81 86 5a 41 14 39 18 40 c2 64 85 40 90 c8 35 41
       13.657838 2.3784838 4.1685495 11.361465
000330 7d 21 22 41 09 ce 34 41 2e 3d a4 41 72 88 35 41
       10.133176 11.300302 20.529873 11.345812
000340 b9 62 60 41 b6 a2 8a 41 a9 3e f7 40 59 b5 e7 40
       14.024102 17.329449 7.726399 7.240887
000350 30 29 21 41 a2 9f 15 41 ca 71 16 41 83 a8 6e 41
       10.072556 9.351473 9.402781 14.916141
000360 08 b3 7c 41 b4 93 28 41 ef e0 3e 41 57 a8 06 42
       15.793709 10.53606 11.929915 33.664394
000370 39 cc dc 41 88 dc c4 41 39 7c 84 41 41 f3 44 41
       27.599718 24.607681 16.560656 12.309388
000380 2b bc d5 40 8e c6 90 41 26 b1 91 41 ac cb bd 41
       6.6792197 18.09695 18.211498 23.72445
000390 29 6f 1b 41 84 8c 0e 41 4b 14 66 41 55 b0 1b 40
       9.714639 8.909306 14.379954 2.4326375
0003a0 a0 01 28 c0 87 5e 98 c0 4d 27 a5 41 e2 a9 d4 41
       -2.6250992 -4.761539 20.64419 26.58295
0003b0 f8 57 0a 42 26 11 8d 40 3f e4 9f 40 3a 68 08 41
       34.585907 4.4083433 4.996612 8.525446
0003c0 ea 08 7c c1 0f 39 59 c1 42 5b 12 c1 ea d6 85 c2
       -15.752176 -13.57643 -9.14728 -66.919754
0003d0 ff 44 61 c2 4d e7 c2 c2 7d 8f 2f c3 4b 6a 29 c3
       -56.31738 -97.45176 -175.5605 -169.4152
0003e0 e6 54 47 c3 41 c4 15 c3 33 00 26 c3 cc 05 5a c3
       -199.33163 -149.76662 -166.00078 -218.02264
0003f0 7b cd f9 c2 d7 2e ef c2 af 7f 2a c3 8c 38 32 c3
       -124.90133 -119.591484 -170.49876 -178.22089

exp_avg_sq f4 [16, 1, 3, 3, 3]
000000 5c 42 06 47 04 42 33 47 3b 6a 62 47 43 46 32 47
       34370.36 45890.016 57962.23 45638.26
000010 5e 6f 7f 47 8b 51 a5 47 93 60 43 47 0c ac 90 47
       65391.367 84643.086 50016.574 74072.09
000020 54 86 c0 47 66 67 4c 47 7b 6b 8b 47 06 c2 af 47
       98572.66 52327.4 71382.96 89988.05
000030 be b9 83 47 b2 0f bd 47 d2 59 f4 47 aa ab 7e 47
       67443.484 96799.39 125107.64 65195.664
000040 0d a5 bd 47 9f 09 fe 47 0f e3 6f 47 03 66 a1 47
       97098.1 130067.24 61411.06 82636.02
000050 3b 5f c8 47 e5 e6 90 47 ec 17 cd 47 a2 eb 02 48
       102590.46 74189.79 105007.84 134062.53
000060 3d 06 77 47 fe f0 b7 47 2e 83 f7 47 3f 94 28 4a
       63238.24 94177.984 126726.36 2.7619998e+06
000070 92 1a 79 4a fe ee 9c 4a 83 ae 0c 4a 49 c4 63 4a
       4.0813165e+06 5.142399e+06 2.3049288e+06 3.7317302e+06
000080 45 49 98 4a 5a 64 b3 49 ba 2f 24 4a 59 3e 6d 4a
       4.9901145e+06 1.4695792e+06 2.6900305e+06 3.8869982e+06
000090 40 a1 3b 4a 63 aa 89 4a 0b d7 ac 4a 3a f8 12 4a
       3.074128e+06 4.5110255e+06 5.6636215e+06 2.4079505e+06
0000a0 22 28 70 4a 17 77 a1 4a 6c 54 ac 49 9d 02 23 4a
       3.9347285e+06 5.2908915e+06 1.4117255e+06 2.6707592e+06
0000b0 45 fd 6f 4a ff f5 17 4a c2 18 5f 4a 4b 5e 8b 4a
       3.9319852e+06 2.4897278e+06 3.6552165e+06 4.5668215e+06
0000c0 f7 82 db 49 2b fc 37 4a fc 40 79 4a 85 ee 71 49
       1.7982389e+06 3.0144108e+06 4.083775e+06 990952.3
0000d0 93 a8 ef 49 95 20 34 4a 34 73 c4 45 70 78 f2 45
       1.9632824e+06 2.9512052e+06 6286.4004 7759.0547
0000e0 b6 c6 1d 46 76 0c fc 45 59 13 c2 45 13 a6 cb 45
       10097.678 8065.5576 6210.4185 6516.7593
0000f0 af 39 43 46 a1 b0 0c 46 9a 95 ed 45 1a 9e d4 45
       12494.421 9004.157 7602.7 6803.7627
000100 89 d5 07 46 8f 3a 33 46 6a db 15 46 40 31 d9 45
       8693.384 11470.64 9590.854 6950.1562
000110 25 f9 e0 45 61 22 6f 46 ff 2d 28 46 23 0f 0b 46
       7199.143 15304.595 10763.499 8899.784
000120 48 6a b2 45 99 48 fa 45 f0 0e 26 46 3a 15 ec 45
       5709.285 8009.0747 10627.734 7554.6533
000130 8a eb ac 45 68 29 bf 45 4b 9e 42 46 6c 67 03 46
       5533.4424 6117.176 12455.573 8409.855
000140 6a 68 da 45 ad 74 34 49 0b bb 77 49 90 2b 9b 49
       6989.052 739146.8 1.0147047e+06 1.271154e+06
000150 87 d6 b8 48 ef 7a 07 49 76 ec 38 49 85 09 70 48
       378548.22 554926.94 757447.4 245798.08
000160 2c 11 78 48 29 e6 aa 48 24 b1 50 49 20 13 90 49
       254020.69 350001.28 854802.25 1.18026e+06
000170 3b 73 b3 49 ba 9b bb 48 24 39 09 49 3d cf 40 49
       1.4700554e+06 384221.8 562066.25 789747.8
000180 8f eb 8f 48 6b 7b 81 48 87 b6 b3 48 27 73 50 49
       294748.47 265179.34 368052.22 853810.44
000190 51 1b 93 49 b5 50 b8 49 fb ae a7 48 cb e0 11 49
       1.2050981e+06 1.5099106e+06 343415.84 597516.7
0001a0 b1 ad 57 49 5a a4 2f 48 6d 7c 6b 48 78 ab d3 48
       883419.06 179857.4 241137.7 433499.75
0001b0 40 bb ae 47 0b 8d ec 47 a8 06 10 48 b6 db d2 47
       89462.5 121114.086 147482.62 107959.42
0001c0 0b 72 15 48 5d 88 3b 48 3c 3c d3 47 6a 4a 1c 48
       153032.17 192033.45 108152.47 160041.66
0001d0 82 8d 4b 48 36 64 d6 47 6c a5 0e 48 d9 aa 2b 48
       208438.03 109768.42 146069.69 175787.39
0001e0 45 6b f9 47 e3 c3 2e 48 6e db 59 48 ba 06 ed 47
       127702.54 178959.55 223085.72 121357.45
0001f0 19 20 2f 48 a8 3f 64 48 05 9f c7 47 0a 77 02 48
       179328.39 233726.62 102206.04 133596.16
000200 c8 60 1b 48 32 31 e2 47 38 ac 1c 48 96 f1 41 48
       159107.12 115810.39 160432.88 198598.34
000210 4d ee ce 47 e5 5a 18 48 cf 38 46 48 4d f2 17 48
       105948.6 156011.58 202979.23 155593.2
000220 b7 ef 44 48 1c cf 6c 48 57 c6 42 48 d9 96 82 48
       201662.86 242492.44 199449.36 267446.78
000230 f3 c1 9f 48 d2 84 49 48 9f d3 8c 48 0d cf b1 48
       327183.6 206355.28 288412.97 364152.4
000240 78 0e 34 48 b6 a4 64 48 33 53 88 48 ce a8 5c 48
       184377.88 234130.84 279193.6 225955.22
000250 56 70 92 48 4a 81 b2 48 7c 60 59 48 f9 de 97 48
       299906.7 365578.3 222593.94 311031.78
000260 3f 31 c0 48 5c 18 18 48 1a b6 3e 48 39 32 62 48
       393609.97 155745.44 195288.4 231624.89
000270 10 93 37 48 88 a5 71 48 9b e6 92 48 52 b6 32 48
       187980.25 247446.12 300852.84 183001.28
000280 56 81 78 48 5d 31 9d 48 fd 69 86 49 fe 1f 87 49
       254469.34 321930.9 1.1011196e+06 1.1069438e+06
000290 03 34 85 49 d0 4e f1 48 00 22 cd 48 f9 72 b7 48
       1.0912004e+06 494198.5 420112.0 375703.78
0002a0 d2 50 b0 47 ff 6a b7 47 8c 6d 08 48 af 2d 86 49
       90273.64 93909.99 139702.19 1.0991899e+06
0002b0 10 d5 80 49 22 62 78 49 e1 1b dd 48 6d 44 ad 48
       1.055394e+06 1.0173781e+06 452831.03 354851.4
0002c0 bb 92 96 48 23 01 ad 47 41 6a ea 47 50 f1 4e 48
       308373.84 88578.27 120020.51 211909.25
0002d0 f1 ba 3c 49 40 0d 33 49 dd eb 2c 49 66 cc 84 48
       773039.06 733396.0 708285.8 271971.2
0002e0 f0 83 4b 48 69 a1 3c 48 82 ea 8f 47 1f be 0d 48
       208399.75 193157.64 73685.016 145144.48
0002f0 7c 04 83 48 d8 ab bb 46 ef 9d b6 46 a9 0d b7 46
       268323.88 24021.922 23374.967 23430.83
000300 50 70 b9 46 63 f3 a8 46 89 e9 a0 46 c1 80 bb 46
       23736.156 21625.693 20596.768 24000.377
000310 60 82 a7 46 8a ce 9f 46 d9 36 b4 46 77 86 b6 46
       21441.188 20455.27 23067.424 23363.232
000320 7e ca be 46 fe 21 b2 46 10 27 a9 46 f1 d4 a8 46
       24421.246 22800.996 21651.531 21610.47
000330 8c 5f b7 46 3d c2 a9 46 eb c3 aa 46 6e af 87 46
       23471.773 21729.12 21857.959 17367.715
000340 be da 8d 46 a9 c8 9d 46 25 95 87 46 df 3e 86 46
       18157.371 20196.33 17354.572 17183.436
000350 63 95 8f 46 bc 1e 8c 46 36 7c 87 46 bc 33 8f 46
       18378.693 17935.367 17342.105 18329.867
000360 ae aa 0d 48 42 e9 06 48 2f cc 05 48 b5 5d c7 47
       145066.72 138149.03 137008.73 102075.414
000370 c5 0b a9 47 15 a1 9c 47 6f 66 1e 47 f8 fe db 46
       86551.54 80194.164 40550.434 28159.484
000380 d3 90 b0 46 22 6f 05 48 db 13 f4 47 0b c8 f1 47
       22600.412 136636.53 124967.71 123792.086
000390 e2 08 c9 47 dc db 9e 47 19 01 8c 47 c4 5c 25 47
       102929.766 81335.72 71682.195 42332.766
0003a0 07 1d d5 46 66 eb ad 46 50 37 9b 47 e3 43 8d 47
       27278.514 22261.7 79470.625 72327.77
0003b0 5c 61 92 47 8a 8d 66 47 a7 35 26 47 e1 eb 16 47
       74946.72 59021.54 42549.652 38635.88
0003c0 64 32 b1 46 c7 a2 49 46 9f 1b 48 46 26 34 fa 4a
       22681.195 12904.694 12806.905 8.198675e+06
0003d0 4a 8c 0d 4b 2a dc 20 4b 03 ea 00 4b 7b 6b 18 4b
       9.27649e+06 1.0542122e+07 8.448515e+06 9.988987e+06
0003e0 14 d4 2f 4b 4f b3 cb 4a e7 37 02 4b 9d e4 1d 4b
       1.1523092e+07 6.6748555e+06 8.533991e+06 1.0347677e+07
0003f0 f4 79 19 4b a4 82 2a 4b c4 39 40 4b 3f fb 1d 4b
       1.0058228e+07 1.1174564e+07 1.25977e+07 1.0353471e+07

exp_avg f4 [16]
000000 4f d6 4e 42 12 b4 7c c3 d7 cd 16 40 86 94 30 45
       51.709286 -252.7034 2.3563135 2825.2827
000010 d2 5d 5f 42 3d 2f aa 42 6a d3 3e c4 8a 89 53 c2
       55.84162 85.09226 -763.30334 -52.884315
000020 5a 2e 0c 43 4e db 45 c4 d0 ae 49 44 1f 1e b6 42
       140.18106 -791.42664 806.73145 91.05883
000030 26 71 2b 42 43 df 88 c4 28 59 70 c3 14 3b ad 41
       42.860497 -1094.9769 -240.34827 21.653847

exp_avg_sq f4 [16]
000000 bd 77 01 4a b4 29 35 4b a5 48 f4 48 85 a8 bb 4d
       2.1211992e+06 1.1872692e+07 500293.16 3.9354794e+08
000010 f2 fa b8 4a 9a a1 d7 4a 3c d6 25 4c 47 20 ea 49
       6.061433e+06 7.065805e+06 4.3473136e+07 1.9179609e+06
000020 65 fa 14 4b 44 d8 0e 4c 66 ba e2 4c f8 ae 8b 4b
       9.763429e+06 3.7445904e+07 1.1887083e+08 1.8308592e+07
000030 74 9c 69 4a ef 94 f8 4c 40 43 e3 4a 79 fb a0 4a
       3.827485e+06 1.3032844e+08 7.446944e+06 5.2750685e+06

exp_avg f4 [1, 16, 3, 3, 3]
000000 66 75 bf 40 41 c4 6e 41 ec 5b a2 41 47 1d 21 41
       5.983081 14.922914 20.294884 10.069648
000010 34 17 8f 41 7a 50 b1 41 53 03 33 41 a1 14 8d 41
       17.88633 22.164295 11.188312 17.635073
000020 e7 f9 9c 41 85 ec eb 41 89 cc 08 42 66 09 11 42
       19.622023 29.490488 34.19974 36.25918
000030 c1 86 a7 41 fd 87 c5 41 f2 bb d7 41 3a 7a 82 41
       20.940798 24.6914 26.96677 16.30968
000040 73 3d 93 41 e8 ae 92 41 03 e3 bf 41 d3 45 c0 41
       18.405005 18.335403 23.985846 24.034094
000050 98 aa 98 41 1a fa 37 41 39 f6 44 41 ee 46 0c 41
       19.083298 11.49856 12.310113 8.767317
000060 0a 4a 33 3e 82 bd 5c 3f 43 02 a0 bf 74 59 36 c1
       0.17508712 0.86226666 -1.250069 -11.396839
000070 bd a1 12 c1 09 b2 6d c1 89 77 95 41 68 62 6c 41
       -9.164487 -14.855966 18.683367 14.774025
000080 52 90 78 3f fa a9 da 40 7a 39 25 41 21 eb d8 3d
       0.97095215 6.833249 10.326532 0.10591722
000090 b4 16 a8 c0 1b 13 f2 3d 59 17 2c c0 1d 37 af 41
       -5.2527714 0.1182005 -2.688925 21.90191
0000a0 86 a2 a8 41 e0 5d 6a 41 65 75 39 41 a2 66 91 41
       21.079357 14.647919 11.591161 18.175114
0000b0 14 3f 77 41 72 9d be c1 3b c5 89 c1 73 98 96 c1
       15.4529 -23.826878 -17.221304 -18.824438
0000c0 62 4c dc 41 65 65 f6 41 fc f4 ce 41 6d f7 06 42
       27.537296 30.79951 25.869621 33.741627
0000d0 b3 45 23 42 0c 33 18 42 21 60 cb c1 eb 84 0d c1
       40.818066 38.04985 -25.421938 -8.844951
0000e0 13 b9 c7 3d 15 e1 7f c1 ad c2 75 c0 c7 07 3b c0
       0.09752097 -15.992452 -3.840007 -2.9223497
0000f0 27 06 20 c1 58 3b b5 3f 05 d9 7b c0 78 9f 06 c1
       -10.001502 1.4158735 -3.9351208 -8.413933
000100 e7 1d d4 40 16 9d 27 41 b3 51 a3 3f 23 d6 60 41
       6.62865 10.475851 1.2759308 14.052279
000110 d8 ef 86 41 04 fc ef bf ad 75 fd 40 8d e5 ca 40
       16.867111 -1.8748784 7.9206147 6.3405213
000120 e6 88 6e c1 b2 61 99 c0 fc 6f 37 c1 f0 bb f7 bf
       -14.908422 -4.7931757 -11.46484 -1.9354229
000130 17 c6 0b 41 93 21 c5 40 50 4a e9 3f 10 73 44 41
       8.735862 6.1603484 1.8225803 12.278091
000140 59 88 37 41 42 2b 8e 41 b3 ae 8c 41 e7 0e aa 41
       11.470788 17.771122 17.585302 21.257277
000150 54 93 89 41 77 87 0d 41 33 a7 3f be 92 2b 19 42
       17.196938 8.845572 -0.18716125 38.29255
000160 8c 59 bd 41 c5 81 2c 40 bc 24 ee c0 d7 09 4d c0
       23.668724 2.6954205 -7.441984 -3.2037256
000170 f6 61 8a 40 46 f1 bf 40 fa 14 19 3e b9 c9 24 c0
       4.324458 5.9982023 0.14949408 -2.5748122
000180 e1 c3 2c 42 c7 e0 07 42 6d cc b9 41 25 48 99 bf
       43.191288 33.96951 23.224817 -1.1975142
000190 bc 37 7f 3f af 0d 63 40 f2 4e 82 41 90 b1 1a 41
       0.9969442 3.5477102 16.288548 9.66835
0001a0 05 8e 59 40 05 59 08 42 46 2b d8 41 1e 4a 94 41
       3.3992932 34.086933 27.02113 18.53619
0001b0 e7 76 61 41 a9 cb af 41 53 47 77 41 70 32 e5 41
       14.091529 21.974443 15.454913 28.649628
0001c0 95 b1 17 42 3d d9 00 42 87 5b 03 42 a0 c2 38 42
       37.92342 32.212147 32.839382 46.190063
0001d0 5a 2c 2f 42 42 b0 49 41 1a 90 b9 41 d0 98 a3 41
       43.793312 12.605532 23.195362 20.449615
0001e0 79 08 d2 41 0b 05 15 42 ce 67 0e 42 7d 6d f6 41
       26.254137 37.254925 35.60137 30.803461
0001f0 e4 ab 2f 42 a0 9e 2d 42 53 a4 de 40 42 93 98 41
       43.917862 43.404907 6.957559 19.071903
000200 98 e4 7a 41 f4 cc a9 41 44 de fc 41 dd 22 e8 41
       15.680809 21.225075 31.608528 29.017023
000210 5a 50 ea 41 e3 7b 1a 42 3c 26 10 42 12 9e c2 41
       29.289234 38.620983 36.03734 24.327183
000220 c1 29 fe 41 83 f2 80 41 24 ec db 41 27 d9 0d 42
       31.770388 16.118414 27.490303 35.462063
000230 fc 28 b9 41 19 d3 0a 42 05 02 34 42 f8 2f 17 42
       23.145012 34.70615 45.001972 37.796844
000240 68 58 8f 41 16 d7 db 41 0c b9 89 41 06 3d e3 41
       17.918167 27.480022 17.215355 28.404797
000250 12 4f 19 42 f6 a6 de 41 c9 2d e5 41 7b 58 29 42
       38.327217 27.831524 28.647356 42.336407
000260 01 69 09 42 fe 56 30 41 aa 2a c0 41 7b 65 98 41
       34.352543 11.021238 24.020832 19.049551
000270 13 26 90 41 91 eb ea 41 61 0c c1 41 aa a4 b0 41
       18.01859 29.365023 24.131044 22.080402
000280 f2 20 06 42 af e0 de 41 5b 52 80 42 0f d4 93 42
       33.532173 27.859709 64.16085 73.91418
000290 2b 3b c2 42 fe dc 80 41 b8 22 16 42 fc 78 5f 42
       97.11556 16.107906 37.533905 55.86815
0002a0 18 ca 37 c0 8c 37 d0 41 6f 7f 16 42 a1 10 ad 42
       -2.8717098 26.027122 37.624447 86.53248
0002b0 2c 63 9e 42 7b e9 aa 42 df 2d a1 41 db 22 cb 41
       79.193695 85.45602 20.147398 25.39202
0002c0 5a 75 01 42 fc 14 22 c1 95 ba 41 40 fc 59 03 41
       32.3646 -10.130123 3.027013 8.209469
0002d0 14 81 33 42 df 33 53 42 45 27 79 42 c4 aa 6b c1
       44.876053 52.800655 62.28835 -14.729191
0002e0 45 28 ef 3f 4e 09 8b 41 54 a6 f7 c1 db 9e 3e c1
       1.8684164 17.379543 -30.956215 -11.913783
0002f0 c7 58 4f 40 b3 40 0b 43 a8 42 02 43 37 40 12 43
       3.2397935 139.25273 130.26038 146.25084
000300 44 b1 3d 43 44 2c 43 43 1e fb 59 43 65 07 52 43
       189.69244 195.17291 217.98093 210.02888
000310 af e9 73 43 fc ff 95 43 6a 0b 0e 43 00 95 1a 43
       243.91283 299.99988 142.04459 154.58203
000320 c0 4b 39 43 10 a2 3e 43 71 41 52 43 df b5 72 43
       185.2959 190.63306 210.25563 242.71043
000330 13 3f 3e 43 c2 11 65 43 55 2e 90 43 b4 09 e5 42
       190.24638 229.06937 288.36197 114.51895
000340 92 2f 0a 43 4f b0 25 43 db 09 37 43 b3 55 54 43
       138.18582 165.6887 183.0385 212.33476
000350 60 29 70 43 a9 ad 26 43 4c e8 4c 43 0d 22 7b 43
       240.16162 166.67836 204.90741 251.13301
000360 84 a8 00 42 26 25 ee 41 3f 40 2d 42 74 8d 97 41
       32.164566 29.768139 43.31274 18.944069
000370 4c 04 a3 41 65 ff 09 42 2c 99 37 41 42 d8 33 41
       20.377098 34.49941 11.4748955 11.240297
000380 85 7b a5 41 dc 8f 07 42 b6 03 be 41 48 2c fd 41
       20.685312 33.890488 23.751812 31.646622
000390 d3 ef 44 41 57 5f 3c 41 c8 b5 d0 41 09 44 0f bf
       12.308551 11.773276 26.08876 -0.5596319
0003a0 4e 9e 6a bf 31 ad 41 41 f0 81 61 42 ec 51 3c 42
       -0.91647804 12.104783 56.376892 47.08
0003b0 6c 93 58 42 5d dd 9b 41 e8 29 a2 41 e8 d3 12 42
       54.143967 19.483088 20.270462 36.70694
0003c0 47 99 f1 c0 e9 db b5 c0 15 64 25 41 3f 33 1a 40
       -7.5499606 -5.6830945 10.336934 2.4093778
0003d0 e1 3e 1c 40 66 a8 0a c1 8c dc b0 40 65 84 9f 3c
       2.4413378 -8.666113 5.526922 0.01947231
0003e0 20 54 6c c1 2f 98 b2 40 47 68 8a bf f6 1e 7a c1
       -14.770538 5.581077 -1.0813073 -15.632559
0003f0 8a 89 53 40 5a f7 be 40 ff 46 05 c0 4e cc 61 41
       3.3052697 5.9676943 -2.0824583 14.112379
